ST Edge AI Core v2.2.0-20266 2adc00962
Created date          : 2025-08-27 17:12:16
Parameters            : analyze --target stm32 --type onnx -m C:\Models\mobilefacenet_arcface_112x112_op13_fixed.onnx -o C:\STM32_FaceRecognition\face_rec_model --workspace C:\STM32_FaceRecognition\ws_mbf --verbosity 3

Exec/report summary (analyze)
---------------------------------------------------------------------------------------------
model file         :   C:\Models\mobilefacenet_arcface_112x112_op13_fixed.onnx               
type               :   onnx                                                                  
c_name             :   network                                                               
compression        :   lossless                                                              
options            :   allocate-inputs, allocate-outputs                                     
optimization       :   balanced                                                              
target/series      :   stm32                                                                 
workspace dir      :   C:\STM32_FaceRecognition\ws_mbf                                       
output dir         :   C:\STM32_FaceRecognition\face_rec_model                               
model_fmt          :   float                                                                 
model_name         :   mobilefacenet_arcface_112x112_op13_fixed                              
model_hash         :   0x33aa5205aaf4135f5fdfd4ab5bf802f8                                    
params #           :   3,399,424 items (12.97 MiB)                                           
---------------------------------------------------------------------------------------------
input 1/1          :   'input_1', f32(1x3x112x112), 147.00 KBytes, activations               
output 1/1         :   'node_515', f32(1x512), 2.00 KBytes, activations                      
macc               :   447,532,768                                                           
weights (ro)       :   13,593,736 B (12.96 MiB) (1 segment) / -3,960(-0.0%) vs float model   
activations (rw)   :   1,756,268 B (1.67 MiB) (1 segment) *                                  
ram (total)        :   1,756,268 B (1.67 MiB) = 1,756,268 + 0 + 0                            
---------------------------------------------------------------------------------------------
(*) 'input'/'output' buffers are allocated in the activations buffer

Model name - mobilefacenet_arcface_112x112_op13_fixed
------ ------------------------------------------ ----------------------- --------------------- ------------ -------------- --- ------------------------ ------------------------ -------------------------------- 
m_id   layer (type,original)                      oshape                  param/size                    macc   connected to   | c_size                   c_macc                   c_type                           
------ ------------------------------------------ ----------------------- --------------------- ------------ -------------- --- ------------------------ ------------------------ -------------------------------- 
96     fc_weight (Placeholder, Gemm)              [b:512,c:3136]          1,605,632/6,422,528                                 | -6,422,528(-100.0%)      +1,568(+100.0%)          Transpose_[96]                   
       fc_bias (Placeholder, Gemm)                [b:512]                 512/2,048                                           | -2,048(-100.0%)                                   
------ ------------------------------------------ ----------------------- --------------------- ------------ -------------- --- ------------------------ ------------------------ -------------------------------- 
0      input_1 (Input, )                          [b:1,h:112,w:112,c:3]                                                       |                                                   
------ ------------------------------------------ ----------------------- --------------------- ------------ -------------- --- ------------------------ ------------------------ -------------------------------- 
1      node_517 (Conv2D, Conv)                    [b:1,h:56,w:56,c:128]   3,584/14,336            10,838,144        input_1   |                                                   Conv2D_[1]                       
------ ------------------------------------------ ----------------------- --------------------- ------------ -------------- --- ------------------------ ------------------------ -------------------------------- 
2      node_339 (Nonlinearity, PRelu)             [b:1,h:56,w:56,c:128]   128/512                    802,816       node_517   | +4(+0.8%)                +18,816(+2.3%)           Transpose_/Nonlinearity_[0, 2]   
------ ------------------------------------------ ----------------------- --------------------- ------------ -------------- --- ------------------------ ------------------------ -------------------------------- 
3      node_520 (Conv2D, Conv)                    [b:1,h:56,w:56,c:128]   2,432/9,728              7,225,472       node_339   |                                                   Conv2D_[3]                       
------ ------------------------------------------ ----------------------- --------------------- ------------ -------------- --- ------------------------ ------------------------ -------------------------------- 
4      node_343 (Nonlinearity, PRelu)             [b:1,h:56,w:56,c:128]   128/512                    802,816       node_520   | +4(+0.8%)                                         Nonlinearity_[4]                 
------ ------------------------------------------ ----------------------- --------------------- ------------ -------------- --- ------------------------ ------------------------ -------------------------------- 
5      node_523 (Conv2D, Conv)                    [b:1,h:56,w:56,c:128]   16,512/66,048           51,380,352       node_343   |                                                   Conv2D_[5]                       
------ ------------------------------------------ ----------------------- --------------------- ------------ -------------- --- ------------------------ ------------------------ -------------------------------- 
6      node_347 (Nonlinearity, PRelu)             [b:1,h:56,w:56,c:128]   128/512                    802,816       node_523   | +4(+0.8%)                                         Nonlinearity_[6]                 
------ ------------------------------------------ ----------------------- --------------------- ------------ -------------- --- ------------------------ ------------------------ -------------------------------- 
7      node_526 (Conv2D, Conv)                    [b:1,h:28,w:28,c:128]   1,280/5,120                903,296       node_347   |                                                   Conv2D_[7]                       
------ ------------------------------------------ ----------------------- --------------------- ------------ -------------- --- ------------------------ ------------------------ -------------------------------- 
8      node_351 (Nonlinearity, PRelu)             [b:1,h:28,w:28,c:128]   128/512                    200,704       node_526   | +4(+0.8%)                                         Nonlinearity_[8]                 
------ ------------------------------------------ ----------------------- --------------------- ------------ -------------- --- ------------------------ ------------------------ -------------------------------- 
9      node_529 (Conv2D, Conv)                    [b:1,h:28,w:28,c:128]   16,512/66,048           12,845,184       node_351   |                                                   Conv2D_[9]                       
------ ------------------------------------------ ----------------------- --------------------- ------------ -------------- --- ------------------------ ------------------------ -------------------------------- 
10     node_532 (Conv2D, Conv)                    [b:1,h:28,w:28,c:128]   16,512/66,048           12,845,184       node_529   |                                                   Conv2D_[10]                      
------ ------------------------------------------ ----------------------- --------------------- ------------ -------------- --- ------------------------ ------------------------ -------------------------------- 
11     node_357 (Nonlinearity, PRelu)             [b:1,h:28,w:28,c:128]   128/512                    200,704       node_532   | +4(+0.8%)                                         Nonlinearity_[11]                
------ ------------------------------------------ ----------------------- --------------------- ------------ -------------- --- ------------------------ ------------------------ -------------------------------- 
12     node_535 (Conv2D, Conv)                    [b:1,h:28,w:28,c:128]   1,280/5,120                903,296       node_357   |                                                   Conv2D_[12]                      
------ ------------------------------------------ ----------------------- --------------------- ------------ -------------- --- ------------------------ ------------------------ -------------------------------- 
13     node_361 (Nonlinearity, PRelu)             [b:1,h:28,w:28,c:128]   128/512                    200,704       node_535   | +4(+0.8%)                                         Nonlinearity_[13]                
------ ------------------------------------------ ----------------------- --------------------- ------------ -------------- --- ------------------------ ------------------------ -------------------------------- 
14     node_538 (Conv2D, Conv)                    [b:1,h:28,w:28,c:128]   16,512/66,048           12,845,184       node_361   |                                                   Conv2D_[14]                      
------ ------------------------------------------ ----------------------- --------------------- ------------ -------------- --- ------------------------ ------------------------ -------------------------------- 
15     node_364 (Eltwise, Add)                    [b:1,h:28,w:28,c:128]                              100,352       node_529   |                                                   Eltwise/add_[15]                 
                                                                                                                   node_538   | 
------ ------------------------------------------ ----------------------- --------------------- ------------ -------------- --- ------------------------ ------------------------ -------------------------------- 
16     node_541 (Conv2D, Conv)                    [b:1,h:28,w:28,c:128]   16,512/66,048           12,845,184       node_364   |                                                   Conv2D_[16]                      
------ ------------------------------------------ ----------------------- --------------------- ------------ -------------- --- ------------------------ ------------------------ -------------------------------- 
17     node_368 (Nonlinearity, PRelu)             [b:1,h:28,w:28,c:128]   128/512                    200,704       node_541   | +4(+0.8%)                                         Nonlinearity_[17]                
------ ------------------------------------------ ----------------------- --------------------- ------------ -------------- --- ------------------------ ------------------------ -------------------------------- 
18     node_544 (Conv2D, Conv)                    [b:1,h:28,w:28,c:128]   1,280/5,120                903,296       node_368   |                                                   Conv2D_[18]                      
------ ------------------------------------------ ----------------------- --------------------- ------------ -------------- --- ------------------------ ------------------------ -------------------------------- 
19     node_372 (Nonlinearity, PRelu)             [b:1,h:28,w:28,c:128]   128/512                    200,704       node_544   | +4(+0.8%)                                         Nonlinearity_[19]                
------ ------------------------------------------ ----------------------- --------------------- ------------ -------------- --- ------------------------ ------------------------ -------------------------------- 
20     node_547 (Conv2D, Conv)                    [b:1,h:28,w:28,c:128]   16,512/66,048           12,845,184       node_372   |                                                   Conv2D_[20]                      
------ ------------------------------------------ ----------------------- --------------------- ------------ -------------- --- ------------------------ ------------------------ -------------------------------- 
21     node_375 (Eltwise, Add)                    [b:1,h:28,w:28,c:128]                              100,352       node_364   |                                                   Eltwise/add_[21]                 
                                                                                                                   node_547   | 
------ ------------------------------------------ ----------------------- --------------------- ------------ -------------- --- ------------------------ ------------------------ -------------------------------- 
22     node_550 (Conv2D, Conv)                    [b:1,h:28,w:28,c:128]   16,512/66,048           12,845,184       node_375   |                                                   Conv2D_[22]                      
------ ------------------------------------------ ----------------------- --------------------- ------------ -------------- --- ------------------------ ------------------------ -------------------------------- 
23     node_379 (Nonlinearity, PRelu)             [b:1,h:28,w:28,c:128]   128/512                    200,704       node_550   | +4(+0.8%)                                         Nonlinearity_[23]                
------ ------------------------------------------ ----------------------- --------------------- ------------ -------------- --- ------------------------ ------------------------ -------------------------------- 
24     node_553 (Conv2D, Conv)                    [b:1,h:28,w:28,c:128]   1,280/5,120                903,296       node_379   |                                                   Conv2D_[24]                      
------ ------------------------------------------ ----------------------- --------------------- ------------ -------------- --- ------------------------ ------------------------ -------------------------------- 
25     node_383 (Nonlinearity, PRelu)             [b:1,h:28,w:28,c:128]   128/512                    200,704       node_553   | +4(+0.8%)                                         Nonlinearity_[25]                
------ ------------------------------------------ ----------------------- --------------------- ------------ -------------- --- ------------------------ ------------------------ -------------------------------- 
26     node_556 (Conv2D, Conv)                    [b:1,h:28,w:28,c:128]   16,512/66,048           12,845,184       node_383   |                                                   Conv2D_[26]                      
------ ------------------------------------------ ----------------------- --------------------- ------------ -------------- --- ------------------------ ------------------------ -------------------------------- 
27     node_386 (Eltwise, Add)                    [b:1,h:28,w:28,c:128]                              100,352       node_375   |                                                   Eltwise/add_[27]                 
                                                                                                                   node_556   | 
------ ------------------------------------------ ----------------------- --------------------- ------------ -------------- --- ------------------------ ------------------------ -------------------------------- 
28     node_559 (Conv2D, Conv)                    [b:1,h:28,w:28,c:128]   16,512/66,048           12,845,184       node_386   |                                                   Conv2D_[28]                      
------ ------------------------------------------ ----------------------- --------------------- ------------ -------------- --- ------------------------ ------------------------ -------------------------------- 
29     node_390 (Nonlinearity, PRelu)             [b:1,h:28,w:28,c:128]   128/512                    200,704       node_559   | +4(+0.8%)                                         Nonlinearity_[29]                
------ ------------------------------------------ ----------------------- --------------------- ------------ -------------- --- ------------------------ ------------------------ -------------------------------- 
30     node_562 (Conv2D, Conv)                    [b:1,h:28,w:28,c:128]   1,280/5,120                903,296       node_390   |                                                   Conv2D_[30]                      
------ ------------------------------------------ ----------------------- --------------------- ------------ -------------- --- ------------------------ ------------------------ -------------------------------- 
31     node_394 (Nonlinearity, PRelu)             [b:1,h:28,w:28,c:128]   128/512                    200,704       node_562   | +4(+0.8%)                                         Nonlinearity_[31]                
------ ------------------------------------------ ----------------------- --------------------- ------------ -------------- --- ------------------------ ------------------------ -------------------------------- 
32     node_565 (Conv2D, Conv)                    [b:1,h:28,w:28,c:128]   16,512/66,048           12,845,184       node_394   |                                                   Conv2D_[32]                      
------ ------------------------------------------ ----------------------- --------------------- ------------ -------------- --- ------------------------ ------------------------ -------------------------------- 
33     node_397 (Eltwise, Add)                    [b:1,h:28,w:28,c:128]                              100,352       node_386   |                                                   Eltwise/add_[33]                 
                                                                                                                   node_565   | 
------ ------------------------------------------ ----------------------- --------------------- ------------ -------------- --- ------------------------ ------------------------ -------------------------------- 
34     node_568 (Conv2D, Conv)                    [b:1,h:28,w:28,c:256]   33,024/132,096          25,690,368       node_397   |                                                   Conv2D_[34]                      
------ ------------------------------------------ ----------------------- --------------------- ------------ -------------- --- ------------------------ ------------------------ -------------------------------- 
35     node_401 (Nonlinearity, PRelu)             [b:1,h:28,w:28,c:256]   256/1,024                  401,408       node_568   | +4(+0.4%)                                         Nonlinearity_[35]                
------ ------------------------------------------ ----------------------- --------------------- ------------ -------------- --- ------------------------ ------------------------ -------------------------------- 
36     node_571 (Conv2D, Conv)                    [b:1,h:14,w:14,c:256]   2,560/10,240               451,840       node_401   |                                                   Conv2D_[36]                      
------ ------------------------------------------ ----------------------- --------------------- ------------ -------------- --- ------------------------ ------------------------ -------------------------------- 
37     node_405 (Nonlinearity, PRelu)             [b:1,h:14,w:14,c:256]   256/1,024                  100,352       node_571   | +4(+0.4%)                                         Nonlinearity_[37]                
------ ------------------------------------------ ----------------------- --------------------- ------------ -------------- --- ------------------------ ------------------------ -------------------------------- 
38     node_574 (Conv2D, Conv)                    [b:1,h:14,w:14,c:256]   65,792/263,168          12,845,312       node_405   |                                                   Conv2D_[38]                      
------ ------------------------------------------ ----------------------- --------------------- ------------ -------------- --- ------------------------ ------------------------ -------------------------------- 
39     node_577 (Conv2D, Conv)                    [b:1,h:14,w:14,c:256]   65,792/263,168          12,845,312       node_574   |                                                   Conv2D_[39]                      
------ ------------------------------------------ ----------------------- --------------------- ------------ -------------- --- ------------------------ ------------------------ -------------------------------- 
40     node_411 (Nonlinearity, PRelu)             [b:1,h:14,w:14,c:256]   256/1,024                  100,352       node_577   | +4(+0.4%)                                         Nonlinearity_[40]                
------ ------------------------------------------ ----------------------- --------------------- ------------ -------------- --- ------------------------ ------------------------ -------------------------------- 
41     node_580 (Conv2D, Conv)                    [b:1,h:14,w:14,c:256]   2,560/10,240               451,840       node_411   |                                                   Conv2D_[41]                      
------ ------------------------------------------ ----------------------- --------------------- ------------ -------------- --- ------------------------ ------------------------ -------------------------------- 
42     node_415 (Nonlinearity, PRelu)             [b:1,h:14,w:14,c:256]   256/1,024                  100,352       node_580   | +4(+0.4%)                                         Nonlinearity_[42]                
------ ------------------------------------------ ----------------------- --------------------- ------------ -------------- --- ------------------------ ------------------------ -------------------------------- 
43     node_583 (Conv2D, Conv)                    [b:1,h:14,w:14,c:256]   65,792/263,168          12,845,312       node_415   |                                                   Conv2D_[43]                      
------ ------------------------------------------ ----------------------- --------------------- ------------ -------------- --- ------------------------ ------------------------ -------------------------------- 
44     node_418 (Eltwise, Add)                    [b:1,h:14,w:14,c:256]                               50,176       node_574   |                                                   Eltwise/add_[44]                 
                                                                                                                   node_583   | 
------ ------------------------------------------ ----------------------- --------------------- ------------ -------------- --- ------------------------ ------------------------ -------------------------------- 
45     node_586 (Conv2D, Conv)                    [b:1,h:14,w:14,c:256]   65,792/263,168          12,845,312       node_418   |                                                   Conv2D_[45]                      
------ ------------------------------------------ ----------------------- --------------------- ------------ -------------- --- ------------------------ ------------------------ -------------------------------- 
46     node_422 (Nonlinearity, PRelu)             [b:1,h:14,w:14,c:256]   256/1,024                  100,352       node_586   | +4(+0.4%)                                         Nonlinearity_[46]                
------ ------------------------------------------ ----------------------- --------------------- ------------ -------------- --- ------------------------ ------------------------ -------------------------------- 
47     node_589 (Conv2D, Conv)                    [b:1,h:14,w:14,c:256]   2,560/10,240               451,840       node_422   |                                                   Conv2D_[47]                      
------ ------------------------------------------ ----------------------- --------------------- ------------ -------------- --- ------------------------ ------------------------ -------------------------------- 
48     node_426 (Nonlinearity, PRelu)             [b:1,h:14,w:14,c:256]   256/1,024                  100,352       node_589   | +4(+0.4%)                                         Nonlinearity_[48]                
------ ------------------------------------------ ----------------------- --------------------- ------------ -------------- --- ------------------------ ------------------------ -------------------------------- 
49     node_592 (Conv2D, Conv)                    [b:1,h:14,w:14,c:256]   65,792/263,168          12,845,312       node_426   |                                                   Conv2D_[49]                      
------ ------------------------------------------ ----------------------- --------------------- ------------ -------------- --- ------------------------ ------------------------ -------------------------------- 
50     node_429 (Eltwise, Add)                    [b:1,h:14,w:14,c:256]                               50,176       node_418   |                                                   Eltwise/add_[50]                 
                                                                                                                   node_592   | 
------ ------------------------------------------ ----------------------- --------------------- ------------ -------------- --- ------------------------ ------------------------ -------------------------------- 
51     node_595 (Conv2D, Conv)                    [b:1,h:14,w:14,c:256]   65,792/263,168          12,845,312       node_429   |                                                   Conv2D_[51]                      
------ ------------------------------------------ ----------------------- --------------------- ------------ -------------- --- ------------------------ ------------------------ -------------------------------- 
52     node_433 (Nonlinearity, PRelu)             [b:1,h:14,w:14,c:256]   256/1,024                  100,352       node_595   | +4(+0.4%)                                         Nonlinearity_[52]                
------ ------------------------------------------ ----------------------- --------------------- ------------ -------------- --- ------------------------ ------------------------ -------------------------------- 
53     node_598 (Conv2D, Conv)                    [b:1,h:14,w:14,c:256]   2,560/10,240               451,840       node_433   |                                                   Conv2D_[53]                      
------ ------------------------------------------ ----------------------- --------------------- ------------ -------------- --- ------------------------ ------------------------ -------------------------------- 
54     node_437 (Nonlinearity, PRelu)             [b:1,h:14,w:14,c:256]   256/1,024                  100,352       node_598   | +4(+0.4%)                                         Nonlinearity_[54]                
------ ------------------------------------------ ----------------------- --------------------- ------------ -------------- --- ------------------------ ------------------------ -------------------------------- 
55     node_601 (Conv2D, Conv)                    [b:1,h:14,w:14,c:256]   65,792/263,168          12,845,312       node_437   |                                                   Conv2D_[55]                      
------ ------------------------------------------ ----------------------- --------------------- ------------ -------------- --- ------------------------ ------------------------ -------------------------------- 
56     node_440 (Eltwise, Add)                    [b:1,h:14,w:14,c:256]                               50,176       node_429   |                                                   Eltwise/add_[56]                 
                                                                                                                   node_601   | 
------ ------------------------------------------ ----------------------- --------------------- ------------ -------------- --- ------------------------ ------------------------ -------------------------------- 
57     node_604 (Conv2D, Conv)                    [b:1,h:14,w:14,c:256]   65,792/263,168          12,845,312       node_440   |                                                   Conv2D_[57]                      
------ ------------------------------------------ ----------------------- --------------------- ------------ -------------- --- ------------------------ ------------------------ -------------------------------- 
58     node_444 (Nonlinearity, PRelu)             [b:1,h:14,w:14,c:256]   256/1,024                  100,352       node_604   | +4(+0.4%)                                         Nonlinearity_[58]                
------ ------------------------------------------ ----------------------- --------------------- ------------ -------------- --- ------------------------ ------------------------ -------------------------------- 
59     node_607 (Conv2D, Conv)                    [b:1,h:14,w:14,c:256]   2,560/10,240               451,840       node_444   |                                                   Conv2D_[59]                      
------ ------------------------------------------ ----------------------- --------------------- ------------ -------------- --- ------------------------ ------------------------ -------------------------------- 
60     node_448 (Nonlinearity, PRelu)             [b:1,h:14,w:14,c:256]   256/1,024                  100,352       node_607   | +4(+0.4%)                                         Nonlinearity_[60]                
------ ------------------------------------------ ----------------------- --------------------- ------------ -------------- --- ------------------------ ------------------------ -------------------------------- 
61     node_610 (Conv2D, Conv)                    [b:1,h:14,w:14,c:256]   65,792/263,168          12,845,312       node_448   |                                                   Conv2D_[61]                      
------ ------------------------------------------ ----------------------- --------------------- ------------ -------------- --- ------------------------ ------------------------ -------------------------------- 
62     node_451 (Eltwise, Add)                    [b:1,h:14,w:14,c:256]                               50,176       node_440   |                                                   Eltwise/add_[62]                 
                                                                                                                   node_610   | 
------ ------------------------------------------ ----------------------- --------------------- ------------ -------------- --- ------------------------ ------------------------ -------------------------------- 
63     node_613 (Conv2D, Conv)                    [b:1,h:14,w:14,c:256]   65,792/263,168          12,845,312       node_451   |                                                   Conv2D_[63]                      
------ ------------------------------------------ ----------------------- --------------------- ------------ -------------- --- ------------------------ ------------------------ -------------------------------- 
64     node_455 (Nonlinearity, PRelu)             [b:1,h:14,w:14,c:256]   256/1,024                  100,352       node_613   | +4(+0.4%)                                         Nonlinearity_[64]                
------ ------------------------------------------ ----------------------- --------------------- ------------ -------------- --- ------------------------ ------------------------ -------------------------------- 
65     node_616 (Conv2D, Conv)                    [b:1,h:14,w:14,c:256]   2,560/10,240               451,840       node_455   |                                                   Conv2D_[65]                      
------ ------------------------------------------ ----------------------- --------------------- ------------ -------------- --- ------------------------ ------------------------ -------------------------------- 
66     node_459 (Nonlinearity, PRelu)             [b:1,h:14,w:14,c:256]   256/1,024                  100,352       node_616   | +4(+0.4%)                                         Nonlinearity_[66]                
------ ------------------------------------------ ----------------------- --------------------- ------------ -------------- --- ------------------------ ------------------------ -------------------------------- 
67     node_619 (Conv2D, Conv)                    [b:1,h:14,w:14,c:256]   65,792/263,168          12,845,312       node_459   |                                                   Conv2D_[67]                      
------ ------------------------------------------ ----------------------- --------------------- ------------ -------------- --- ------------------------ ------------------------ -------------------------------- 
68     node_462 (Eltwise, Add)                    [b:1,h:14,w:14,c:256]                               50,176       node_451   |                                                   Eltwise/add_[68]                 
                                                                                                                   node_619   | 
------ ------------------------------------------ ----------------------- --------------------- ------------ -------------- --- ------------------------ ------------------------ -------------------------------- 
69     node_622 (Conv2D, Conv)                    [b:1,h:14,w:14,c:256]   65,792/263,168          12,845,312       node_462   |                                                   Conv2D_[69]                      
------ ------------------------------------------ ----------------------- --------------------- ------------ -------------- --- ------------------------ ------------------------ -------------------------------- 
70     node_466 (Nonlinearity, PRelu)             [b:1,h:14,w:14,c:256]   256/1,024                  100,352       node_622   | +4(+0.4%)                                         Nonlinearity_[70]                
------ ------------------------------------------ ----------------------- --------------------- ------------ -------------- --- ------------------------ ------------------------ -------------------------------- 
71     node_625 (Conv2D, Conv)                    [b:1,h:14,w:14,c:256]   2,560/10,240               451,840       node_466   |                                                   Conv2D_[71]                      
------ ------------------------------------------ ----------------------- --------------------- ------------ -------------- --- ------------------------ ------------------------ -------------------------------- 
72     node_470 (Nonlinearity, PRelu)             [b:1,h:14,w:14,c:256]   256/1,024                  100,352       node_625   | +4(+0.4%)                                         Nonlinearity_[72]                
------ ------------------------------------------ ----------------------- --------------------- ------------ -------------- --- ------------------------ ------------------------ -------------------------------- 
73     node_628 (Conv2D, Conv)                    [b:1,h:14,w:14,c:256]   65,792/263,168          12,845,312       node_470   |                                                   Conv2D_[73]                      
------ ------------------------------------------ ----------------------- --------------------- ------------ -------------- --- ------------------------ ------------------------ -------------------------------- 
74     node_473 (Eltwise, Add)                    [b:1,h:14,w:14,c:256]                               50,176       node_462   |                                                   Eltwise/add_[74]                 
                                                                                                                   node_628   | 
------ ------------------------------------------ ----------------------- --------------------- ------------ -------------- --- ------------------------ ------------------------ -------------------------------- 
75     node_631 (Conv2D, Conv)                    [b:1,h:14,w:14,c:512]   131,584/526,336         25,690,624       node_473   |                                                   Conv2D_[75]                      
------ ------------------------------------------ ----------------------- --------------------- ------------ -------------- --- ------------------------ ------------------------ -------------------------------- 
76     node_477 (Nonlinearity, PRelu)             [b:1,h:14,w:14,c:512]   512/2,048                  200,704       node_631   | +4(+0.2%)                                         Nonlinearity_[76]                
------ ------------------------------------------ ----------------------- --------------------- ------------ -------------- --- ------------------------ ------------------------ -------------------------------- 
77     node_634 (Conv2D, Conv)                    [b:1,h:7,w:7,c:512]     5,120/20,480               226,304       node_477   |                                                   Conv2D_[77]                      
------ ------------------------------------------ ----------------------- --------------------- ------------ -------------- --- ------------------------ ------------------------ -------------------------------- 
78     node_481 (Nonlinearity, PRelu)             [b:1,h:7,w:7,c:512]     512/2,048                   50,176       node_634   | +4(+0.2%)                                         Nonlinearity_[78]                
------ ------------------------------------------ ----------------------- --------------------- ------------ -------------- --- ------------------------ ------------------------ -------------------------------- 
79     node_637 (Conv2D, Conv)                    [b:1,h:7,w:7,c:256]     131,328/525,312          6,422,784       node_481   |                                                   Conv2D_[79]                      
------ ------------------------------------------ ----------------------- --------------------- ------------ -------------- --- ------------------------ ------------------------ -------------------------------- 
80     node_640 (Conv2D, Conv)                    [b:1,h:7,w:7,c:256]     65,792/263,168           3,211,520       node_637   |                                                   Conv2D_[80]                      
------ ------------------------------------------ ----------------------- --------------------- ------------ -------------- --- ------------------------ ------------------------ -------------------------------- 
81     node_487 (Nonlinearity, PRelu)             [b:1,h:7,w:7,c:256]     256/1,024                   25,088       node_640   | +4(+0.4%)                                         Nonlinearity_[81]                
------ ------------------------------------------ ----------------------- --------------------- ------------ -------------- --- ------------------------ ------------------------ -------------------------------- 
82     node_643 (Conv2D, Conv)                    [b:1,h:7,w:7,c:256]     2,560/10,240               113,152       node_487   |                                                   Conv2D_[82]                      
------ ------------------------------------------ ----------------------- --------------------- ------------ -------------- --- ------------------------ ------------------------ -------------------------------- 
83     node_491 (Nonlinearity, PRelu)             [b:1,h:7,w:7,c:256]     256/1,024                   25,088       node_643   | +4(+0.4%)                                         Nonlinearity_[83]                
------ ------------------------------------------ ----------------------- --------------------- ------------ -------------- --- ------------------------ ------------------------ -------------------------------- 
84     node_646 (Conv2D, Conv)                    [b:1,h:7,w:7,c:256]     65,792/263,168           3,211,520       node_491   |                                                   Conv2D_[84]                      
------ ------------------------------------------ ----------------------- --------------------- ------------ -------------- --- ------------------------ ------------------------ -------------------------------- 
85     node_494 (Eltwise, Add)                    [b:1,h:7,w:7,c:256]                                 12,544       node_637   |                                                   Eltwise/add_[85]                 
                                                                                                                   node_646   | 
------ ------------------------------------------ ----------------------- --------------------- ------------ -------------- --- ------------------------ ------------------------ -------------------------------- 
86     node_649 (Conv2D, Conv)                    [b:1,h:7,w:7,c:256]     65,792/263,168           3,211,520       node_494   |                                                   Conv2D_[86]                      
------ ------------------------------------------ ----------------------- --------------------- ------------ -------------- --- ------------------------ ------------------------ -------------------------------- 
87     node_498 (Nonlinearity, PRelu)             [b:1,h:7,w:7,c:256]     256/1,024                   25,088       node_649   | +4(+0.4%)                                         Nonlinearity_[87]                
------ ------------------------------------------ ----------------------- --------------------- ------------ -------------- --- ------------------------ ------------------------ -------------------------------- 
88     node_652 (Conv2D, Conv)                    [b:1,h:7,w:7,c:256]     2,560/10,240               113,152       node_498   |                                                   Conv2D_[88]                      
------ ------------------------------------------ ----------------------- --------------------- ------------ -------------- --- ------------------------ ------------------------ -------------------------------- 
89     node_502 (Nonlinearity, PRelu)             [b:1,h:7,w:7,c:256]     256/1,024                   25,088       node_652   | +4(+0.4%)                                         Nonlinearity_[89]                
------ ------------------------------------------ ----------------------- --------------------- ------------ -------------- --- ------------------------ ------------------------ -------------------------------- 
90     node_655 (Conv2D, Conv)                    [b:1,h:7,w:7,c:256]     65,792/263,168           3,211,520       node_502   |                                                   Conv2D_[90]                      
------ ------------------------------------------ ----------------------- --------------------- ------------ -------------- --- ------------------------ ------------------------ -------------------------------- 
91     node_505 (Eltwise, Add)                    [b:1,h:7,w:7,c:256]                                 12,544       node_494   |                                                   Eltwise/add_[91]                 
                                                                                                                   node_655   | 
------ ------------------------------------------ ----------------------- --------------------- ------------ -------------- --- ------------------------ ------------------------ -------------------------------- 
92     node_658 (Conv2D, Conv)                    [b:1,h:7,w:7,c:512]     131,584/526,336          6,423,040       node_505   |                                                   Conv2D_[92]                      
------ ------------------------------------------ ----------------------- --------------------- ------------ -------------- --- ------------------------ ------------------------ -------------------------------- 
93     node_509 (Nonlinearity, PRelu)             [b:1,h:7,w:7,c:512]     512/2,048                   50,176       node_658   | +4(+0.2%)                                         Nonlinearity_[93]                
------ ------------------------------------------ ----------------------- --------------------- ------------ -------------- --- ------------------------ ------------------------ -------------------------------- 
94     node_661 (Conv2D, Conv)                    [b:1,h:7,w:7,c:64]      32,832/131,328           1,605,696       node_509   |                                                   Conv2D_[94]                      
------ ------------------------------------------ ----------------------- --------------------- ------------ -------------- --- ------------------------ ------------------------ -------------------------------- 
95     node_513 (Nonlinearity, PRelu)             [b:1,h:7,w:7,c:64]      64/256                       6,272       node_661   | +4(+1.6%)                                         Nonlinearity_[95]                
------ ------------------------------------------ ----------------------- --------------------- ------------ -------------- --- ------------------------ ------------------------ -------------------------------- 
96     node_514 (Reshape, Flatten)                [b:1,c:3136]                                                     node_513   |                                                   
------ ------------------------------------------ ----------------------- --------------------- ------------ -------------- --- ------------------------ ------------------------ -------------------------------- 
97     node_515 (Gemm, Gemm)                      [b:1,c:512]                                      1,606,144       node_514   |                          -1,606,144(-100.0%)      
                                                                                                                  fc_weight   | 
                                                                                                                    fc_bias   | 
------ ------------------------------------------ ----------------------- --------------------- ------------ -------------- --- ------------------------ ------------------------ -------------------------------- 
98     node_516 (ScaleBias, BatchNormalization)   [b:1,c:512]             1,024/4,096                  1,024       node_515   | +6,420,480(+156750.0%)   +1,605,120(+156750.0%)   Dense_[o][97]                    
------ ------------------------------------------ ----------------------- --------------------- ------------ -------------- --- ------------------------ ------------------------ -------------------------------- 
model/c-model: macc=447,513,408/447,532,768 +19,360(+0.0%) weights=13,597,696/13,593,736 -3,960(-0.0%) activations=--/1,756,268 io=--/0



Generated C-graph summary
------------------------------------------------------------------------------------------------------------------------
model name            : mobilefacenet_arcface_112x112_op13_fixed
c-name                : network
c-node #              : 98
c-array #             : 266
activations size      : 1756268 (1 segment)
weights size          : 13593736 (1 segment)
macc                  : 447532768
inputs                : ['input_1_output']
outputs               : ['node_515_output']

C-Arrays (266)
------ --------------------------- ----------------- ------------------------- ------------- --------- 
c_id   name (*_array)              item/size         domain/mem-pool           c-type        comment   
------ --------------------------- ----------------- ------------------------- ------------- --------- 
0      input_1_Transpose_output    37632/150528      activations/**default**   float                   
1      input_1_output              37632/150528      activations/**default**   float         /input    
2      node_339_alpha              128/516           weights/weights           const float             
3      node_339_output             401408/1605632    activations/**default**   float                   
4      node_343_alpha              128/516           weights/weights           const float             
5      node_343_output             401408/1605632    activations/**default**   float                   
6      node_347_alpha              128/516           weights/weights           const float             
7      node_347_output             401408/1605632    activations/**default**   float                   
8      node_351_alpha              128/516           weights/weights           const float             
9      node_351_output             100352/401408     activations/**default**   float                   
10     node_357_alpha              128/516           weights/weights           const float             
11     node_357_output             100352/401408     activations/**default**   float                   
12     node_361_alpha              128/516           weights/weights           const float             
13     node_361_output             100352/401408     activations/**default**   float                   
14     node_364_output             100352/401408     activations/**default**   float                   
15     node_368_alpha              128/516           weights/weights           const float             
16     node_368_output             100352/401408     activations/**default**   float                   
17     node_372_alpha              128/516           weights/weights           const float             
18     node_372_output             100352/401408     activations/**default**   float                   
19     node_375_output             100352/401408     activations/**default**   float                   
20     node_379_alpha              128/516           weights/weights           const float             
21     node_379_output             100352/401408     activations/**default**   float                   
22     node_383_alpha              128/516           weights/weights           const float             
23     node_383_output             100352/401408     activations/**default**   float                   
24     node_386_output             100352/401408     activations/**default**   float                   
25     node_390_alpha              128/516           weights/weights           const float             
26     node_390_output             100352/401408     activations/**default**   float                   
27     node_394_alpha              128/516           weights/weights           const float             
28     node_394_output             100352/401408     activations/**default**   float                   
29     node_397_output             100352/401408     activations/**default**   float                   
30     node_401_alpha              256/1028          weights/weights           const float             
31     node_401_output             200704/802816     activations/**default**   float                   
32     node_405_alpha              256/1028          weights/weights           const float             
33     node_405_output             50176/200704      activations/**default**   float                   
34     node_411_alpha              256/1028          weights/weights           const float             
35     node_411_output             50176/200704      activations/**default**   float                   
36     node_415_alpha              256/1028          weights/weights           const float             
37     node_415_output             50176/200704      activations/**default**   float                   
38     node_418_output             50176/200704      activations/**default**   float                   
39     node_422_alpha              256/1028          weights/weights           const float             
40     node_422_output             50176/200704      activations/**default**   float                   
41     node_426_alpha              256/1028          weights/weights           const float             
42     node_426_output             50176/200704      activations/**default**   float                   
43     node_429_output             50176/200704      activations/**default**   float                   
44     node_433_alpha              256/1028          weights/weights           const float             
45     node_433_output             50176/200704      activations/**default**   float                   
46     node_437_alpha              256/1028          weights/weights           const float             
47     node_437_output             50176/200704      activations/**default**   float                   
48     node_440_output             50176/200704      activations/**default**   float                   
49     node_444_alpha              256/1028          weights/weights           const float             
50     node_444_output             50176/200704      activations/**default**   float                   
51     node_448_alpha              256/1028          weights/weights           const float             
52     node_448_output             50176/200704      activations/**default**   float                   
53     node_451_output             50176/200704      activations/**default**   float                   
54     node_455_alpha              256/1028          weights/weights           const float             
55     node_455_output             50176/200704      activations/**default**   float                   
56     node_459_alpha              256/1028          weights/weights           const float             
57     node_459_output             50176/200704      activations/**default**   float                   
58     node_462_output             50176/200704      activations/**default**   float                   
59     node_466_alpha              256/1028          weights/weights           const float             
60     node_466_output             50176/200704      activations/**default**   float                   
61     node_470_alpha              256/1028          weights/weights           const float             
62     node_470_output             50176/200704      activations/**default**   float                   
63     node_473_output             50176/200704      activations/**default**   float                   
64     node_477_alpha              512/2052          weights/weights           const float             
65     node_477_output             100352/401408     activations/**default**   float                   
66     node_481_alpha              512/2052          weights/weights           const float             
67     node_481_output             25088/100352      activations/**default**   float                   
68     node_487_alpha              256/1028          weights/weights           const float             
69     node_487_output             12544/50176       activations/**default**   float                   
70     node_491_alpha              256/1028          weights/weights           const float             
71     node_491_output             12544/50176       activations/**default**   float                   
72     node_494_output             12544/50176       activations/**default**   float                   
73     node_498_alpha              256/1028          weights/weights           const float             
74     node_498_output             12544/50176       activations/**default**   float                   
75     node_502_alpha              256/1028          weights/weights           const float             
76     node_502_output             12544/50176       activations/**default**   float                   
77     node_505_output             12544/50176       activations/**default**   float                   
78     node_509_alpha              512/2052          weights/weights           const float             
79     node_509_output             25088/100352      activations/**default**   float                   
80     node_513_alpha              64/260            weights/weights           const float             
81     node_513_output             3136/12544        activations/**default**   float                   
82     node_514_to_chlast_output   3136/12544        activations/**default**   float                   
83     node_515_bias               512/2048          weights/weights           const float             
84     node_515_output             512/2048          activations/**default**   float         /output   
85     node_515_weights            1605632/6422528   weights/weights           const float             
86     node_517_bias               128/512           weights/weights           const float             
87     node_517_output             401408/1605632    activations/**default**   float                   
88     node_517_scratch0           27/108            activations/**default**   float                   
89     node_517_weights            3456/13824        weights/weights           const float             
90     node_520_bias               128/512           weights/weights           const float             
91     node_520_output             401408/1605632    activations/**default**   float                   
92     node_520_weights            2304/9216         weights/weights           const float             
93     node_523_bias               128/512           weights/weights           const float             
94     node_523_output             401408/1605632    activations/**default**   float                   
95     node_523_scratch0           128/512           activations/**default**   float                   
96     node_523_weights            16384/65536       weights/weights           const float             
97     node_526_bias               128/512           weights/weights           const float             
98     node_526_output             100352/401408     activations/**default**   float                   
99     node_526_weights            1152/4608         weights/weights           const float             
100    node_529_bias               128/512           weights/weights           const float             
101    node_529_output             100352/401408     activations/**default**   float                   
102    node_529_scratch0           128/512           activations/**default**   float                   
103    node_529_weights            16384/65536       weights/weights           const float             
104    node_532_bias               128/512           weights/weights           const float             
105    node_532_output             100352/401408     activations/**default**   float                   
106    node_532_scratch0           128/512           activations/**default**   float                   
107    node_532_weights            16384/65536       weights/weights           const float             
108    node_535_bias               128/512           weights/weights           const float             
109    node_535_output             100352/401408     activations/**default**   float                   
110    node_535_weights            1152/4608         weights/weights           const float             
111    node_538_bias               128/512           weights/weights           const float             
112    node_538_output             100352/401408     activations/**default**   float                   
113    node_538_scratch0           128/512           activations/**default**   float                   
114    node_538_weights            16384/65536       weights/weights           const float             
115    node_541_bias               128/512           weights/weights           const float             
116    node_541_output             100352/401408     activations/**default**   float                   
117    node_541_scratch0           128/512           activations/**default**   float                   
118    node_541_weights            16384/65536       weights/weights           const float             
119    node_544_bias               128/512           weights/weights           const float             
120    node_544_output             100352/401408     activations/**default**   float                   
121    node_544_weights            1152/4608         weights/weights           const float             
122    node_547_bias               128/512           weights/weights           const float             
123    node_547_output             100352/401408     activations/**default**   float                   
124    node_547_scratch0           128/512           activations/**default**   float                   
125    node_547_weights            16384/65536       weights/weights           const float             
126    node_550_bias               128/512           weights/weights           const float             
127    node_550_output             100352/401408     activations/**default**   float                   
128    node_550_scratch0           128/512           activations/**default**   float                   
129    node_550_weights            16384/65536       weights/weights           const float             
130    node_553_bias               128/512           weights/weights           const float             
131    node_553_output             100352/401408     activations/**default**   float                   
132    node_553_weights            1152/4608         weights/weights           const float             
133    node_556_bias               128/512           weights/weights           const float             
134    node_556_output             100352/401408     activations/**default**   float                   
135    node_556_scratch0           128/512           activations/**default**   float                   
136    node_556_weights            16384/65536       weights/weights           const float             
137    node_559_bias               128/512           weights/weights           const float             
138    node_559_output             100352/401408     activations/**default**   float                   
139    node_559_scratch0           128/512           activations/**default**   float                   
140    node_559_weights            16384/65536       weights/weights           const float             
141    node_562_bias               128/512           weights/weights           const float             
142    node_562_output             100352/401408     activations/**default**   float                   
143    node_562_weights            1152/4608         weights/weights           const float             
144    node_565_bias               128/512           weights/weights           const float             
145    node_565_output             100352/401408     activations/**default**   float                   
146    node_565_scratch0           128/512           activations/**default**   float                   
147    node_565_weights            16384/65536       weights/weights           const float             
148    node_568_bias               256/1024          weights/weights           const float             
149    node_568_output             200704/802816     activations/**default**   float                   
150    node_568_scratch0           128/512           activations/**default**   float                   
151    node_568_weights            32768/131072      weights/weights           const float             
152    node_571_bias               256/1024          weights/weights           const float             
153    node_571_output             50176/200704      activations/**default**   float                   
154    node_571_weights            2304/9216         weights/weights           const float             
155    node_574_bias               256/1024          weights/weights           const float             
156    node_574_output             50176/200704      activations/**default**   float                   
157    node_574_scratch0           256/1024          activations/**default**   float                   
158    node_574_weights            65536/262144      weights/weights           const float             
159    node_577_bias               256/1024          weights/weights           const float             
160    node_577_output             50176/200704      activations/**default**   float                   
161    node_577_scratch0           256/1024          activations/**default**   float                   
162    node_577_weights            65536/262144      weights/weights           const float             
163    node_580_bias               256/1024          weights/weights           const float             
164    node_580_output             50176/200704      activations/**default**   float                   
165    node_580_weights            2304/9216         weights/weights           const float             
166    node_583_bias               256/1024          weights/weights           const float             
167    node_583_output             50176/200704      activations/**default**   float                   
168    node_583_scratch0           256/1024          activations/**default**   float                   
169    node_583_weights            65536/262144      weights/weights           const float             
170    node_586_bias               256/1024          weights/weights           const float             
171    node_586_output             50176/200704      activations/**default**   float                   
172    node_586_scratch0           256/1024          activations/**default**   float                   
173    node_586_weights            65536/262144      weights/weights           const float             
174    node_589_bias               256/1024          weights/weights           const float             
175    node_589_output             50176/200704      activations/**default**   float                   
176    node_589_weights            2304/9216         weights/weights           const float             
177    node_592_bias               256/1024          weights/weights           const float             
178    node_592_output             50176/200704      activations/**default**   float                   
179    node_592_scratch0           256/1024          activations/**default**   float                   
180    node_592_weights            65536/262144      weights/weights           const float             
181    node_595_bias               256/1024          weights/weights           const float             
182    node_595_output             50176/200704      activations/**default**   float                   
183    node_595_scratch0           256/1024          activations/**default**   float                   
184    node_595_weights            65536/262144      weights/weights           const float             
185    node_598_bias               256/1024          weights/weights           const float             
186    node_598_output             50176/200704      activations/**default**   float                   
187    node_598_weights            2304/9216         weights/weights           const float             
188    node_601_bias               256/1024          weights/weights           const float             
189    node_601_output             50176/200704      activations/**default**   float                   
190    node_601_scratch0           256/1024          activations/**default**   float                   
191    node_601_weights            65536/262144      weights/weights           const float             
192    node_604_bias               256/1024          weights/weights           const float             
193    node_604_output             50176/200704      activations/**default**   float                   
194    node_604_scratch0           256/1024          activations/**default**   float                   
195    node_604_weights            65536/262144      weights/weights           const float             
196    node_607_bias               256/1024          weights/weights           const float             
197    node_607_output             50176/200704      activations/**default**   float                   
198    node_607_weights            2304/9216         weights/weights           const float             
199    node_610_bias               256/1024          weights/weights           const float             
200    node_610_output             50176/200704      activations/**default**   float                   
201    node_610_scratch0           256/1024          activations/**default**   float                   
202    node_610_weights            65536/262144      weights/weights           const float             
203    node_613_bias               256/1024          weights/weights           const float             
204    node_613_output             50176/200704      activations/**default**   float                   
205    node_613_scratch0           256/1024          activations/**default**   float                   
206    node_613_weights            65536/262144      weights/weights           const float             
207    node_616_bias               256/1024          weights/weights           const float             
208    node_616_output             50176/200704      activations/**default**   float                   
209    node_616_weights            2304/9216         weights/weights           const float             
210    node_619_bias               256/1024          weights/weights           const float             
211    node_619_output             50176/200704      activations/**default**   float                   
212    node_619_scratch0           256/1024          activations/**default**   float                   
213    node_619_weights            65536/262144      weights/weights           const float             
214    node_622_bias               256/1024          weights/weights           const float             
215    node_622_output             50176/200704      activations/**default**   float                   
216    node_622_scratch0           256/1024          activations/**default**   float                   
217    node_622_weights            65536/262144      weights/weights           const float             
218    node_625_bias               256/1024          weights/weights           const float             
219    node_625_output             50176/200704      activations/**default**   float                   
220    node_625_weights            2304/9216         weights/weights           const float             
221    node_628_bias               256/1024          weights/weights           const float             
222    node_628_output             50176/200704      activations/**default**   float                   
223    node_628_scratch0           256/1024          activations/**default**   float                   
224    node_628_weights            65536/262144      weights/weights           const float             
225    node_631_bias               512/2048          weights/weights           const float             
226    node_631_output             100352/401408     activations/**default**   float                   
227    node_631_scratch0           256/1024          activations/**default**   float                   
228    node_631_weights            131072/524288     weights/weights           const float             
229    node_634_bias               512/2048          weights/weights           const float             
230    node_634_output             25088/100352      activations/**default**   float                   
231    node_634_weights            4608/18432        weights/weights           const float             
232    node_637_bias               256/1024          weights/weights           const float             
233    node_637_output             12544/50176       activations/**default**   float                   
234    node_637_scratch0           512/2048          activations/**default**   float                   
235    node_637_weights            131072/524288     weights/weights           const float             
236    node_640_bias               256/1024          weights/weights           const float             
237    node_640_output             12544/50176       activations/**default**   float                   
238    node_640_scratch0           256/1024          activations/**default**   float                   
239    node_640_weights            65536/262144      weights/weights           const float             
240    node_643_bias               256/1024          weights/weights           const float             
241    node_643_output             12544/50176       activations/**default**   float                   
242    node_643_weights            2304/9216         weights/weights           const float             
243    node_646_bias               256/1024          weights/weights           const float             
244    node_646_output             12544/50176       activations/**default**   float                   
245    node_646_scratch0           256/1024          activations/**default**   float                   
246    node_646_weights            65536/262144      weights/weights           const float             
247    node_649_bias               256/1024          weights/weights           const float             
248    node_649_output             12544/50176       activations/**default**   float                   
249    node_649_scratch0           256/1024          activations/**default**   float                   
250    node_649_weights            65536/262144      weights/weights           const float             
251    node_652_bias               256/1024          weights/weights           const float             
252    node_652_output             12544/50176       activations/**default**   float                   
253    node_652_weights            2304/9216         weights/weights           const float             
254    node_655_bias               256/1024          weights/weights           const float             
255    node_655_output             12544/50176       activations/**default**   float                   
256    node_655_scratch0           256/1024          activations/**default**   float                   
257    node_655_weights            65536/262144      weights/weights           const float             
258    node_658_bias               512/2048          weights/weights           const float             
259    node_658_output             25088/100352      activations/**default**   float                   
260    node_658_scratch0           256/1024          activations/**default**   float                   
261    node_658_weights            131072/524288     weights/weights           const float             
262    node_661_bias               64/256            weights/weights           const float             
263    node_661_output             3136/12544        activations/**default**   float                   
264    node_661_scratch0           512/2048          activations/**default**   float                   
265    node_661_weights            32768/131072      weights/weights           const float             
------ --------------------------- ----------------- ------------------------- ------------- --------- 

C-Layers (98)
------ -------------------- ---- --------------- ---------- --------- ------------------------------ ------------------------ 
c_id   name (*_layer)       id   layer_type      macc       rom       tensors                        shape (array id)         
------ -------------------- ---- --------------- ---------- --------- ------------------------------ ------------------------ 
0      input_1_Transpose    2    Transpose       18816      0         I: input_1_output              f32(1x3x112x112) (1)     
                                                                      O: input_1_Transpose_output    f32(1x112x112x3) (0)     
------ -------------------- ---- --------------- ---------- --------- ------------------------------ ------------------------ 
1      node_517             1    Conv2D          10838144   14336     I: input_1_Transpose_output    f32(1x112x112x3) (0)     
                                                                      S: node_517_scratch0                                    
                                                                      W: node_517_weights            f32(128x3x3x3) (89)      
                                                                      W: node_517_bias               f32(128) (86)            
                                                                      O: node_517_output             f32(1x56x56x128) (87)    
------ -------------------- ---- --------------- ---------- --------- ------------------------------ ------------------------ 
2      node_339             2    Nonlinearity    802816     516       I: node_517_output             f32(1x56x56x128) (87)    
                                                                      W: node_339_alpha              f32(1x1x128) (2)         
                                                                      O: node_339_output             f32(1x56x56x128) (3)     
------ -------------------- ---- --------------- ---------- --------- ------------------------------ ------------------------ 
3      node_520             3    Conv2D          7225472    9728      I: node_339_output             f32(1x56x56x128) (3)     
                                                                      W: node_520_weights            f32(128x3x3x2) (92)      
                                                                      W: node_520_bias               f32(128) (90)            
                                                                      O: node_520_output             f32(1x56x56x128) (91)    
------ -------------------- ---- --------------- ---------- --------- ------------------------------ ------------------------ 
4      node_343             4    Nonlinearity    802816     516       I: node_520_output             f32(1x56x56x128) (91)    
                                                                      W: node_343_alpha              f32(1x1x128) (4)         
                                                                      O: node_343_output             f32(1x56x56x128) (5)     
------ -------------------- ---- --------------- ---------- --------- ------------------------------ ------------------------ 
5      node_523             5    Conv2D          51380352   66048     I: node_343_output             f32(1x56x56x128) (5)     
                                                                      S: node_523_scratch0                                    
                                                                      W: node_523_weights            f32(128x1x1x128) (96)    
                                                                      W: node_523_bias               f32(128) (93)            
                                                                      O: node_523_output             f32(1x56x56x128) (94)    
------ -------------------- ---- --------------- ---------- --------- ------------------------------ ------------------------ 
6      node_347             6    Nonlinearity    802816     516       I: node_523_output             f32(1x56x56x128) (94)    
                                                                      W: node_347_alpha              f32(1x1x128) (6)         
                                                                      O: node_347_output             f32(1x56x56x128) (7)     
------ -------------------- ---- --------------- ---------- --------- ------------------------------ ------------------------ 
7      node_526             7    Conv2D          903296     5120      I: node_347_output             f32(1x56x56x128) (7)     
                                                                      W: node_526_weights            f32(128x3x3x1) (99)      
                                                                      W: node_526_bias               f32(128) (97)            
                                                                      O: node_526_output             f32(1x28x28x128) (98)    
------ -------------------- ---- --------------- ---------- --------- ------------------------------ ------------------------ 
8      node_351             8    Nonlinearity    200704     516       I: node_526_output             f32(1x28x28x128) (98)    
                                                                      W: node_351_alpha              f32(1x1x128) (8)         
                                                                      O: node_351_output             f32(1x28x28x128) (9)     
------ -------------------- ---- --------------- ---------- --------- ------------------------------ ------------------------ 
9      node_529             9    Conv2D          12845184   66048     I: node_351_output             f32(1x28x28x128) (9)     
                                                                      S: node_529_scratch0                                    
                                                                      W: node_529_weights            f32(128x1x1x128) (103)   
                                                                      W: node_529_bias               f32(128) (100)           
                                                                      O: node_529_output             f32(1x28x28x128) (101)   
------ -------------------- ---- --------------- ---------- --------- ------------------------------ ------------------------ 
10     node_532             10   Conv2D          12845184   66048     I: node_529_output             f32(1x28x28x128) (101)   
                                                                      S: node_532_scratch0                                    
                                                                      W: node_532_weights            f32(128x1x1x128) (107)   
                                                                      W: node_532_bias               f32(128) (104)           
                                                                      O: node_532_output             f32(1x28x28x128) (105)   
------ -------------------- ---- --------------- ---------- --------- ------------------------------ ------------------------ 
11     node_357             11   Nonlinearity    200704     516       I: node_532_output             f32(1x28x28x128) (105)   
                                                                      W: node_357_alpha              f32(1x1x128) (10)        
                                                                      O: node_357_output             f32(1x28x28x128) (11)    
------ -------------------- ---- --------------- ---------- --------- ------------------------------ ------------------------ 
12     node_535             12   Conv2D          903296     5120      I: node_357_output             f32(1x28x28x128) (11)    
                                                                      W: node_535_weights            f32(128x3x3x1) (110)     
                                                                      W: node_535_bias               f32(128) (108)           
                                                                      O: node_535_output             f32(1x28x28x128) (109)   
------ -------------------- ---- --------------- ---------- --------- ------------------------------ ------------------------ 
13     node_361             13   Nonlinearity    200704     516       I: node_535_output             f32(1x28x28x128) (109)   
                                                                      W: node_361_alpha              f32(1x1x128) (12)        
                                                                      O: node_361_output             f32(1x28x28x128) (13)    
------ -------------------- ---- --------------- ---------- --------- ------------------------------ ------------------------ 
14     node_538             14   Conv2D          12845184   66048     I: node_361_output             f32(1x28x28x128) (13)    
                                                                      S: node_538_scratch0                                    
                                                                      W: node_538_weights            f32(128x1x1x128) (114)   
                                                                      W: node_538_bias               f32(128) (111)           
                                                                      O: node_538_output             f32(1x28x28x128) (112)   
------ -------------------- ---- --------------- ---------- --------- ------------------------------ ------------------------ 
15     node_364             15   Eltwise/add     100352     0         I: node_529_output             f32(1x28x28x128) (101)   
                                                                      I: node_538_output             f32(1x28x28x128) (101)   
                                                                      O: node_364_output             f32(1x28x28x128) (14)    
------ -------------------- ---- --------------- ---------- --------- ------------------------------ ------------------------ 
16     node_541             16   Conv2D          12845184   66048     I: node_364_output             f32(1x28x28x128) (14)    
                                                                      S: node_541_scratch0                                    
                                                                      W: node_541_weights            f32(128x1x1x128) (118)   
                                                                      W: node_541_bias               f32(128) (115)           
                                                                      O: node_541_output             f32(1x28x28x128) (116)   
------ -------------------- ---- --------------- ---------- --------- ------------------------------ ------------------------ 
17     node_368             17   Nonlinearity    200704     516       I: node_541_output             f32(1x28x28x128) (116)   
                                                                      W: node_368_alpha              f32(1x1x128) (15)        
                                                                      O: node_368_output             f32(1x28x28x128) (16)    
------ -------------------- ---- --------------- ---------- --------- ------------------------------ ------------------------ 
18     node_544             18   Conv2D          903296     5120      I: node_368_output             f32(1x28x28x128) (16)    
                                                                      W: node_544_weights            f32(128x3x3x1) (121)     
                                                                      W: node_544_bias               f32(128) (119)           
                                                                      O: node_544_output             f32(1x28x28x128) (120)   
------ -------------------- ---- --------------- ---------- --------- ------------------------------ ------------------------ 
19     node_372             19   Nonlinearity    200704     516       I: node_544_output             f32(1x28x28x128) (120)   
                                                                      W: node_372_alpha              f32(1x1x128) (17)        
                                                                      O: node_372_output             f32(1x28x28x128) (18)    
------ -------------------- ---- --------------- ---------- --------- ------------------------------ ------------------------ 
20     node_547             20   Conv2D          12845184   66048     I: node_372_output             f32(1x28x28x128) (18)    
                                                                      S: node_547_scratch0                                    
                                                                      W: node_547_weights            f32(128x1x1x128) (125)   
                                                                      W: node_547_bias               f32(128) (122)           
                                                                      O: node_547_output             f32(1x28x28x128) (123)   
------ -------------------- ---- --------------- ---------- --------- ------------------------------ ------------------------ 
21     node_375             21   Eltwise/add     100352     0         I: node_364_output             f32(1x28x28x128) (14)    
                                                                      I: node_547_output             f32(1x28x28x128) (14)    
                                                                      O: node_375_output             f32(1x28x28x128) (19)    
------ -------------------- ---- --------------- ---------- --------- ------------------------------ ------------------------ 
22     node_550             22   Conv2D          12845184   66048     I: node_375_output             f32(1x28x28x128) (19)    
                                                                      S: node_550_scratch0                                    
                                                                      W: node_550_weights            f32(128x1x1x128) (129)   
                                                                      W: node_550_bias               f32(128) (126)           
                                                                      O: node_550_output             f32(1x28x28x128) (127)   
------ -------------------- ---- --------------- ---------- --------- ------------------------------ ------------------------ 
23     node_379             23   Nonlinearity    200704     516       I: node_550_output             f32(1x28x28x128) (127)   
                                                                      W: node_379_alpha              f32(1x1x128) (20)        
                                                                      O: node_379_output             f32(1x28x28x128) (21)    
------ -------------------- ---- --------------- ---------- --------- ------------------------------ ------------------------ 
24     node_553             24   Conv2D          903296     5120      I: node_379_output             f32(1x28x28x128) (21)    
                                                                      W: node_553_weights            f32(128x3x3x1) (132)     
                                                                      W: node_553_bias               f32(128) (130)           
                                                                      O: node_553_output             f32(1x28x28x128) (131)   
------ -------------------- ---- --------------- ---------- --------- ------------------------------ ------------------------ 
25     node_383             25   Nonlinearity    200704     516       I: node_553_output             f32(1x28x28x128) (131)   
                                                                      W: node_383_alpha              f32(1x1x128) (22)        
                                                                      O: node_383_output             f32(1x28x28x128) (23)    
------ -------------------- ---- --------------- ---------- --------- ------------------------------ ------------------------ 
26     node_556             26   Conv2D          12845184   66048     I: node_383_output             f32(1x28x28x128) (23)    
                                                                      S: node_556_scratch0                                    
                                                                      W: node_556_weights            f32(128x1x1x128) (136)   
                                                                      W: node_556_bias               f32(128) (133)           
                                                                      O: node_556_output             f32(1x28x28x128) (134)   
------ -------------------- ---- --------------- ---------- --------- ------------------------------ ------------------------ 
27     node_386             27   Eltwise/add     100352     0         I: node_375_output             f32(1x28x28x128) (19)    
                                                                      I: node_556_output             f32(1x28x28x128) (19)    
                                                                      O: node_386_output             f32(1x28x28x128) (24)    
------ -------------------- ---- --------------- ---------- --------- ------------------------------ ------------------------ 
28     node_559             28   Conv2D          12845184   66048     I: node_386_output             f32(1x28x28x128) (24)    
                                                                      S: node_559_scratch0                                    
                                                                      W: node_559_weights            f32(128x1x1x128) (140)   
                                                                      W: node_559_bias               f32(128) (137)           
                                                                      O: node_559_output             f32(1x28x28x128) (138)   
------ -------------------- ---- --------------- ---------- --------- ------------------------------ ------------------------ 
29     node_390             29   Nonlinearity    200704     516       I: node_559_output             f32(1x28x28x128) (138)   
                                                                      W: node_390_alpha              f32(1x1x128) (25)        
                                                                      O: node_390_output             f32(1x28x28x128) (26)    
------ -------------------- ---- --------------- ---------- --------- ------------------------------ ------------------------ 
30     node_562             30   Conv2D          903296     5120      I: node_390_output             f32(1x28x28x128) (26)    
                                                                      W: node_562_weights            f32(128x3x3x1) (143)     
                                                                      W: node_562_bias               f32(128) (141)           
                                                                      O: node_562_output             f32(1x28x28x128) (142)   
------ -------------------- ---- --------------- ---------- --------- ------------------------------ ------------------------ 
31     node_394             31   Nonlinearity    200704     516       I: node_562_output             f32(1x28x28x128) (142)   
                                                                      W: node_394_alpha              f32(1x1x128) (27)        
                                                                      O: node_394_output             f32(1x28x28x128) (28)    
------ -------------------- ---- --------------- ---------- --------- ------------------------------ ------------------------ 
32     node_565             32   Conv2D          12845184   66048     I: node_394_output             f32(1x28x28x128) (28)    
                                                                      S: node_565_scratch0                                    
                                                                      W: node_565_weights            f32(128x1x1x128) (147)   
                                                                      W: node_565_bias               f32(128) (144)           
                                                                      O: node_565_output             f32(1x28x28x128) (145)   
------ -------------------- ---- --------------- ---------- --------- ------------------------------ ------------------------ 
33     node_397             33   Eltwise/add     100352     0         I: node_386_output             f32(1x28x28x128) (24)    
                                                                      I: node_565_output             f32(1x28x28x128) (24)    
                                                                      O: node_397_output             f32(1x28x28x128) (29)    
------ -------------------- ---- --------------- ---------- --------- ------------------------------ ------------------------ 
34     node_568             34   Conv2D          25690368   132096    I: node_397_output             f32(1x28x28x128) (29)    
                                                                      S: node_568_scratch0                                    
                                                                      W: node_568_weights            f32(256x1x1x128) (151)   
                                                                      W: node_568_bias               f32(256) (148)           
                                                                      O: node_568_output             f32(1x28x28x256) (149)   
------ -------------------- ---- --------------- ---------- --------- ------------------------------ ------------------------ 
35     node_401             35   Nonlinearity    401408     1028      I: node_568_output             f32(1x28x28x256) (149)   
                                                                      W: node_401_alpha              f32(1x1x256) (30)        
                                                                      O: node_401_output             f32(1x28x28x256) (31)    
------ -------------------- ---- --------------- ---------- --------- ------------------------------ ------------------------ 
36     node_571             36   Conv2D          451840     10240     I: node_401_output             f32(1x28x28x256) (31)    
                                                                      W: node_571_weights            f32(256x3x3x1) (154)     
                                                                      W: node_571_bias               f32(256) (152)           
                                                                      O: node_571_output             f32(1x14x14x256) (153)   
------ -------------------- ---- --------------- ---------- --------- ------------------------------ ------------------------ 
37     node_405             37   Nonlinearity    100352     1028      I: node_571_output             f32(1x14x14x256) (153)   
                                                                      W: node_405_alpha              f32(1x1x256) (32)        
                                                                      O: node_405_output             f32(1x14x14x256) (33)    
------ -------------------- ---- --------------- ---------- --------- ------------------------------ ------------------------ 
38     node_574             38   Conv2D          12845312   263168    I: node_405_output             f32(1x14x14x256) (33)    
                                                                      S: node_574_scratch0                                    
                                                                      W: node_574_weights            f32(256x1x1x256) (158)   
                                                                      W: node_574_bias               f32(256) (155)           
                                                                      O: node_574_output             f32(1x14x14x256) (156)   
------ -------------------- ---- --------------- ---------- --------- ------------------------------ ------------------------ 
39     node_577             39   Conv2D          12845312   263168    I: node_574_output             f32(1x14x14x256) (156)   
                                                                      S: node_577_scratch0                                    
                                                                      W: node_577_weights            f32(256x1x1x256) (162)   
                                                                      W: node_577_bias               f32(256) (159)           
                                                                      O: node_577_output             f32(1x14x14x256) (160)   
------ -------------------- ---- --------------- ---------- --------- ------------------------------ ------------------------ 
40     node_411             40   Nonlinearity    100352     1028      I: node_577_output             f32(1x14x14x256) (160)   
                                                                      W: node_411_alpha              f32(1x1x256) (34)        
                                                                      O: node_411_output             f32(1x14x14x256) (35)    
------ -------------------- ---- --------------- ---------- --------- ------------------------------ ------------------------ 
41     node_580             41   Conv2D          451840     10240     I: node_411_output             f32(1x14x14x256) (35)    
                                                                      W: node_580_weights            f32(256x3x3x1) (165)     
                                                                      W: node_580_bias               f32(256) (163)           
                                                                      O: node_580_output             f32(1x14x14x256) (164)   
------ -------------------- ---- --------------- ---------- --------- ------------------------------ ------------------------ 
42     node_415             42   Nonlinearity    100352     1028      I: node_580_output             f32(1x14x14x256) (164)   
                                                                      W: node_415_alpha              f32(1x1x256) (36)        
                                                                      O: node_415_output             f32(1x14x14x256) (37)    
------ -------------------- ---- --------------- ---------- --------- ------------------------------ ------------------------ 
43     node_583             43   Conv2D          12845312   263168    I: node_415_output             f32(1x14x14x256) (37)    
                                                                      S: node_583_scratch0                                    
                                                                      W: node_583_weights            f32(256x1x1x256) (169)   
                                                                      W: node_583_bias               f32(256) (166)           
                                                                      O: node_583_output             f32(1x14x14x256) (167)   
------ -------------------- ---- --------------- ---------- --------- ------------------------------ ------------------------ 
44     node_418             44   Eltwise/add     50176      0         I: node_574_output             f32(1x14x14x256) (156)   
                                                                      I: node_583_output             f32(1x14x14x256) (156)   
                                                                      O: node_418_output             f32(1x14x14x256) (38)    
------ -------------------- ---- --------------- ---------- --------- ------------------------------ ------------------------ 
45     node_586             45   Conv2D          12845312   263168    I: node_418_output             f32(1x14x14x256) (38)    
                                                                      S: node_586_scratch0                                    
                                                                      W: node_586_weights            f32(256x1x1x256) (173)   
                                                                      W: node_586_bias               f32(256) (170)           
                                                                      O: node_586_output             f32(1x14x14x256) (171)   
------ -------------------- ---- --------------- ---------- --------- ------------------------------ ------------------------ 
46     node_422             46   Nonlinearity    100352     1028      I: node_586_output             f32(1x14x14x256) (171)   
                                                                      W: node_422_alpha              f32(1x1x256) (39)        
                                                                      O: node_422_output             f32(1x14x14x256) (40)    
------ -------------------- ---- --------------- ---------- --------- ------------------------------ ------------------------ 
47     node_589             47   Conv2D          451840     10240     I: node_422_output             f32(1x14x14x256) (40)    
                                                                      W: node_589_weights            f32(256x3x3x1) (176)     
                                                                      W: node_589_bias               f32(256) (174)           
                                                                      O: node_589_output             f32(1x14x14x256) (175)   
------ -------------------- ---- --------------- ---------- --------- ------------------------------ ------------------------ 
48     node_426             48   Nonlinearity    100352     1028      I: node_589_output             f32(1x14x14x256) (175)   
                                                                      W: node_426_alpha              f32(1x1x256) (41)        
                                                                      O: node_426_output             f32(1x14x14x256) (42)    
------ -------------------- ---- --------------- ---------- --------- ------------------------------ ------------------------ 
49     node_592             49   Conv2D          12845312   263168    I: node_426_output             f32(1x14x14x256) (42)    
                                                                      S: node_592_scratch0                                    
                                                                      W: node_592_weights            f32(256x1x1x256) (180)   
                                                                      W: node_592_bias               f32(256) (177)           
                                                                      O: node_592_output             f32(1x14x14x256) (178)   
------ -------------------- ---- --------------- ---------- --------- ------------------------------ ------------------------ 
50     node_429             50   Eltwise/add     50176      0         I: node_418_output             f32(1x14x14x256) (38)    
                                                                      I: node_592_output             f32(1x14x14x256) (38)    
                                                                      O: node_429_output             f32(1x14x14x256) (43)    
------ -------------------- ---- --------------- ---------- --------- ------------------------------ ------------------------ 
51     node_595             51   Conv2D          12845312   263168    I: node_429_output             f32(1x14x14x256) (43)    
                                                                      S: node_595_scratch0                                    
                                                                      W: node_595_weights            f32(256x1x1x256) (184)   
                                                                      W: node_595_bias               f32(256) (181)           
                                                                      O: node_595_output             f32(1x14x14x256) (182)   
------ -------------------- ---- --------------- ---------- --------- ------------------------------ ------------------------ 
52     node_433             52   Nonlinearity    100352     1028      I: node_595_output             f32(1x14x14x256) (182)   
                                                                      W: node_433_alpha              f32(1x1x256) (44)        
                                                                      O: node_433_output             f32(1x14x14x256) (45)    
------ -------------------- ---- --------------- ---------- --------- ------------------------------ ------------------------ 
53     node_598             53   Conv2D          451840     10240     I: node_433_output             f32(1x14x14x256) (45)    
                                                                      W: node_598_weights            f32(256x3x3x1) (187)     
                                                                      W: node_598_bias               f32(256) (185)           
                                                                      O: node_598_output             f32(1x14x14x256) (186)   
------ -------------------- ---- --------------- ---------- --------- ------------------------------ ------------------------ 
54     node_437             54   Nonlinearity    100352     1028      I: node_598_output             f32(1x14x14x256) (186)   
                                                                      W: node_437_alpha              f32(1x1x256) (46)        
                                                                      O: node_437_output             f32(1x14x14x256) (47)    
------ -------------------- ---- --------------- ---------- --------- ------------------------------ ------------------------ 
55     node_601             55   Conv2D          12845312   263168    I: node_437_output             f32(1x14x14x256) (47)    
                                                                      S: node_601_scratch0                                    
                                                                      W: node_601_weights            f32(256x1x1x256) (191)   
                                                                      W: node_601_bias               f32(256) (188)           
                                                                      O: node_601_output             f32(1x14x14x256) (189)   
------ -------------------- ---- --------------- ---------- --------- ------------------------------ ------------------------ 
56     node_440             56   Eltwise/add     50176      0         I: node_429_output             f32(1x14x14x256) (43)    
                                                                      I: node_601_output             f32(1x14x14x256) (43)    
                                                                      O: node_440_output             f32(1x14x14x256) (48)    
------ -------------------- ---- --------------- ---------- --------- ------------------------------ ------------------------ 
57     node_604             57   Conv2D          12845312   263168    I: node_440_output             f32(1x14x14x256) (48)    
                                                                      S: node_604_scratch0                                    
                                                                      W: node_604_weights            f32(256x1x1x256) (195)   
                                                                      W: node_604_bias               f32(256) (192)           
                                                                      O: node_604_output             f32(1x14x14x256) (193)   
------ -------------------- ---- --------------- ---------- --------- ------------------------------ ------------------------ 
58     node_444             58   Nonlinearity    100352     1028      I: node_604_output             f32(1x14x14x256) (193)   
                                                                      W: node_444_alpha              f32(1x1x256) (49)        
                                                                      O: node_444_output             f32(1x14x14x256) (50)    
------ -------------------- ---- --------------- ---------- --------- ------------------------------ ------------------------ 
59     node_607             59   Conv2D          451840     10240     I: node_444_output             f32(1x14x14x256) (50)    
                                                                      W: node_607_weights            f32(256x3x3x1) (198)     
                                                                      W: node_607_bias               f32(256) (196)           
                                                                      O: node_607_output             f32(1x14x14x256) (197)   
------ -------------------- ---- --------------- ---------- --------- ------------------------------ ------------------------ 
60     node_448             60   Nonlinearity    100352     1028      I: node_607_output             f32(1x14x14x256) (197)   
                                                                      W: node_448_alpha              f32(1x1x256) (51)        
                                                                      O: node_448_output             f32(1x14x14x256) (52)    
------ -------------------- ---- --------------- ---------- --------- ------------------------------ ------------------------ 
61     node_610             61   Conv2D          12845312   263168    I: node_448_output             f32(1x14x14x256) (52)    
                                                                      S: node_610_scratch0                                    
                                                                      W: node_610_weights            f32(256x1x1x256) (202)   
                                                                      W: node_610_bias               f32(256) (199)           
                                                                      O: node_610_output             f32(1x14x14x256) (200)   
------ -------------------- ---- --------------- ---------- --------- ------------------------------ ------------------------ 
62     node_451             62   Eltwise/add     50176      0         I: node_440_output             f32(1x14x14x256) (48)    
                                                                      I: node_610_output             f32(1x14x14x256) (48)    
                                                                      O: node_451_output             f32(1x14x14x256) (53)    
------ -------------------- ---- --------------- ---------- --------- ------------------------------ ------------------------ 
63     node_613             63   Conv2D          12845312   263168    I: node_451_output             f32(1x14x14x256) (53)    
                                                                      S: node_613_scratch0                                    
                                                                      W: node_613_weights            f32(256x1x1x256) (206)   
                                                                      W: node_613_bias               f32(256) (203)           
                                                                      O: node_613_output             f32(1x14x14x256) (204)   
------ -------------------- ---- --------------- ---------- --------- ------------------------------ ------------------------ 
64     node_455             64   Nonlinearity    100352     1028      I: node_613_output             f32(1x14x14x256) (204)   
                                                                      W: node_455_alpha              f32(1x1x256) (54)        
                                                                      O: node_455_output             f32(1x14x14x256) (55)    
------ -------------------- ---- --------------- ---------- --------- ------------------------------ ------------------------ 
65     node_616             65   Conv2D          451840     10240     I: node_455_output             f32(1x14x14x256) (55)    
                                                                      W: node_616_weights            f32(256x3x3x1) (209)     
                                                                      W: node_616_bias               f32(256) (207)           
                                                                      O: node_616_output             f32(1x14x14x256) (208)   
------ -------------------- ---- --------------- ---------- --------- ------------------------------ ------------------------ 
66     node_459             66   Nonlinearity    100352     1028      I: node_616_output             f32(1x14x14x256) (208)   
                                                                      W: node_459_alpha              f32(1x1x256) (56)        
                                                                      O: node_459_output             f32(1x14x14x256) (57)    
------ -------------------- ---- --------------- ---------- --------- ------------------------------ ------------------------ 
67     node_619             67   Conv2D          12845312   263168    I: node_459_output             f32(1x14x14x256) (57)    
                                                                      S: node_619_scratch0                                    
                                                                      W: node_619_weights            f32(256x1x1x256) (213)   
                                                                      W: node_619_bias               f32(256) (210)           
                                                                      O: node_619_output             f32(1x14x14x256) (211)   
------ -------------------- ---- --------------- ---------- --------- ------------------------------ ------------------------ 
68     node_462             68   Eltwise/add     50176      0         I: node_451_output             f32(1x14x14x256) (53)    
                                                                      I: node_619_output             f32(1x14x14x256) (53)    
                                                                      O: node_462_output             f32(1x14x14x256) (58)    
------ -------------------- ---- --------------- ---------- --------- ------------------------------ ------------------------ 
69     node_622             69   Conv2D          12845312   263168    I: node_462_output             f32(1x14x14x256) (58)    
                                                                      S: node_622_scratch0                                    
                                                                      W: node_622_weights            f32(256x1x1x256) (217)   
                                                                      W: node_622_bias               f32(256) (214)           
                                                                      O: node_622_output             f32(1x14x14x256) (215)   
------ -------------------- ---- --------------- ---------- --------- ------------------------------ ------------------------ 
70     node_466             70   Nonlinearity    100352     1028      I: node_622_output             f32(1x14x14x256) (215)   
                                                                      W: node_466_alpha              f32(1x1x256) (59)        
                                                                      O: node_466_output             f32(1x14x14x256) (60)    
------ -------------------- ---- --------------- ---------- --------- ------------------------------ ------------------------ 
71     node_625             71   Conv2D          451840     10240     I: node_466_output             f32(1x14x14x256) (60)    
                                                                      W: node_625_weights            f32(256x3x3x1) (220)     
                                                                      W: node_625_bias               f32(256) (218)           
                                                                      O: node_625_output             f32(1x14x14x256) (219)   
------ -------------------- ---- --------------- ---------- --------- ------------------------------ ------------------------ 
72     node_470             72   Nonlinearity    100352     1028      I: node_625_output             f32(1x14x14x256) (219)   
                                                                      W: node_470_alpha              f32(1x1x256) (61)        
                                                                      O: node_470_output             f32(1x14x14x256) (62)    
------ -------------------- ---- --------------- ---------- --------- ------------------------------ ------------------------ 
73     node_628             73   Conv2D          12845312   263168    I: node_470_output             f32(1x14x14x256) (62)    
                                                                      S: node_628_scratch0                                    
                                                                      W: node_628_weights            f32(256x1x1x256) (224)   
                                                                      W: node_628_bias               f32(256) (221)           
                                                                      O: node_628_output             f32(1x14x14x256) (222)   
------ -------------------- ---- --------------- ---------- --------- ------------------------------ ------------------------ 
74     node_473             74   Eltwise/add     50176      0         I: node_462_output             f32(1x14x14x256) (58)    
                                                                      I: node_628_output             f32(1x14x14x256) (58)    
                                                                      O: node_473_output             f32(1x14x14x256) (63)    
------ -------------------- ---- --------------- ---------- --------- ------------------------------ ------------------------ 
75     node_631             75   Conv2D          25690624   526336    I: node_473_output             f32(1x14x14x256) (63)    
                                                                      S: node_631_scratch0                                    
                                                                      W: node_631_weights            f32(512x1x1x256) (228)   
                                                                      W: node_631_bias               f32(512) (225)           
                                                                      O: node_631_output             f32(1x14x14x512) (226)   
------ -------------------- ---- --------------- ---------- --------- ------------------------------ ------------------------ 
76     node_477             76   Nonlinearity    200704     2052      I: node_631_output             f32(1x14x14x512) (226)   
                                                                      W: node_477_alpha              f32(1x1x512) (64)        
                                                                      O: node_477_output             f32(1x14x14x512) (65)    
------ -------------------- ---- --------------- ---------- --------- ------------------------------ ------------------------ 
77     node_634             77   Conv2D          226304     20480     I: node_477_output             f32(1x14x14x512) (65)    
                                                                      W: node_634_weights            f32(512x3x3x1) (231)     
                                                                      W: node_634_bias               f32(512) (229)           
                                                                      O: node_634_output             f32(1x7x7x512) (230)     
------ -------------------- ---- --------------- ---------- --------- ------------------------------ ------------------------ 
78     node_481             78   Nonlinearity    50176      2052      I: node_634_output             f32(1x7x7x512) (230)     
                                                                      W: node_481_alpha              f32(1x1x512) (66)        
                                                                      O: node_481_output             f32(1x7x7x512) (67)      
------ -------------------- ---- --------------- ---------- --------- ------------------------------ ------------------------ 
79     node_637             79   Conv2D          6422784    525312    I: node_481_output             f32(1x7x7x512) (67)      
                                                                      S: node_637_scratch0                                    
                                                                      W: node_637_weights            f32(256x1x1x512) (235)   
                                                                      W: node_637_bias               f32(256) (232)           
                                                                      O: node_637_output             f32(1x7x7x256) (233)     
------ -------------------- ---- --------------- ---------- --------- ------------------------------ ------------------------ 
80     node_640             80   Conv2D          3211520    263168    I: node_637_output             f32(1x7x7x256) (233)     
                                                                      S: node_640_scratch0                                    
                                                                      W: node_640_weights            f32(256x1x1x256) (239)   
                                                                      W: node_640_bias               f32(256) (236)           
                                                                      O: node_640_output             f32(1x7x7x256) (237)     
------ -------------------- ---- --------------- ---------- --------- ------------------------------ ------------------------ 
81     node_487             81   Nonlinearity    25088      1028      I: node_640_output             f32(1x7x7x256) (237)     
                                                                      W: node_487_alpha              f32(1x1x256) (68)        
                                                                      O: node_487_output             f32(1x7x7x256) (69)      
------ -------------------- ---- --------------- ---------- --------- ------------------------------ ------------------------ 
82     node_643             82   Conv2D          113152     10240     I: node_487_output             f32(1x7x7x256) (69)      
                                                                      W: node_643_weights            f32(256x3x3x1) (242)     
                                                                      W: node_643_bias               f32(256) (240)           
                                                                      O: node_643_output             f32(1x7x7x256) (241)     
------ -------------------- ---- --------------- ---------- --------- ------------------------------ ------------------------ 
83     node_491             83   Nonlinearity    25088      1028      I: node_643_output             f32(1x7x7x256) (241)     
                                                                      W: node_491_alpha              f32(1x1x256) (70)        
                                                                      O: node_491_output             f32(1x7x7x256) (71)      
------ -------------------- ---- --------------- ---------- --------- ------------------------------ ------------------------ 
84     node_646             84   Conv2D          3211520    263168    I: node_491_output             f32(1x7x7x256) (71)      
                                                                      S: node_646_scratch0                                    
                                                                      W: node_646_weights            f32(256x1x1x256) (246)   
                                                                      W: node_646_bias               f32(256) (243)           
                                                                      O: node_646_output             f32(1x7x7x256) (244)     
------ -------------------- ---- --------------- ---------- --------- ------------------------------ ------------------------ 
85     node_494             85   Eltwise/add     12544      0         I: node_637_output             f32(1x7x7x256) (233)     
                                                                      I: node_646_output             f32(1x7x7x256) (233)     
                                                                      O: node_494_output             f32(1x7x7x256) (72)      
------ -------------------- ---- --------------- ---------- --------- ------------------------------ ------------------------ 
86     node_649             86   Conv2D          3211520    263168    I: node_494_output             f32(1x7x7x256) (72)      
                                                                      S: node_649_scratch0                                    
                                                                      W: node_649_weights            f32(256x1x1x256) (250)   
                                                                      W: node_649_bias               f32(256) (247)           
                                                                      O: node_649_output             f32(1x7x7x256) (248)     
------ -------------------- ---- --------------- ---------- --------- ------------------------------ ------------------------ 
87     node_498             87   Nonlinearity    25088      1028      I: node_649_output             f32(1x7x7x256) (248)     
                                                                      W: node_498_alpha              f32(1x1x256) (73)        
                                                                      O: node_498_output             f32(1x7x7x256) (74)      
------ -------------------- ---- --------------- ---------- --------- ------------------------------ ------------------------ 
88     node_652             88   Conv2D          113152     10240     I: node_498_output             f32(1x7x7x256) (74)      
                                                                      W: node_652_weights            f32(256x3x3x1) (253)     
                                                                      W: node_652_bias               f32(256) (251)           
                                                                      O: node_652_output             f32(1x7x7x256) (252)     
------ -------------------- ---- --------------- ---------- --------- ------------------------------ ------------------------ 
89     node_502             89   Nonlinearity    25088      1028      I: node_652_output             f32(1x7x7x256) (252)     
                                                                      W: node_502_alpha              f32(1x1x256) (75)        
                                                                      O: node_502_output             f32(1x7x7x256) (76)      
------ -------------------- ---- --------------- ---------- --------- ------------------------------ ------------------------ 
90     node_655             90   Conv2D          3211520    263168    I: node_502_output             f32(1x7x7x256) (76)      
                                                                      S: node_655_scratch0                                    
                                                                      W: node_655_weights            f32(256x1x1x256) (257)   
                                                                      W: node_655_bias               f32(256) (254)           
                                                                      O: node_655_output             f32(1x7x7x256) (255)     
------ -------------------- ---- --------------- ---------- --------- ------------------------------ ------------------------ 
91     node_505             91   Eltwise/add     12544      0         I: node_494_output             f32(1x7x7x256) (72)      
                                                                      I: node_655_output             f32(1x7x7x256) (72)      
                                                                      O: node_505_output             f32(1x7x7x256) (77)      
------ -------------------- ---- --------------- ---------- --------- ------------------------------ ------------------------ 
92     node_658             92   Conv2D          6423040    526336    I: node_505_output             f32(1x7x7x256) (77)      
                                                                      S: node_658_scratch0                                    
                                                                      W: node_658_weights            f32(512x1x1x256) (261)   
                                                                      W: node_658_bias               f32(512) (258)           
                                                                      O: node_658_output             f32(1x7x7x512) (259)     
------ -------------------- ---- --------------- ---------- --------- ------------------------------ ------------------------ 
93     node_509             93   Nonlinearity    50176      2052      I: node_658_output             f32(1x7x7x512) (259)     
                                                                      W: node_509_alpha              f32(1x1x512) (78)        
                                                                      O: node_509_output             f32(1x7x7x512) (79)      
------ -------------------- ---- --------------- ---------- --------- ------------------------------ ------------------------ 
94     node_661             94   Conv2D          1605696    131328    I: node_509_output             f32(1x7x7x512) (79)      
                                                                      S: node_661_scratch0                                    
                                                                      W: node_661_weights            f32(64x1x1x512) (265)    
                                                                      W: node_661_bias               f32(64) (262)            
                                                                      O: node_661_output             f32(1x7x7x64) (263)      
------ -------------------- ---- --------------- ---------- --------- ------------------------------ ------------------------ 
95     node_513             95   Nonlinearity    6272       260       I: node_661_output             f32(1x7x7x64) (263)      
                                                                      W: node_513_alpha              f32(1x1x64) (80)         
                                                                      O: node_513_output             f32(1x7x7x64) (81)       
------ -------------------- ---- --------------- ---------- --------- ------------------------------ ------------------------ 
96     node_514_to_chlast   96   Transpose       1568       0         I: node_513_output             f32(1x7x7x64) (81)       
                                                                      O: node_514_to_chlast_output   f32(1x64x7x7) (82)       
------ -------------------- ---- --------------- ---------- --------- ------------------------------ ------------------------ 
97     node_515             98   Dense           1606144    6424576   I: node_514_to_chlast_output   f32(1x64x7x7) (82)       
                                                                      W: node_515_weights            f32(512x3136) (85)       
                                                                      W: node_515_bias               f32(512) (83)            
                                                                      O: node_515_output             f32(1x512) (84)          
------ -------------------- ---- --------------- ---------- --------- ------------------------------ ------------------------ 



Number of operations per c-layer
------- ------ -------------------------------- ------------- -------------- 
c_id    m_id   name (type)                                #op           type 
------- ------ -------------------------------- ------------- -------------- 
0       2      input_1_Transpose (Transpose)           18,816   smul_f32_f32 
1       1      node_517 (Conv2D)                   10,838,144   smul_f32_f32 
2       2      node_339 (Nonlinearity)                802,816     op_f32_f32 
3       3      node_520 (Conv2D)                    7,225,472   smul_f32_f32 
4       4      node_343 (Nonlinearity)                802,816     op_f32_f32 
5       5      node_523 (Conv2D)                   51,380,352   smul_f32_f32 
6       6      node_347 (Nonlinearity)                802,816     op_f32_f32 
7       7      node_526 (Conv2D)                      903,296   smul_f32_f32 
8       8      node_351 (Nonlinearity)                200,704     op_f32_f32 
9       9      node_529 (Conv2D)                   12,845,184   smul_f32_f32 
10      10     node_532 (Conv2D)                   12,845,184   smul_f32_f32 
11      11     node_357 (Nonlinearity)                200,704     op_f32_f32 
12      12     node_535 (Conv2D)                      903,296   smul_f32_f32 
13      13     node_361 (Nonlinearity)                200,704     op_f32_f32 
14      14     node_538 (Conv2D)                   12,845,184   smul_f32_f32 
15      15     node_364 (Eltwise/add)                 100,352     op_f32_f32 
16      16     node_541 (Conv2D)                   12,845,184   smul_f32_f32 
17      17     node_368 (Nonlinearity)                200,704     op_f32_f32 
18      18     node_544 (Conv2D)                      903,296   smul_f32_f32 
19      19     node_372 (Nonlinearity)                200,704     op_f32_f32 
20      20     node_547 (Conv2D)                   12,845,184   smul_f32_f32 
21      21     node_375 (Eltwise/add)                 100,352     op_f32_f32 
22      22     node_550 (Conv2D)                   12,845,184   smul_f32_f32 
23      23     node_379 (Nonlinearity)                200,704     op_f32_f32 
24      24     node_553 (Conv2D)                      903,296   smul_f32_f32 
25      25     node_383 (Nonlinearity)                200,704     op_f32_f32 
26      26     node_556 (Conv2D)                   12,845,184   smul_f32_f32 
27      27     node_386 (Eltwise/add)                 100,352     op_f32_f32 
28      28     node_559 (Conv2D)                   12,845,184   smul_f32_f32 
29      29     node_390 (Nonlinearity)                200,704     op_f32_f32 
30      30     node_562 (Conv2D)                      903,296   smul_f32_f32 
31      31     node_394 (Nonlinearity)                200,704     op_f32_f32 
32      32     node_565 (Conv2D)                   12,845,184   smul_f32_f32 
33      33     node_397 (Eltwise/add)                 100,352     op_f32_f32 
34      34     node_568 (Conv2D)                   25,690,368   smul_f32_f32 
35      35     node_401 (Nonlinearity)                401,408     op_f32_f32 
36      36     node_571 (Conv2D)                      451,840   smul_f32_f32 
37      37     node_405 (Nonlinearity)                100,352     op_f32_f32 
38      38     node_574 (Conv2D)                   12,845,312   smul_f32_f32 
39      39     node_577 (Conv2D)                   12,845,312   smul_f32_f32 
40      40     node_411 (Nonlinearity)                100,352     op_f32_f32 
41      41     node_580 (Conv2D)                      451,840   smul_f32_f32 
42      42     node_415 (Nonlinearity)                100,352     op_f32_f32 
43      43     node_583 (Conv2D)                   12,845,312   smul_f32_f32 
44      44     node_418 (Eltwise/add)                  50,176     op_f32_f32 
45      45     node_586 (Conv2D)                   12,845,312   smul_f32_f32 
46      46     node_422 (Nonlinearity)                100,352     op_f32_f32 
47      47     node_589 (Conv2D)                      451,840   smul_f32_f32 
48      48     node_426 (Nonlinearity)                100,352     op_f32_f32 
49      49     node_592 (Conv2D)                   12,845,312   smul_f32_f32 
50      50     node_429 (Eltwise/add)                  50,176     op_f32_f32 
51      51     node_595 (Conv2D)                   12,845,312   smul_f32_f32 
52      52     node_433 (Nonlinearity)                100,352     op_f32_f32 
53      53     node_598 (Conv2D)                      451,840   smul_f32_f32 
54      54     node_437 (Nonlinearity)                100,352     op_f32_f32 
55      55     node_601 (Conv2D)                   12,845,312   smul_f32_f32 
56      56     node_440 (Eltwise/add)                  50,176     op_f32_f32 
57      57     node_604 (Conv2D)                   12,845,312   smul_f32_f32 
58      58     node_444 (Nonlinearity)                100,352     op_f32_f32 
59      59     node_607 (Conv2D)                      451,840   smul_f32_f32 
60      60     node_448 (Nonlinearity)                100,352     op_f32_f32 
61      61     node_610 (Conv2D)                   12,845,312   smul_f32_f32 
62      62     node_451 (Eltwise/add)                  50,176     op_f32_f32 
63      63     node_613 (Conv2D)                   12,845,312   smul_f32_f32 
64      64     node_455 (Nonlinearity)                100,352     op_f32_f32 
65      65     node_616 (Conv2D)                      451,840   smul_f32_f32 
66      66     node_459 (Nonlinearity)                100,352     op_f32_f32 
67      67     node_619 (Conv2D)                   12,845,312   smul_f32_f32 
68      68     node_462 (Eltwise/add)                  50,176     op_f32_f32 
69      69     node_622 (Conv2D)                   12,845,312   smul_f32_f32 
70      70     node_466 (Nonlinearity)                100,352     op_f32_f32 
71      71     node_625 (Conv2D)                      451,840   smul_f32_f32 
72      72     node_470 (Nonlinearity)                100,352     op_f32_f32 
73      73     node_628 (Conv2D)                   12,845,312   smul_f32_f32 
74      74     node_473 (Eltwise/add)                  50,176     op_f32_f32 
75      75     node_631 (Conv2D)                   25,690,624   smul_f32_f32 
76      76     node_477 (Nonlinearity)                200,704     op_f32_f32 
77      77     node_634 (Conv2D)                      226,304   smul_f32_f32 
78      78     node_481 (Nonlinearity)                 50,176     op_f32_f32 
79      79     node_637 (Conv2D)                    6,422,784   smul_f32_f32 
80      80     node_640 (Conv2D)                    3,211,520   smul_f32_f32 
81      81     node_487 (Nonlinearity)                 25,088     op_f32_f32 
82      82     node_643 (Conv2D)                      113,152   smul_f32_f32 
83      83     node_491 (Nonlinearity)                 25,088     op_f32_f32 
84      84     node_646 (Conv2D)                    3,211,520   smul_f32_f32 
85      85     node_494 (Eltwise/add)                  12,544     op_f32_f32 
86      86     node_649 (Conv2D)                    3,211,520   smul_f32_f32 
87      87     node_498 (Nonlinearity)                 25,088     op_f32_f32 
88      88     node_652 (Conv2D)                      113,152   smul_f32_f32 
89      89     node_502 (Nonlinearity)                 25,088     op_f32_f32 
90      90     node_655 (Conv2D)                    3,211,520   smul_f32_f32 
91      91     node_505 (Eltwise/add)                  12,544     op_f32_f32 
92      92     node_658 (Conv2D)                    6,423,040   smul_f32_f32 
93      93     node_509 (Nonlinearity)                 50,176     op_f32_f32 
94      94     node_661 (Conv2D)                    1,605,696   smul_f32_f32 
95      95     node_513 (Nonlinearity)                  6,272     op_f32_f32 
96      96     node_514_to_chlast (Transpose)           1,568   smul_f32_f32 
97      98     node_515 (Dense)                     1,606,144   smul_f32_f32 
------- ------ -------------------------------- ------------- -------------- 
total                                             447,532,768 

Number of operation types
---------------- ------------- ----------- 
operation type               #           % 
---------------- ------------- ----------- 
smul_f32_f32       440,476,768       98.4% 
op_f32_f32           7,056,000        1.6% 

Complexity report (model)
------ ----------- ------------------------- ------------------------- -------- 
m_id   name        c_macc                    c_rom                     c_id     
------ ----------- ------------------------- ------------------------- -------- 
96     fc_weight   |                  0.0%   |                  0.0%   [96]     
1      node_517    ||||               2.4%   |                  0.1%   [1]      
2      node_339    |                  0.2%   |                  0.0%   [0, 2]   
3      node_520    |||                1.6%   |                  0.1%   [3]      
4      node_343    |                  0.2%   |                  0.0%   [4]      
5      node_523    ||||||||||||||||  11.5%   |                  0.5%   [5]      
6      node_347    |                  0.2%   |                  0.0%   [6]      
7      node_526    |                  0.2%   |                  0.0%   [7]      
8      node_351    |                  0.0%   |                  0.0%   [8]      
9      node_529    ||||               2.9%   |                  0.5%   [9]      
10     node_532    ||||               2.9%   |                  0.5%   [10]     
11     node_357    |                  0.0%   |                  0.0%   [11]     
12     node_535    |                  0.2%   |                  0.0%   [12]     
13     node_361    |                  0.0%   |                  0.0%   [13]     
14     node_538    ||||               2.9%   |                  0.5%   [14]     
15     node_364    |                  0.0%   |                  0.0%   [15]     
16     node_541    ||||               2.9%   |                  0.5%   [16]     
17     node_368    |                  0.0%   |                  0.0%   [17]     
18     node_544    |                  0.2%   |                  0.0%   [18]     
19     node_372    |                  0.0%   |                  0.0%   [19]     
20     node_547    ||||               2.9%   |                  0.5%   [20]     
21     node_375    |                  0.0%   |                  0.0%   [21]     
22     node_550    ||||               2.9%   |                  0.5%   [22]     
23     node_379    |                  0.0%   |                  0.0%   [23]     
24     node_553    |                  0.2%   |                  0.0%   [24]     
25     node_383    |                  0.0%   |                  0.0%   [25]     
26     node_556    ||||               2.9%   |                  0.5%   [26]     
27     node_386    |                  0.0%   |                  0.0%   [27]     
28     node_559    ||||               2.9%   |                  0.5%   [28]     
29     node_390    |                  0.0%   |                  0.0%   [29]     
30     node_562    |                  0.2%   |                  0.0%   [30]     
31     node_394    |                  0.0%   |                  0.0%   [31]     
32     node_565    ||||               2.9%   |                  0.5%   [32]     
33     node_397    |                  0.0%   |                  0.0%   [33]     
34     node_568    ||||||||           5.7%   |                  1.0%   [34]     
35     node_401    |                  0.1%   |                  0.0%   [35]     
36     node_571    |                  0.1%   |                  0.1%   [36]     
37     node_405    |                  0.0%   |                  0.0%   [37]     
38     node_574    ||||               2.9%   |                  1.9%   [38]     
39     node_577    ||||               2.9%   |                  1.9%   [39]     
40     node_411    |                  0.0%   |                  0.0%   [40]     
41     node_580    |                  0.1%   |                  0.1%   [41]     
42     node_415    |                  0.0%   |                  0.0%   [42]     
43     node_583    ||||               2.9%   |                  1.9%   [43]     
44     node_418    |                  0.0%   |                  0.0%   [44]     
45     node_586    ||||               2.9%   |                  1.9%   [45]     
46     node_422    |                  0.0%   |                  0.0%   [46]     
47     node_589    |                  0.1%   |                  0.1%   [47]     
48     node_426    |                  0.0%   |                  0.0%   [48]     
49     node_592    ||||               2.9%   |                  1.9%   [49]     
50     node_429    |                  0.0%   |                  0.0%   [50]     
51     node_595    ||||               2.9%   |                  1.9%   [51]     
52     node_433    |                  0.0%   |                  0.0%   [52]     
53     node_598    |                  0.1%   |                  0.1%   [53]     
54     node_437    |                  0.0%   |                  0.0%   [54]     
55     node_601    ||||               2.9%   |                  1.9%   [55]     
56     node_440    |                  0.0%   |                  0.0%   [56]     
57     node_604    ||||               2.9%   |                  1.9%   [57]     
58     node_444    |                  0.0%   |                  0.0%   [58]     
59     node_607    |                  0.1%   |                  0.1%   [59]     
60     node_448    |                  0.0%   |                  0.0%   [60]     
61     node_610    ||||               2.9%   |                  1.9%   [61]     
62     node_451    |                  0.0%   |                  0.0%   [62]     
63     node_613    ||||               2.9%   |                  1.9%   [63]     
64     node_455    |                  0.0%   |                  0.0%   [64]     
65     node_616    |                  0.1%   |                  0.1%   [65]     
66     node_459    |                  0.0%   |                  0.0%   [66]     
67     node_619    ||||               2.9%   |                  1.9%   [67]     
68     node_462    |                  0.0%   |                  0.0%   [68]     
69     node_622    ||||               2.9%   |                  1.9%   [69]     
70     node_466    |                  0.0%   |                  0.0%   [70]     
71     node_625    |                  0.1%   |                  0.1%   [71]     
72     node_470    |                  0.0%   |                  0.0%   [72]     
73     node_628    ||||               2.9%   |                  1.9%   [73]     
74     node_473    |                  0.0%   |                  0.0%   [74]     
75     node_631    ||||||||           5.7%   ||                 3.9%   [75]     
76     node_477    |                  0.0%   |                  0.0%   [76]     
77     node_634    |                  0.1%   |                  0.2%   [77]     
78     node_481    |                  0.0%   |                  0.0%   [78]     
79     node_637    ||                 1.4%   ||                 3.9%   [79]     
80     node_640    |                  0.7%   |                  1.9%   [80]     
81     node_487    |                  0.0%   |                  0.0%   [81]     
82     node_643    |                  0.0%   |                  0.1%   [82]     
83     node_491    |                  0.0%   |                  0.0%   [83]     
84     node_646    |                  0.7%   |                  1.9%   [84]     
85     node_494    |                  0.0%   |                  0.0%   [85]     
86     node_649    |                  0.7%   |                  1.9%   [86]     
87     node_498    |                  0.0%   |                  0.0%   [87]     
88     node_652    |                  0.0%   |                  0.1%   [88]     
89     node_502    |                  0.0%   |                  0.0%   [89]     
90     node_655    |                  0.7%   |                  1.9%   [90]     
91     node_505    |                  0.0%   |                  0.0%   [91]     
92     node_658    ||                 1.4%   ||                 3.9%   [92]     
93     node_509    |                  0.0%   |                  0.0%   [93]     
94     node_661    |                  0.4%   |                  1.0%   [94]     
95     node_513    |                  0.0%   |                  0.0%   [95]     
98     node_516    |                  0.4%   ||||||||||||||||  47.3%   [97]     
------ ----------- ------------------------- ------------------------- -------- 
macc=447,532,768 weights=13,593,736 act=1,756,268 ram_io=0
 
 Requested memory size by section - "stm32h7" target
 ------------------------------ -------- ------------ -------- ----------- 
 module                             text       rodata     data         bss 
 ------------------------------ -------- ------------ -------- ----------- 
 NetworkRuntime1020_CM7_GCC.a     12,932            0        0           0 
 network.o                         5,228          784   32,300         940 
 network_data.o                       48           16       88           0 
 lib (toolchain)*                      0            0        0           0 
 ------------------------------ -------- ------------ -------- ----------- 
 RT total**                       18,208          800   32,388         940 
 ------------------------------ -------- ------------ -------- ----------- 
 weights                               0   13,593,736        0           0 
 activations                           0            0        0   1,756,268 
 io                                    0            0        0           0 
 ------------------------------ -------- ------------ -------- ----------- 
 TOTAL                            18,208   13,594,536   32,388   1,757,208 
 ------------------------------ -------- ------------ -------- ----------- 
 *  toolchain objects (libm/libgcc*)
 ** RT AI runtime objects (kernels+infrastructure)
  
  Summary - "stm32h7" target
  --------------------------------------------------
               FLASH (ro)     %*    RAM (rw)      % 
  --------------------------------------------------
  RT total         51,396   0.4%      33,328   1.9% 
  --------------------------------------------------
  TOTAL        13,645,132          1,789,596        
  --------------------------------------------------
  *  rt/total


Generated files (7)
------------------------------------------------------------------------- 
C:\STM32_FaceRecognition\ws_mbf\generated_network\network_data_params.h   
C:\STM32_FaceRecognition\ws_mbf\generated_network\network_data_params.c   
C:\STM32_FaceRecognition\ws_mbf\generated_network\network_data.h          
C:\STM32_FaceRecognition\ws_mbf\generated_network\network_data.c          
C:\STM32_FaceRecognition\ws_mbf\generated_network\network_config.h        
C:\STM32_FaceRecognition\ws_mbf\generated_network\network.h               
C:\STM32_FaceRecognition\ws_mbf\generated_network\network.c               
