ST Edge AI Core v2.2.0-20266 2adc00962
Created date          : 2025-08-27 16:49:59
Parameters            : generate --target stm32 --type onnx -m C:\Models\mobilefacenet_arcface_112x112.onnx -o C:\STM32_FaceRecognition\face_rec_model --name network_facerec --workspace C:\STM32_FaceRecognition\ws_n6 --inputs-ch-position chlast --verbosity 3

Exec/report summary (generate)
------------------------------------------------------------------------------------------------
model file         :   C:\Models\mobilefacenet_arcface_112x112.onnx                             
type               :   onnx                                                                     
c_name             :   network_facerec                                                          
compression        :   lossless                                                                 
options            :   allocate-inputs, allocate-outputs                                        
optimization       :   balanced                                                                 
target/series      :   stm32                                                                    
workspace dir      :   C:\STM32_FaceRecognition\ws_n6                                           
output dir         :   C:\STM32_FaceRecognition\face_rec_model                                  
model_fmt          :   float                                                                    
model_name         :   mobilefacenet_arcface_112x112                                            
model_hash         :   0xd31492cf46f686bab409ca0e781b36e2                                       
params #           :   34,130,752 items (130.20 MiB)                                            
------------------------------------------------------------------------------------------------
input 1/1          :   'input_1', f32(1x112x112x3), 147.00 KBytes, activations                  
output 1/1         :   'StatefulPartitione..se_MatMul0', f32(1x512), 2.00 KBytes, activations   
macc               :   4,485,266,816                                                            
weights (ro)       :   136,522,752 B (130.20 MiB) (1 segment) / -256(-0.0%) vs float model      
activations (rw)   :   7,227,648 B (6.89 MiB) (1 segment) *                                     
ram (total)        :   7,227,648 B (6.89 MiB) = 7,227,648 + 0 + 0                               
------------------------------------------------------------------------------------------------
(*) 'input'/'output' buffers are allocated in the activations buffer

Model name - mobilefacenet_arcface_112x112
------ ---------------------------------------------------------------- ------------------------ ----------------------- ------------- -------------------------------- --- ---------------------- -------------------------- -------------------- 
m_id   layer (type,original)                                            oshape                   param/size                       macc                     connected to   | c_size                 c_macc                     c_type               
------ ---------------------------------------------------------------- ------------------------ ----------------------- ------------- -------------------------------- --- ---------------------- -------------------------- -------------------- 
6      StatefulPartitione..prelu_Neg0 (Placeholder, Mul)                [b:1,h:1,w:1,c:64]       64/256                                                                   | +256(+100.0%)          +1,605,632(+100.0%)        ScaleBias_[3]        
------ ---------------------------------------------------------------- ------------------------ ----------------------- ------------- -------------------------------- --- ---------------------- -------------------------- -------------------- 
13     StatefulPartitione..prelu_Neg0 (Placeholder, Mul)                [b:1,h:1,w:1,c:64]       64/256                                                                   | +256(+100.0%)          +1,605,632(+100.0%)        ScaleBias_[11]       
------ ---------------------------------------------------------------- ------------------------ ----------------------- ------------- -------------------------------- --- ---------------------- -------------------------- -------------------- 
23     StatefulPartitione..prelu_Neg0 (Placeholder, Mul)                [b:1,h:1,w:1,c:64]       64/256                                                                   | +256(+100.0%)          +401,408(+100.0%)          ScaleBias_[20]       
------ ---------------------------------------------------------------- ------------------------ ----------------------- ------------- -------------------------------- --- ---------------------- -------------------------- -------------------- 
32     StatefulPartitione..prelu_Neg0 (Placeholder, Mul)                [b:1,h:1,w:1,c:64]       64/256                                                                   | +256(+100.0%)          +401,408(+100.0%)          ScaleBias_[29]       
------ ---------------------------------------------------------------- ------------------------ ----------------------- ------------- -------------------------------- --- ---------------------- -------------------------- -------------------- 
41     StatefulPartitione..prelu_Neg0 (Placeholder, Mul)                [b:1,h:1,w:1,c:128]      128/512                                                                  | +512(+100.0%)          +802,816(+100.0%)          ScaleBias_[39]       
------ ---------------------------------------------------------------- ------------------------ ----------------------- ------------- -------------------------------- --- ---------------------- -------------------------- -------------------- 
51     StatefulPartitione..prelu_Neg0 (Placeholder, Mul)                [b:1,h:1,w:1,c:128]      128/512                                                                  | +512(+100.0%)          +200,704(+100.0%)          ScaleBias_[48]       
------ ---------------------------------------------------------------- ------------------------ ----------------------- ------------- -------------------------------- --- ---------------------- -------------------------- -------------------- 
60     StatefulPartitione..prelu_Neg0 (Placeholder, Mul)                [b:1,h:1,w:1,c:128]      128/512                                                                  | +512(+100.0%)          +200,704(+100.0%)          ScaleBias_[57]       
------ ---------------------------------------------------------------- ------------------------ ----------------------- ------------- -------------------------------- --- ---------------------- -------------------------- -------------------- 
69     StatefulPartitione..prelu_Neg0 (Placeholder, Mul)                [b:1,h:1,w:1,c:128]      128/512                                                                  | +512(+100.0%)          +200,704(+100.0%)          ScaleBias_[66]       
------ ---------------------------------------------------------------- ------------------------ ----------------------- ------------- -------------------------------- --- ---------------------- -------------------------- -------------------- 
78     StatefulPartitione..prelu_Neg0 (Placeholder, Mul)                [b:1,h:1,w:1,c:256]      256/1,024                                                                | +1,024(+100.0%)        +401,408(+100.0%)          ScaleBias_[76]       
------ ---------------------------------------------------------------- ------------------------ ----------------------- ------------- -------------------------------- --- ---------------------- -------------------------- -------------------- 
88     StatefulPartitione..prelu_Neg0 (Placeholder, Mul)                [b:1,h:1,w:1,c:256]      256/1,024                                                                | +1,024(+100.0%)        +100,352(+100.0%)          ScaleBias_[85]       
------ ---------------------------------------------------------------- ------------------------ ----------------------- ------------- -------------------------------- --- ---------------------- -------------------------- -------------------- 
97     StatefulPartitione..prelu_Neg0 (Placeholder, Mul)                [b:1,h:1,w:1,c:256]      256/1,024                                                                | +1,024(+100.0%)        +100,352(+100.0%)          ScaleBias_[94]       
------ ---------------------------------------------------------------- ------------------------ ----------------------- ------------- -------------------------------- --- ---------------------- -------------------------- -------------------- 
106    StatefulPartitione..prelu_Neg0 (Placeholder, Mul)                [b:1,h:1,w:1,c:256]      256/1,024                                                                | +1,024(+100.0%)        +100,352(+100.0%)          ScaleBias_[103]      
------ ---------------------------------------------------------------- ------------------------ ----------------------- ------------- -------------------------------- --- ---------------------- -------------------------- -------------------- 
115    StatefulPartitione..prelu_Neg0 (Placeholder, Mul)                [b:1,h:1,w:1,c:256]      256/1,024                                                                | +1,024(+100.0%)        +100,352(+100.0%)          ScaleBias_[112]      
------ ---------------------------------------------------------------- ------------------------ ----------------------- ------------- -------------------------------- --- ---------------------- -------------------------- -------------------- 
124    StatefulPartitione..prelu_Neg0 (Placeholder, Mul)                [b:1,h:1,w:1,c:256]      256/1,024                                                                | +1,024(+100.0%)        +100,352(+100.0%)          ScaleBias_[121]      
------ ---------------------------------------------------------------- ------------------------ ----------------------- ------------- -------------------------------- --- ---------------------- -------------------------- -------------------- 
133    StatefulPartitione..prelu_Neg0 (Placeholder, Mul)                [b:1,h:1,w:1,c:512]      512/2,048                                                                | +2,048(+100.0%)        +200,704(+100.0%)          ScaleBias_[131]      
------ ---------------------------------------------------------------- ------------------------ ----------------------- ------------- -------------------------------- --- ---------------------- -------------------------- -------------------- 
143    StatefulPartitione..prelu_Neg0 (Placeholder, Mul)                [b:1,h:1,w:1,c:512]      512/2,048                                                                | +2,048(+100.0%)        +50,176(+100.0%)           ScaleBias_[140]      
------ ---------------------------------------------------------------- ------------------------ ----------------------- ------------- -------------------------------- --- ---------------------- -------------------------- -------------------- 
152    StatefulPartitione..prelu_Neg0 (Placeholder, Mul)                [b:1,h:1,w:1,c:512]      512/2,048                                                                | +2,048(+100.0%)        +50,176(+100.0%)           ScaleBias_[149]      
------ ---------------------------------------------------------------- ------------------------ ----------------------- ------------- -------------------------------- --- ---------------------- -------------------------- -------------------- 
159    StatefulPartitione..ariableOp0 (Placeholder, MatMul)             [b:25088,c:512]          12,845,056/51,380,224                                                    | -51,380,224(-100.0%)                              
------ ---------------------------------------------------------------- ------------------------ ----------------------- ------------- -------------------------------- --- ---------------------- -------------------------- -------------------- 
160    StatefulPartitione..ariableOp0 (Placeholder, Add)                [b:512]                  512/2,048                                                                | -2,048(-100.0%)                                   
------ ---------------------------------------------------------------- ------------------------ ----------------------- ------------- -------------------------------- --- ---------------------- -------------------------- -------------------- 
1      StatefulPartitione..hnorm_mul0 (Placeholder, Mul)                [b:512]                  512/2,048                                                                | -2,048(-100.0%)                                   
       StatefulPartitione..hnorm_sub0 (Placeholder, Add)                [b:512]                  512/2,048                                                                | -2,048(-100.0%)                                   
------ ---------------------------------------------------------------- ------------------------ ----------------------- ------------- -------------------------------- --- ---------------------- -------------------------- -------------------- 
0      input_1 (Input, )                                                [b:1,h:112,w:112,c:3]                                                                             |                                                   
------ ---------------------------------------------------------------- ------------------------ ----------------------- ------------- -------------------------------- --- ---------------------- -------------------------- -------------------- 
1      StatefulPartitione..Conv2D__60 (Transpose, Transpose)            [b:1,h:112,w:112,c:3]                                   18,816                          input_1   |                        -18,816(-100.0%)           
------ ---------------------------------------------------------------- ------------------------ ----------------------- ------------- -------------------------------- --- ---------------------- -------------------------- -------------------- 
2      StatefulPartitione..tchNormV30 (Conv2D, Conv)                    [b:1,h:112,w:112,c:64]   1,792/7,168                21,676,096   StatefulPartitione..Conv2D__60   |                                                   Conv2D_[0]           
------ ---------------------------------------------------------------- ------------------------ ----------------------- ------------- -------------------------------- --- ---------------------- -------------------------- -------------------- 
3      StatefulPartitione..relu_Relu0 (Nonlinearity, Relu)              [b:1,h:112,w:112,c:64]                                 802,816   StatefulPartitione..tchNormV30   |                                                   Nonlinearity_[4]     
------ ---------------------------------------------------------------- ------------------------ ----------------------- ------------- -------------------------------- --- ---------------------- -------------------------- -------------------- 
4      StatefulPartitione..elu_Neg_10 (Nonlinearity, Neg)               [b:1,h:112,w:112,c:64]                                 802,816   StatefulPartitione..tchNormV30   |                                                   Nonlinearity_[1]     
------ ---------------------------------------------------------------- ------------------------ ----------------------- ------------- -------------------------------- --- ---------------------- -------------------------- -------------------- 
5      StatefulPartitione..lu_Relu_10 (Nonlinearity, Relu)              [b:1,h:112,w:112,c:64]                                 802,816   StatefulPartitione..elu_Neg_10   |                                                   Nonlinearity_[2]     
------ ---------------------------------------------------------------- ------------------------ ----------------------- ------------- -------------------------------- --- ---------------------- -------------------------- -------------------- 
6      StatefulPartitione..prelu_mul0 (Eltwise, Mul)                    [b:1,h:112,w:112,c:64]                                 802,816   StatefulPartitione..lu_Relu_10   |                        -802,816(-100.0%)          
                                                                                                                                         StatefulPartitione..prelu_Neg0   | 
------ ---------------------------------------------------------------- ------------------------ ----------------------- ------------- -------------------------------- --- ---------------------- -------------------------- -------------------- 
7      StatefulPartitione..prelu_add0 (Eltwise, Add)                    [b:1,h:112,w:112,c:64]                                 802,816   StatefulPartitione..relu_Relu0   |                                                   Eltwise/add_[5]      
                                                                                                                                         StatefulPartitione..prelu_mul0   | 
------ ---------------------------------------------------------------- ------------------------ ----------------------- ------------- -------------------------------- --- ---------------------- -------------------------- -------------------- 
8      StatefulPartitione..tchNormV30 (ScaleBias, BatchNormalization)   [b:1,h:112,w:112,c:64]   128/512                     1,605,632   StatefulPartitione..prelu_add0   |                                                   ScaleBias_[7]        
------ ---------------------------------------------------------------- ------------------------ ----------------------- ------------- -------------------------------- --- ---------------------- -------------------------- -------------------- 
9      StatefulPartitione..tchNormV30 (Conv2D, Conv)                    [b:1,h:112,w:112,c:64]   36,928/147,712            462,422,080   StatefulPartitione..tchNormV30   |                                                   Conv2D_[8]           
------ ---------------------------------------------------------------- ------------------------ ----------------------- ------------- -------------------------------- --- ---------------------- -------------------------- -------------------- 
10     StatefulPartitione..relu_Relu0 (Nonlinearity, Relu)              [b:1,h:112,w:112,c:64]                                 802,816   StatefulPartitione..tchNormV30   |                                                   Nonlinearity_[12]    
------ ---------------------------------------------------------------- ------------------------ ----------------------- ------------- -------------------------------- --- ---------------------- -------------------------- -------------------- 
11     StatefulPartitione..elu_Neg_10 (Nonlinearity, Neg)               [b:1,h:112,w:112,c:64]                                 802,816   StatefulPartitione..tchNormV30   |                                                   Nonlinearity_[9]     
------ ---------------------------------------------------------------- ------------------------ ----------------------- ------------- -------------------------------- --- ---------------------- -------------------------- -------------------- 
12     StatefulPartitione..lu_Relu_10 (Nonlinearity, Relu)              [b:1,h:112,w:112,c:64]                                 802,816   StatefulPartitione..elu_Neg_10   |                                                   Nonlinearity_[10]    
------ ---------------------------------------------------------------- ------------------------ ----------------------- ------------- -------------------------------- --- ---------------------- -------------------------- -------------------- 
13     StatefulPartitione..prelu_mul0 (Eltwise, Mul)                    [b:1,h:112,w:112,c:64]                                 802,816   StatefulPartitione..lu_Relu_10   |                        -802,816(-100.0%)          
                                                                                                                                         StatefulPartitione..prelu_Neg0   | 
------ ---------------------------------------------------------------- ------------------------ ----------------------- ------------- -------------------------------- --- ---------------------- -------------------------- -------------------- 
14     StatefulPartitione..prelu_add0 (Eltwise, Add)                    [b:1,h:112,w:112,c:64]                                 802,816   StatefulPartitione..relu_Relu0   |                                                   Eltwise/add_[13]     
                                                                                                                                         StatefulPartitione..prelu_mul0   | 
------ ---------------------------------------------------------------- ------------------------ ----------------------- ------------- -------------------------------- --- ---------------------- -------------------------- -------------------- 
15     StatefulPartitione..tchNormV30 (Conv2D, Conv)                    [b:1,h:56,w:56,c:64]     36,928/147,712            115,605,568   StatefulPartitione..prelu_add0   |                                                   Conv2D_[14]          
------ ---------------------------------------------------------------- ------------------------ ----------------------- ------------- -------------------------------- --- ---------------------- -------------------------- -------------------- 
16     StatefulPartitione..tchNormV30 (Conv2D, Conv)                    [b:1,h:56,w:56,c:64]     4,160/16,640               12,845,120   StatefulPartitione..prelu_add0   |                                                   Conv2D_[6]           
------ ---------------------------------------------------------------- ------------------------ ----------------------- ------------- -------------------------------- --- ---------------------- -------------------------- -------------------- 
17     StatefulPartitione..1_add_add0 (Eltwise, Add)                    [b:1,h:56,w:56,c:64]                                   200,704   StatefulPartitione..tchNormV30   |                                                   Eltwise/add_[15]     
                                                                                                                                         StatefulPartitione..tchNormV30   | 
------ ---------------------------------------------------------------- ------------------------ ----------------------- ------------- -------------------------------- --- ---------------------- -------------------------- -------------------- 
18     StatefulPartitione..tchNormV30 (ScaleBias, BatchNormalization)   [b:1,h:56,w:56,c:64]     128/512                       401,408   StatefulPartitione..1_add_add0   |                                                   ScaleBias_[16]       
------ ---------------------------------------------------------------- ------------------------ ----------------------- ------------- -------------------------------- --- ---------------------- -------------------------- -------------------- 
19     StatefulPartitione..tchNormV30 (Conv2D, Conv)                    [b:1,h:56,w:56,c:64]     36,928/147,712            115,605,568   StatefulPartitione..tchNormV30   |                                                   Conv2D_[17]          
------ ---------------------------------------------------------------- ------------------------ ----------------------- ------------- -------------------------------- --- ---------------------- -------------------------- -------------------- 
20     StatefulPartitione..relu_Relu0 (Nonlinearity, Relu)              [b:1,h:56,w:56,c:64]                                   200,704   StatefulPartitione..tchNormV30   |                                                   Nonlinearity_[21]    
------ ---------------------------------------------------------------- ------------------------ ----------------------- ------------- -------------------------------- --- ---------------------- -------------------------- -------------------- 
21     StatefulPartitione..elu_Neg_10 (Nonlinearity, Neg)               [b:1,h:56,w:56,c:64]                                   200,704   StatefulPartitione..tchNormV30   |                                                   Nonlinearity_[18]    
------ ---------------------------------------------------------------- ------------------------ ----------------------- ------------- -------------------------------- --- ---------------------- -------------------------- -------------------- 
22     StatefulPartitione..lu_Relu_10 (Nonlinearity, Relu)              [b:1,h:56,w:56,c:64]                                   200,704   StatefulPartitione..elu_Neg_10   |                                                   Nonlinearity_[19]    
------ ---------------------------------------------------------------- ------------------------ ----------------------- ------------- -------------------------------- --- ---------------------- -------------------------- -------------------- 
23     StatefulPartitione..prelu_mul0 (Eltwise, Mul)                    [b:1,h:56,w:56,c:64]                                   200,704   StatefulPartitione..lu_Relu_10   |                        -200,704(-100.0%)          
                                                                                                                                         StatefulPartitione..prelu_Neg0   | 
------ ---------------------------------------------------------------- ------------------------ ----------------------- ------------- -------------------------------- --- ---------------------- -------------------------- -------------------- 
24     StatefulPartitione..prelu_add0 (Eltwise, Add)                    [b:1,h:56,w:56,c:64]                                   200,704   StatefulPartitione..relu_Relu0   |                                                   Eltwise/add_[22]     
                                                                                                                                         StatefulPartitione..prelu_mul0   | 
------ ---------------------------------------------------------------- ------------------------ ----------------------- ------------- -------------------------------- --- ---------------------- -------------------------- -------------------- 
25     StatefulPartitione..tchNormV30 (Conv2D, Conv)                    [b:1,h:56,w:56,c:64]     36,928/147,712            115,605,568   StatefulPartitione..prelu_add0   |                                                   Conv2D_[23]          
------ ---------------------------------------------------------------- ------------------------ ----------------------- ------------- -------------------------------- --- ---------------------- -------------------------- -------------------- 
26     StatefulPartitione..2_add_add0 (Eltwise, Add)                    [b:1,h:56,w:56,c:64]                                   200,704   StatefulPartitione..1_add_add0   |                                                   Eltwise/add_[24]     
                                                                                                                                         StatefulPartitione..tchNormV30   | 
------ ---------------------------------------------------------------- ------------------------ ----------------------- ------------- -------------------------------- --- ---------------------- -------------------------- -------------------- 
27     StatefulPartitione..tchNormV30 (ScaleBias, BatchNormalization)   [b:1,h:56,w:56,c:64]     128/512                       401,408   StatefulPartitione..2_add_add0   |                                                   ScaleBias_[25]       
------ ---------------------------------------------------------------- ------------------------ ----------------------- ------------- -------------------------------- --- ---------------------- -------------------------- -------------------- 
28     StatefulPartitione..tchNormV30 (Conv2D, Conv)                    [b:1,h:56,w:56,c:64]     36,928/147,712            115,605,568   StatefulPartitione..tchNormV30   |                                                   Conv2D_[26]          
------ ---------------------------------------------------------------- ------------------------ ----------------------- ------------- -------------------------------- --- ---------------------- -------------------------- -------------------- 
29     StatefulPartitione..relu_Relu0 (Nonlinearity, Relu)              [b:1,h:56,w:56,c:64]                                   200,704   StatefulPartitione..tchNormV30   |                                                   Nonlinearity_[30]    
------ ---------------------------------------------------------------- ------------------------ ----------------------- ------------- -------------------------------- --- ---------------------- -------------------------- -------------------- 
30     StatefulPartitione..elu_Neg_10 (Nonlinearity, Neg)               [b:1,h:56,w:56,c:64]                                   200,704   StatefulPartitione..tchNormV30   |                                                   Nonlinearity_[27]    
------ ---------------------------------------------------------------- ------------------------ ----------------------- ------------- -------------------------------- --- ---------------------- -------------------------- -------------------- 
31     StatefulPartitione..lu_Relu_10 (Nonlinearity, Relu)              [b:1,h:56,w:56,c:64]                                   200,704   StatefulPartitione..elu_Neg_10   |                                                   Nonlinearity_[28]    
------ ---------------------------------------------------------------- ------------------------ ----------------------- ------------- -------------------------------- --- ---------------------- -------------------------- -------------------- 
32     StatefulPartitione..prelu_mul0 (Eltwise, Mul)                    [b:1,h:56,w:56,c:64]                                   200,704   StatefulPartitione..lu_Relu_10   |                        -200,704(-100.0%)          
                                                                                                                                         StatefulPartitione..prelu_Neg0   | 
------ ---------------------------------------------------------------- ------------------------ ----------------------- ------------- -------------------------------- --- ---------------------- -------------------------- -------------------- 
33     StatefulPartitione..prelu_add0 (Eltwise, Add)                    [b:1,h:56,w:56,c:64]                                   200,704   StatefulPartitione..relu_Relu0   |                                                   Eltwise/add_[31]     
                                                                                                                                         StatefulPartitione..prelu_mul0   | 
------ ---------------------------------------------------------------- ------------------------ ----------------------- ------------- -------------------------------- --- ---------------------- -------------------------- -------------------- 
34     StatefulPartitione..tchNormV30 (Conv2D, Conv)                    [b:1,h:56,w:56,c:64]     36,928/147,712            115,605,568   StatefulPartitione..prelu_add0   |                                                   Conv2D_[32]          
------ ---------------------------------------------------------------- ------------------------ ----------------------- ------------- -------------------------------- --- ---------------------- -------------------------- -------------------- 
35     StatefulPartitione..3_add_add0 (Eltwise, Add)                    [b:1,h:56,w:56,c:64]                                   200,704   StatefulPartitione..2_add_add0   |                                                   Eltwise/add_[33]     
                                                                                                                                         StatefulPartitione..tchNormV30   | 
------ ---------------------------------------------------------------- ------------------------ ----------------------- ------------- -------------------------------- --- ---------------------- -------------------------- -------------------- 
36     StatefulPartitione..tchNormV30 (ScaleBias, BatchNormalization)   [b:1,h:56,w:56,c:64]     128/512                       401,408   StatefulPartitione..3_add_add0   |                                                   ScaleBias_[35]       
------ ---------------------------------------------------------------- ------------------------ ----------------------- ------------- -------------------------------- --- ---------------------- -------------------------- -------------------- 
37     StatefulPartitione..tchNormV30 (Conv2D, Conv)                    [b:1,h:56,w:56,c:128]    73,856/295,424            231,211,136   StatefulPartitione..tchNormV30   |                                                   Conv2D_[36]          
------ ---------------------------------------------------------------- ------------------------ ----------------------- ------------- -------------------------------- --- ---------------------- -------------------------- -------------------- 
38     StatefulPartitione..relu_Relu0 (Nonlinearity, Relu)              [b:1,h:56,w:56,c:128]                                  401,408   StatefulPartitione..tchNormV30   |                                                   Nonlinearity_[40]    
------ ---------------------------------------------------------------- ------------------------ ----------------------- ------------- -------------------------------- --- ---------------------- -------------------------- -------------------- 
39     StatefulPartitione..elu_Neg_10 (Nonlinearity, Neg)               [b:1,h:56,w:56,c:128]                                  401,408   StatefulPartitione..tchNormV30   |                                                   Nonlinearity_[37]    
------ ---------------------------------------------------------------- ------------------------ ----------------------- ------------- -------------------------------- --- ---------------------- -------------------------- -------------------- 
40     StatefulPartitione..lu_Relu_10 (Nonlinearity, Relu)              [b:1,h:56,w:56,c:128]                                  401,408   StatefulPartitione..elu_Neg_10   |                                                   Nonlinearity_[38]    
------ ---------------------------------------------------------------- ------------------------ ----------------------- ------------- -------------------------------- --- ---------------------- -------------------------- -------------------- 
41     StatefulPartitione..prelu_mul0 (Eltwise, Mul)                    [b:1,h:56,w:56,c:128]                                  401,408   StatefulPartitione..lu_Relu_10   |                        -401,408(-100.0%)          
                                                                                                                                         StatefulPartitione..prelu_Neg0   | 
------ ---------------------------------------------------------------- ------------------------ ----------------------- ------------- -------------------------------- --- ---------------------- -------------------------- -------------------- 
42     StatefulPartitione..prelu_add0 (Eltwise, Add)                    [b:1,h:56,w:56,c:128]                                  401,408   StatefulPartitione..relu_Relu0   |                                                   Eltwise/add_[41]     
                                                                                                                                         StatefulPartitione..prelu_mul0   | 
------ ---------------------------------------------------------------- ------------------------ ----------------------- ------------- -------------------------------- --- ---------------------- -------------------------- -------------------- 
43     StatefulPartitione..tchNormV30 (Conv2D, Conv)                    [b:1,h:28,w:28,c:128]    147,584/590,336           115,605,632   StatefulPartitione..prelu_add0   |                                                   Conv2D_[42]          
------ ---------------------------------------------------------------- ------------------------ ----------------------- ------------- -------------------------------- --- ---------------------- -------------------------- -------------------- 
44     StatefulPartitione..tchNormV30 (Conv2D, Conv)                    [b:1,h:28,w:28,c:128]    8,320/33,280                6,422,656   StatefulPartitione..3_add_add0   |                                                   Conv2D_[34]          
------ ---------------------------------------------------------------- ------------------------ ----------------------- ------------- -------------------------------- --- ---------------------- -------------------------- -------------------- 
45     StatefulPartitione..1_add_add0 (Eltwise, Add)                    [b:1,h:28,w:28,c:128]                                  100,352   StatefulPartitione..tchNormV30   |                                                   Eltwise/add_[43]     
                                                                                                                                         StatefulPartitione..tchNormV30   | 
------ ---------------------------------------------------------------- ------------------------ ----------------------- ------------- -------------------------------- --- ---------------------- -------------------------- -------------------- 
46     StatefulPartitione..tchNormV30 (ScaleBias, BatchNormalization)   [b:1,h:28,w:28,c:128]    256/1,024                     200,704   StatefulPartitione..1_add_add0   |                                                   ScaleBias_[44]       
------ ---------------------------------------------------------------- ------------------------ ----------------------- ------------- -------------------------------- --- ---------------------- -------------------------- -------------------- 
47     StatefulPartitione..tchNormV30 (Conv2D, Conv)                    [b:1,h:28,w:28,c:128]    147,584/590,336           115,605,632   StatefulPartitione..tchNormV30   |                                                   Conv2D_[45]          
------ ---------------------------------------------------------------- ------------------------ ----------------------- ------------- -------------------------------- --- ---------------------- -------------------------- -------------------- 
48     StatefulPartitione..relu_Relu0 (Nonlinearity, Relu)              [b:1,h:28,w:28,c:128]                                  100,352   StatefulPartitione..tchNormV30   |                                                   Nonlinearity_[49]    
------ ---------------------------------------------------------------- ------------------------ ----------------------- ------------- -------------------------------- --- ---------------------- -------------------------- -------------------- 
49     StatefulPartitione..elu_Neg_10 (Nonlinearity, Neg)               [b:1,h:28,w:28,c:128]                                  100,352   StatefulPartitione..tchNormV30   |                                                   Nonlinearity_[46]    
------ ---------------------------------------------------------------- ------------------------ ----------------------- ------------- -------------------------------- --- ---------------------- -------------------------- -------------------- 
50     StatefulPartitione..lu_Relu_10 (Nonlinearity, Relu)              [b:1,h:28,w:28,c:128]                                  100,352   StatefulPartitione..elu_Neg_10   |                                                   Nonlinearity_[47]    
------ ---------------------------------------------------------------- ------------------------ ----------------------- ------------- -------------------------------- --- ---------------------- -------------------------- -------------------- 
51     StatefulPartitione..prelu_mul0 (Eltwise, Mul)                    [b:1,h:28,w:28,c:128]                                  100,352   StatefulPartitione..lu_Relu_10   |                        -100,352(-100.0%)          
                                                                                                                                         StatefulPartitione..prelu_Neg0   | 
------ ---------------------------------------------------------------- ------------------------ ----------------------- ------------- -------------------------------- --- ---------------------- -------------------------- -------------------- 
52     StatefulPartitione..prelu_add0 (Eltwise, Add)                    [b:1,h:28,w:28,c:128]                                  100,352   StatefulPartitione..relu_Relu0   |                                                   Eltwise/add_[50]     
                                                                                                                                         StatefulPartitione..prelu_mul0   | 
------ ---------------------------------------------------------------- ------------------------ ----------------------- ------------- -------------------------------- --- ---------------------- -------------------------- -------------------- 
53     StatefulPartitione..tchNormV30 (Conv2D, Conv)                    [b:1,h:28,w:28,c:128]    147,584/590,336           115,605,632   StatefulPartitione..prelu_add0   |                                                   Conv2D_[51]          
------ ---------------------------------------------------------------- ------------------------ ----------------------- ------------- -------------------------------- --- ---------------------- -------------------------- -------------------- 
54     StatefulPartitione..2_add_add0 (Eltwise, Add)                    [b:1,h:28,w:28,c:128]                                  100,352   StatefulPartitione..1_add_add0   |                                                   Eltwise/add_[52]     
                                                                                                                                         StatefulPartitione..tchNormV30   | 
------ ---------------------------------------------------------------- ------------------------ ----------------------- ------------- -------------------------------- --- ---------------------- -------------------------- -------------------- 
55     StatefulPartitione..tchNormV30 (ScaleBias, BatchNormalization)   [b:1,h:28,w:28,c:128]    256/1,024                     200,704   StatefulPartitione..2_add_add0   |                                                   ScaleBias_[53]       
------ ---------------------------------------------------------------- ------------------------ ----------------------- ------------- -------------------------------- --- ---------------------- -------------------------- -------------------- 
56     StatefulPartitione..tchNormV30 (Conv2D, Conv)                    [b:1,h:28,w:28,c:128]    147,584/590,336           115,605,632   StatefulPartitione..tchNormV30   |                                                   Conv2D_[54]          
------ ---------------------------------------------------------------- ------------------------ ----------------------- ------------- -------------------------------- --- ---------------------- -------------------------- -------------------- 
57     StatefulPartitione..relu_Relu0 (Nonlinearity, Relu)              [b:1,h:28,w:28,c:128]                                  100,352   StatefulPartitione..tchNormV30   |                                                   Nonlinearity_[58]    
------ ---------------------------------------------------------------- ------------------------ ----------------------- ------------- -------------------------------- --- ---------------------- -------------------------- -------------------- 
58     StatefulPartitione..elu_Neg_10 (Nonlinearity, Neg)               [b:1,h:28,w:28,c:128]                                  100,352   StatefulPartitione..tchNormV30   |                                                   Nonlinearity_[55]    
------ ---------------------------------------------------------------- ------------------------ ----------------------- ------------- -------------------------------- --- ---------------------- -------------------------- -------------------- 
59     StatefulPartitione..lu_Relu_10 (Nonlinearity, Relu)              [b:1,h:28,w:28,c:128]                                  100,352   StatefulPartitione..elu_Neg_10   |                                                   Nonlinearity_[56]    
------ ---------------------------------------------------------------- ------------------------ ----------------------- ------------- -------------------------------- --- ---------------------- -------------------------- -------------------- 
60     StatefulPartitione..prelu_mul0 (Eltwise, Mul)                    [b:1,h:28,w:28,c:128]                                  100,352   StatefulPartitione..lu_Relu_10   |                        -100,352(-100.0%)          
                                                                                                                                         StatefulPartitione..prelu_Neg0   | 
------ ---------------------------------------------------------------- ------------------------ ----------------------- ------------- -------------------------------- --- ---------------------- -------------------------- -------------------- 
61     StatefulPartitione..prelu_add0 (Eltwise, Add)                    [b:1,h:28,w:28,c:128]                                  100,352   StatefulPartitione..relu_Relu0   |                                                   Eltwise/add_[59]     
                                                                                                                                         StatefulPartitione..prelu_mul0   | 
------ ---------------------------------------------------------------- ------------------------ ----------------------- ------------- -------------------------------- --- ---------------------- -------------------------- -------------------- 
62     StatefulPartitione..tchNormV30 (Conv2D, Conv)                    [b:1,h:28,w:28,c:128]    147,584/590,336           115,605,632   StatefulPartitione..prelu_add0   |                                                   Conv2D_[60]          
------ ---------------------------------------------------------------- ------------------------ ----------------------- ------------- -------------------------------- --- ---------------------- -------------------------- -------------------- 
63     StatefulPartitione..3_add_add0 (Eltwise, Add)                    [b:1,h:28,w:28,c:128]                                  100,352   StatefulPartitione..2_add_add0   |                                                   Eltwise/add_[61]     
                                                                                                                                         StatefulPartitione..tchNormV30   | 
------ ---------------------------------------------------------------- ------------------------ ----------------------- ------------- -------------------------------- --- ---------------------- -------------------------- -------------------- 
64     StatefulPartitione..tchNormV30 (ScaleBias, BatchNormalization)   [b:1,h:28,w:28,c:128]    256/1,024                     200,704   StatefulPartitione..3_add_add0   |                                                   ScaleBias_[62]       
------ ---------------------------------------------------------------- ------------------------ ----------------------- ------------- -------------------------------- --- ---------------------- -------------------------- -------------------- 
65     StatefulPartitione..tchNormV30 (Conv2D, Conv)                    [b:1,h:28,w:28,c:128]    147,584/590,336           115,605,632   StatefulPartitione..tchNormV30   |                                                   Conv2D_[63]          
------ ---------------------------------------------------------------- ------------------------ ----------------------- ------------- -------------------------------- --- ---------------------- -------------------------- -------------------- 
66     StatefulPartitione..relu_Relu0 (Nonlinearity, Relu)              [b:1,h:28,w:28,c:128]                                  100,352   StatefulPartitione..tchNormV30   |                                                   Nonlinearity_[67]    
------ ---------------------------------------------------------------- ------------------------ ----------------------- ------------- -------------------------------- --- ---------------------- -------------------------- -------------------- 
67     StatefulPartitione..elu_Neg_10 (Nonlinearity, Neg)               [b:1,h:28,w:28,c:128]                                  100,352   StatefulPartitione..tchNormV30   |                                                   Nonlinearity_[64]    
------ ---------------------------------------------------------------- ------------------------ ----------------------- ------------- -------------------------------- --- ---------------------- -------------------------- -------------------- 
68     StatefulPartitione..lu_Relu_10 (Nonlinearity, Relu)              [b:1,h:28,w:28,c:128]                                  100,352   StatefulPartitione..elu_Neg_10   |                                                   Nonlinearity_[65]    
------ ---------------------------------------------------------------- ------------------------ ----------------------- ------------- -------------------------------- --- ---------------------- -------------------------- -------------------- 
69     StatefulPartitione..prelu_mul0 (Eltwise, Mul)                    [b:1,h:28,w:28,c:128]                                  100,352   StatefulPartitione..lu_Relu_10   |                        -100,352(-100.0%)          
                                                                                                                                         StatefulPartitione..prelu_Neg0   | 
------ ---------------------------------------------------------------- ------------------------ ----------------------- ------------- -------------------------------- --- ---------------------- -------------------------- -------------------- 
70     StatefulPartitione..prelu_add0 (Eltwise, Add)                    [b:1,h:28,w:28,c:128]                                  100,352   StatefulPartitione..relu_Relu0   |                                                   Eltwise/add_[68]     
                                                                                                                                         StatefulPartitione..prelu_mul0   | 
------ ---------------------------------------------------------------- ------------------------ ----------------------- ------------- -------------------------------- --- ---------------------- -------------------------- -------------------- 
71     StatefulPartitione..tchNormV30 (Conv2D, Conv)                    [b:1,h:28,w:28,c:128]    147,584/590,336           115,605,632   StatefulPartitione..prelu_add0   |                                                   Conv2D_[69]          
------ ---------------------------------------------------------------- ------------------------ ----------------------- ------------- -------------------------------- --- ---------------------- -------------------------- -------------------- 
72     StatefulPartitione..4_add_add0 (Eltwise, Add)                    [b:1,h:28,w:28,c:128]                                  100,352   StatefulPartitione..3_add_add0   |                                                   Eltwise/add_[70]     
                                                                                                                                         StatefulPartitione..tchNormV30   | 
------ ---------------------------------------------------------------- ------------------------ ----------------------- ------------- -------------------------------- --- ---------------------- -------------------------- -------------------- 
73     StatefulPartitione..tchNormV30 (ScaleBias, BatchNormalization)   [b:1,h:28,w:28,c:128]    256/1,024                     200,704   StatefulPartitione..4_add_add0   |                                                   ScaleBias_[72]       
------ ---------------------------------------------------------------- ------------------------ ----------------------- ------------- -------------------------------- --- ---------------------- -------------------------- -------------------- 
74     StatefulPartitione..tchNormV30 (Conv2D, Conv)                    [b:1,h:28,w:28,c:256]    295,168/1,180,672         231,211,264   StatefulPartitione..tchNormV30   |                                                   Conv2D_[73]          
------ ---------------------------------------------------------------- ------------------------ ----------------------- ------------- -------------------------------- --- ---------------------- -------------------------- -------------------- 
75     StatefulPartitione..relu_Relu0 (Nonlinearity, Relu)              [b:1,h:28,w:28,c:256]                                  200,704   StatefulPartitione..tchNormV30   |                                                   Nonlinearity_[77]    
------ ---------------------------------------------------------------- ------------------------ ----------------------- ------------- -------------------------------- --- ---------------------- -------------------------- -------------------- 
76     StatefulPartitione..elu_Neg_10 (Nonlinearity, Neg)               [b:1,h:28,w:28,c:256]                                  200,704   StatefulPartitione..tchNormV30   |                                                   Nonlinearity_[74]    
------ ---------------------------------------------------------------- ------------------------ ----------------------- ------------- -------------------------------- --- ---------------------- -------------------------- -------------------- 
77     StatefulPartitione..lu_Relu_10 (Nonlinearity, Relu)              [b:1,h:28,w:28,c:256]                                  200,704   StatefulPartitione..elu_Neg_10   |                                                   Nonlinearity_[75]    
------ ---------------------------------------------------------------- ------------------------ ----------------------- ------------- -------------------------------- --- ---------------------- -------------------------- -------------------- 
78     StatefulPartitione..prelu_mul0 (Eltwise, Mul)                    [b:1,h:28,w:28,c:256]                                  200,704   StatefulPartitione..lu_Relu_10   |                        -200,704(-100.0%)          
                                                                                                                                         StatefulPartitione..prelu_Neg0   | 
------ ---------------------------------------------------------------- ------------------------ ----------------------- ------------- -------------------------------- --- ---------------------- -------------------------- -------------------- 
79     StatefulPartitione..prelu_add0 (Eltwise, Add)                    [b:1,h:28,w:28,c:256]                                  200,704   StatefulPartitione..relu_Relu0   |                                                   Eltwise/add_[78]     
                                                                                                                                         StatefulPartitione..prelu_mul0   | 
------ ---------------------------------------------------------------- ------------------------ ----------------------- ------------- -------------------------------- --- ---------------------- -------------------------- -------------------- 
80     StatefulPartitione..tchNormV30 (Conv2D, Conv)                    [b:1,h:14,w:14,c:256]    590,080/2,360,320         115,605,760   StatefulPartitione..prelu_add0   |                                                   Conv2D_[79]          
------ ---------------------------------------------------------------- ------------------------ ----------------------- ------------- -------------------------------- --- ---------------------- -------------------------- -------------------- 
81     StatefulPartitione..tchNormV30 (Conv2D, Conv)                    [b:1,h:14,w:14,c:256]    33,024/132,096              6,422,784   StatefulPartitione..4_add_add0   |                                                   Conv2D_[71]          
------ ---------------------------------------------------------------- ------------------------ ----------------------- ------------- -------------------------------- --- ---------------------- -------------------------- -------------------- 
82     StatefulPartitione..1_add_add0 (Eltwise, Add)                    [b:1,h:14,w:14,c:256]                                   50,176   StatefulPartitione..tchNormV30   |                                                   Eltwise/add_[80]     
                                                                                                                                         StatefulPartitione..tchNormV30   | 
------ ---------------------------------------------------------------- ------------------------ ----------------------- ------------- -------------------------------- --- ---------------------- -------------------------- -------------------- 
83     StatefulPartitione..tchNormV30 (ScaleBias, BatchNormalization)   [b:1,h:14,w:14,c:256]    512/2,048                     100,352   StatefulPartitione..1_add_add0   |                                                   ScaleBias_[81]       
------ ---------------------------------------------------------------- ------------------------ ----------------------- ------------- -------------------------------- --- ---------------------- -------------------------- -------------------- 
84     StatefulPartitione..tchNormV30 (Conv2D, Conv)                    [b:1,h:14,w:14,c:256]    590,080/2,360,320         115,605,760   StatefulPartitione..tchNormV30   |                                                   Conv2D_[82]          
------ ---------------------------------------------------------------- ------------------------ ----------------------- ------------- -------------------------------- --- ---------------------- -------------------------- -------------------- 
85     StatefulPartitione..relu_Relu0 (Nonlinearity, Relu)              [b:1,h:14,w:14,c:256]                                   50,176   StatefulPartitione..tchNormV30   |                                                   Nonlinearity_[86]    
------ ---------------------------------------------------------------- ------------------------ ----------------------- ------------- -------------------------------- --- ---------------------- -------------------------- -------------------- 
86     StatefulPartitione..elu_Neg_10 (Nonlinearity, Neg)               [b:1,h:14,w:14,c:256]                                   50,176   StatefulPartitione..tchNormV30   |                                                   Nonlinearity_[83]    
------ ---------------------------------------------------------------- ------------------------ ----------------------- ------------- -------------------------------- --- ---------------------- -------------------------- -------------------- 
87     StatefulPartitione..lu_Relu_10 (Nonlinearity, Relu)              [b:1,h:14,w:14,c:256]                                   50,176   StatefulPartitione..elu_Neg_10   |                                                   Nonlinearity_[84]    
------ ---------------------------------------------------------------- ------------------------ ----------------------- ------------- -------------------------------- --- ---------------------- -------------------------- -------------------- 
88     StatefulPartitione..prelu_mul0 (Eltwise, Mul)                    [b:1,h:14,w:14,c:256]                                   50,176   StatefulPartitione..lu_Relu_10   |                        -50,176(-100.0%)           
                                                                                                                                         StatefulPartitione..prelu_Neg0   | 
------ ---------------------------------------------------------------- ------------------------ ----------------------- ------------- -------------------------------- --- ---------------------- -------------------------- -------------------- 
89     StatefulPartitione..prelu_add0 (Eltwise, Add)                    [b:1,h:14,w:14,c:256]                                   50,176   StatefulPartitione..relu_Relu0   |                                                   Eltwise/add_[87]     
                                                                                                                                         StatefulPartitione..prelu_mul0   | 
------ ---------------------------------------------------------------- ------------------------ ----------------------- ------------- -------------------------------- --- ---------------------- -------------------------- -------------------- 
90     StatefulPartitione..tchNormV30 (Conv2D, Conv)                    [b:1,h:14,w:14,c:256]    590,080/2,360,320         115,605,760   StatefulPartitione..prelu_add0   |                                                   Conv2D_[88]          
------ ---------------------------------------------------------------- ------------------------ ----------------------- ------------- -------------------------------- --- ---------------------- -------------------------- -------------------- 
91     StatefulPartitione..2_add_add0 (Eltwise, Add)                    [b:1,h:14,w:14,c:256]                                   50,176   StatefulPartitione..1_add_add0   |                                                   Eltwise/add_[89]     
                                                                                                                                         StatefulPartitione..tchNormV30   | 
------ ---------------------------------------------------------------- ------------------------ ----------------------- ------------- -------------------------------- --- ---------------------- -------------------------- -------------------- 
92     StatefulPartitione..tchNormV30 (ScaleBias, BatchNormalization)   [b:1,h:14,w:14,c:256]    512/2,048                     100,352   StatefulPartitione..2_add_add0   |                                                   ScaleBias_[90]       
------ ---------------------------------------------------------------- ------------------------ ----------------------- ------------- -------------------------------- --- ---------------------- -------------------------- -------------------- 
93     StatefulPartitione..tchNormV30 (Conv2D, Conv)                    [b:1,h:14,w:14,c:256]    590,080/2,360,320         115,605,760   StatefulPartitione..tchNormV30   |                                                   Conv2D_[91]          
------ ---------------------------------------------------------------- ------------------------ ----------------------- ------------- -------------------------------- --- ---------------------- -------------------------- -------------------- 
94     StatefulPartitione..relu_Relu0 (Nonlinearity, Relu)              [b:1,h:14,w:14,c:256]                                   50,176   StatefulPartitione..tchNormV30   |                                                   Nonlinearity_[95]    
------ ---------------------------------------------------------------- ------------------------ ----------------------- ------------- -------------------------------- --- ---------------------- -------------------------- -------------------- 
95     StatefulPartitione..elu_Neg_10 (Nonlinearity, Neg)               [b:1,h:14,w:14,c:256]                                   50,176   StatefulPartitione..tchNormV30   |                                                   Nonlinearity_[92]    
------ ---------------------------------------------------------------- ------------------------ ----------------------- ------------- -------------------------------- --- ---------------------- -------------------------- -------------------- 
96     StatefulPartitione..lu_Relu_10 (Nonlinearity, Relu)              [b:1,h:14,w:14,c:256]                                   50,176   StatefulPartitione..elu_Neg_10   |                                                   Nonlinearity_[93]    
------ ---------------------------------------------------------------- ------------------------ ----------------------- ------------- -------------------------------- --- ---------------------- -------------------------- -------------------- 
97     StatefulPartitione..prelu_mul0 (Eltwise, Mul)                    [b:1,h:14,w:14,c:256]                                   50,176   StatefulPartitione..lu_Relu_10   |                        -50,176(-100.0%)           
                                                                                                                                         StatefulPartitione..prelu_Neg0   | 
------ ---------------------------------------------------------------- ------------------------ ----------------------- ------------- -------------------------------- --- ---------------------- -------------------------- -------------------- 
98     StatefulPartitione..prelu_add0 (Eltwise, Add)                    [b:1,h:14,w:14,c:256]                                   50,176   StatefulPartitione..relu_Relu0   |                                                   Eltwise/add_[96]     
                                                                                                                                         StatefulPartitione..prelu_mul0   | 
------ ---------------------------------------------------------------- ------------------------ ----------------------- ------------- -------------------------------- --- ---------------------- -------------------------- -------------------- 
99     StatefulPartitione..tchNormV30 (Conv2D, Conv)                    [b:1,h:14,w:14,c:256]    590,080/2,360,320         115,605,760   StatefulPartitione..prelu_add0   |                                                   Conv2D_[97]          
------ ---------------------------------------------------------------- ------------------------ ----------------------- ------------- -------------------------------- --- ---------------------- -------------------------- -------------------- 
100    StatefulPartitione..3_add_add0 (Eltwise, Add)                    [b:1,h:14,w:14,c:256]                                   50,176   StatefulPartitione..2_add_add0   |                                                   Eltwise/add_[98]     
                                                                                                                                         StatefulPartitione..tchNormV30   | 
------ ---------------------------------------------------------------- ------------------------ ----------------------- ------------- -------------------------------- --- ---------------------- -------------------------- -------------------- 
101    StatefulPartitione..tchNormV30 (ScaleBias, BatchNormalization)   [b:1,h:14,w:14,c:256]    512/2,048                     100,352   StatefulPartitione..3_add_add0   |                                                   ScaleBias_[99]       
------ ---------------------------------------------------------------- ------------------------ ----------------------- ------------- -------------------------------- --- ---------------------- -------------------------- -------------------- 
102    StatefulPartitione..tchNormV30 (Conv2D, Conv)                    [b:1,h:14,w:14,c:256]    590,080/2,360,320         115,605,760   StatefulPartitione..tchNormV30   |                                                   Conv2D_[100]         
------ ---------------------------------------------------------------- ------------------------ ----------------------- ------------- -------------------------------- --- ---------------------- -------------------------- -------------------- 
103    StatefulPartitione..relu_Relu0 (Nonlinearity, Relu)              [b:1,h:14,w:14,c:256]                                   50,176   StatefulPartitione..tchNormV30   |                                                   Nonlinearity_[104]   
------ ---------------------------------------------------------------- ------------------------ ----------------------- ------------- -------------------------------- --- ---------------------- -------------------------- -------------------- 
104    StatefulPartitione..elu_Neg_10 (Nonlinearity, Neg)               [b:1,h:14,w:14,c:256]                                   50,176   StatefulPartitione..tchNormV30   |                                                   Nonlinearity_[101]   
------ ---------------------------------------------------------------- ------------------------ ----------------------- ------------- -------------------------------- --- ---------------------- -------------------------- -------------------- 
105    StatefulPartitione..lu_Relu_10 (Nonlinearity, Relu)              [b:1,h:14,w:14,c:256]                                   50,176   StatefulPartitione..elu_Neg_10   |                                                   Nonlinearity_[102]   
------ ---------------------------------------------------------------- ------------------------ ----------------------- ------------- -------------------------------- --- ---------------------- -------------------------- -------------------- 
106    StatefulPartitione..prelu_mul0 (Eltwise, Mul)                    [b:1,h:14,w:14,c:256]                                   50,176   StatefulPartitione..lu_Relu_10   |                        -50,176(-100.0%)           
                                                                                                                                         StatefulPartitione..prelu_Neg0   | 
------ ---------------------------------------------------------------- ------------------------ ----------------------- ------------- -------------------------------- --- ---------------------- -------------------------- -------------------- 
107    StatefulPartitione..prelu_add0 (Eltwise, Add)                    [b:1,h:14,w:14,c:256]                                   50,176   StatefulPartitione..relu_Relu0   |                                                   Eltwise/add_[105]    
                                                                                                                                         StatefulPartitione..prelu_mul0   | 
------ ---------------------------------------------------------------- ------------------------ ----------------------- ------------- -------------------------------- --- ---------------------- -------------------------- -------------------- 
108    StatefulPartitione..tchNormV30 (Conv2D, Conv)                    [b:1,h:14,w:14,c:256]    590,080/2,360,320         115,605,760   StatefulPartitione..prelu_add0   |                                                   Conv2D_[106]         
------ ---------------------------------------------------------------- ------------------------ ----------------------- ------------- -------------------------------- --- ---------------------- -------------------------- -------------------- 
109    StatefulPartitione..4_add_add0 (Eltwise, Add)                    [b:1,h:14,w:14,c:256]                                   50,176   StatefulPartitione..3_add_add0   |                                                   Eltwise/add_[107]    
                                                                                                                                         StatefulPartitione..tchNormV30   | 
------ ---------------------------------------------------------------- ------------------------ ----------------------- ------------- -------------------------------- --- ---------------------- -------------------------- -------------------- 
110    StatefulPartitione..tchNormV30 (ScaleBias, BatchNormalization)   [b:1,h:14,w:14,c:256]    512/2,048                     100,352   StatefulPartitione..4_add_add0   |                                                   ScaleBias_[108]      
------ ---------------------------------------------------------------- ------------------------ ----------------------- ------------- -------------------------------- --- ---------------------- -------------------------- -------------------- 
111    StatefulPartitione..tchNormV30 (Conv2D, Conv)                    [b:1,h:14,w:14,c:256]    590,080/2,360,320         115,605,760   StatefulPartitione..tchNormV30   |                                                   Conv2D_[109]         
------ ---------------------------------------------------------------- ------------------------ ----------------------- ------------- -------------------------------- --- ---------------------- -------------------------- -------------------- 
112    StatefulPartitione..relu_Relu0 (Nonlinearity, Relu)              [b:1,h:14,w:14,c:256]                                   50,176   StatefulPartitione..tchNormV30   |                                                   Nonlinearity_[113]   
------ ---------------------------------------------------------------- ------------------------ ----------------------- ------------- -------------------------------- --- ---------------------- -------------------------- -------------------- 
113    StatefulPartitione..elu_Neg_10 (Nonlinearity, Neg)               [b:1,h:14,w:14,c:256]                                   50,176   StatefulPartitione..tchNormV30   |                                                   Nonlinearity_[110]   
------ ---------------------------------------------------------------- ------------------------ ----------------------- ------------- -------------------------------- --- ---------------------- -------------------------- -------------------- 
114    StatefulPartitione..lu_Relu_10 (Nonlinearity, Relu)              [b:1,h:14,w:14,c:256]                                   50,176   StatefulPartitione..elu_Neg_10   |                                                   Nonlinearity_[111]   
------ ---------------------------------------------------------------- ------------------------ ----------------------- ------------- -------------------------------- --- ---------------------- -------------------------- -------------------- 
115    StatefulPartitione..prelu_mul0 (Eltwise, Mul)                    [b:1,h:14,w:14,c:256]                                   50,176   StatefulPartitione..lu_Relu_10   |                        -50,176(-100.0%)           
                                                                                                                                         StatefulPartitione..prelu_Neg0   | 
------ ---------------------------------------------------------------- ------------------------ ----------------------- ------------- -------------------------------- --- ---------------------- -------------------------- -------------------- 
116    StatefulPartitione..prelu_add0 (Eltwise, Add)                    [b:1,h:14,w:14,c:256]                                   50,176   StatefulPartitione..relu_Relu0   |                                                   Eltwise/add_[114]    
                                                                                                                                         StatefulPartitione..prelu_mul0   | 
------ ---------------------------------------------------------------- ------------------------ ----------------------- ------------- -------------------------------- --- ---------------------- -------------------------- -------------------- 
117    StatefulPartitione..tchNormV30 (Conv2D, Conv)                    [b:1,h:14,w:14,c:256]    590,080/2,360,320         115,605,760   StatefulPartitione..prelu_add0   |                                                   Conv2D_[115]         
------ ---------------------------------------------------------------- ------------------------ ----------------------- ------------- -------------------------------- --- ---------------------- -------------------------- -------------------- 
118    StatefulPartitione..5_add_add0 (Eltwise, Add)                    [b:1,h:14,w:14,c:256]                                   50,176   StatefulPartitione..4_add_add0   |                                                   Eltwise/add_[116]    
                                                                                                                                         StatefulPartitione..tchNormV30   | 
------ ---------------------------------------------------------------- ------------------------ ----------------------- ------------- -------------------------------- --- ---------------------- -------------------------- -------------------- 
119    StatefulPartitione..tchNormV30 (ScaleBias, BatchNormalization)   [b:1,h:14,w:14,c:256]    512/2,048                     100,352   StatefulPartitione..5_add_add0   |                                                   ScaleBias_[117]      
------ ---------------------------------------------------------------- ------------------------ ----------------------- ------------- -------------------------------- --- ---------------------- -------------------------- -------------------- 
120    StatefulPartitione..tchNormV30 (Conv2D, Conv)                    [b:1,h:14,w:14,c:256]    590,080/2,360,320         115,605,760   StatefulPartitione..tchNormV30   |                                                   Conv2D_[118]         
------ ---------------------------------------------------------------- ------------------------ ----------------------- ------------- -------------------------------- --- ---------------------- -------------------------- -------------------- 
121    StatefulPartitione..relu_Relu0 (Nonlinearity, Relu)              [b:1,h:14,w:14,c:256]                                   50,176   StatefulPartitione..tchNormV30   |                                                   Nonlinearity_[122]   
------ ---------------------------------------------------------------- ------------------------ ----------------------- ------------- -------------------------------- --- ---------------------- -------------------------- -------------------- 
122    StatefulPartitione..elu_Neg_10 (Nonlinearity, Neg)               [b:1,h:14,w:14,c:256]                                   50,176   StatefulPartitione..tchNormV30   |                                                   Nonlinearity_[119]   
------ ---------------------------------------------------------------- ------------------------ ----------------------- ------------- -------------------------------- --- ---------------------- -------------------------- -------------------- 
123    StatefulPartitione..lu_Relu_10 (Nonlinearity, Relu)              [b:1,h:14,w:14,c:256]                                   50,176   StatefulPartitione..elu_Neg_10   |                                                   Nonlinearity_[120]   
------ ---------------------------------------------------------------- ------------------------ ----------------------- ------------- -------------------------------- --- ---------------------- -------------------------- -------------------- 
124    StatefulPartitione..prelu_mul0 (Eltwise, Mul)                    [b:1,h:14,w:14,c:256]                                   50,176   StatefulPartitione..lu_Relu_10   |                        -50,176(-100.0%)           
                                                                                                                                         StatefulPartitione..prelu_Neg0   | 
------ ---------------------------------------------------------------- ------------------------ ----------------------- ------------- -------------------------------- --- ---------------------- -------------------------- -------------------- 
125    StatefulPartitione..prelu_add0 (Eltwise, Add)                    [b:1,h:14,w:14,c:256]                                   50,176   StatefulPartitione..relu_Relu0   |                                                   Eltwise/add_[123]    
                                                                                                                                         StatefulPartitione..prelu_mul0   | 
------ ---------------------------------------------------------------- ------------------------ ----------------------- ------------- -------------------------------- --- ---------------------- -------------------------- -------------------- 
126    StatefulPartitione..tchNormV30 (Conv2D, Conv)                    [b:1,h:14,w:14,c:256]    590,080/2,360,320         115,605,760   StatefulPartitione..prelu_add0   |                                                   Conv2D_[124]         
------ ---------------------------------------------------------------- ------------------------ ----------------------- ------------- -------------------------------- --- ---------------------- -------------------------- -------------------- 
127    StatefulPartitione..6_add_add0 (Eltwise, Add)                    [b:1,h:14,w:14,c:256]                                   50,176   StatefulPartitione..5_add_add0   |                                                   Eltwise/add_[125]    
                                                                                                                                         StatefulPartitione..tchNormV30   | 
------ ---------------------------------------------------------------- ------------------------ ----------------------- ------------- -------------------------------- --- ---------------------- -------------------------- -------------------- 
128    StatefulPartitione..tchNormV30 (ScaleBias, BatchNormalization)   [b:1,h:14,w:14,c:256]    512/2,048                     100,352   StatefulPartitione..6_add_add0   |                                                   ScaleBias_[127]      
------ ---------------------------------------------------------------- ------------------------ ----------------------- ------------- -------------------------------- --- ---------------------- -------------------------- -------------------- 
129    StatefulPartitione..tchNormV30 (Conv2D, Conv)                    [b:1,h:14,w:14,c:512]    1,180,160/4,720,640       231,211,520   StatefulPartitione..tchNormV30   |                                                   Conv2D_[128]         
------ ---------------------------------------------------------------- ------------------------ ----------------------- ------------- -------------------------------- --- ---------------------- -------------------------- -------------------- 
130    StatefulPartitione..relu_Relu0 (Nonlinearity, Relu)              [b:1,h:14,w:14,c:512]                                  100,352   StatefulPartitione..tchNormV30   |                                                   Nonlinearity_[132]   
------ ---------------------------------------------------------------- ------------------------ ----------------------- ------------- -------------------------------- --- ---------------------- -------------------------- -------------------- 
131    StatefulPartitione..elu_Neg_10 (Nonlinearity, Neg)               [b:1,h:14,w:14,c:512]                                  100,352   StatefulPartitione..tchNormV30   |                                                   Nonlinearity_[129]   
------ ---------------------------------------------------------------- ------------------------ ----------------------- ------------- -------------------------------- --- ---------------------- -------------------------- -------------------- 
132    StatefulPartitione..lu_Relu_10 (Nonlinearity, Relu)              [b:1,h:14,w:14,c:512]                                  100,352   StatefulPartitione..elu_Neg_10   |                                                   Nonlinearity_[130]   
------ ---------------------------------------------------------------- ------------------------ ----------------------- ------------- -------------------------------- --- ---------------------- -------------------------- -------------------- 
133    StatefulPartitione..prelu_mul0 (Eltwise, Mul)                    [b:1,h:14,w:14,c:512]                                  100,352   StatefulPartitione..lu_Relu_10   |                        -100,352(-100.0%)          
                                                                                                                                         StatefulPartitione..prelu_Neg0   | 
------ ---------------------------------------------------------------- ------------------------ ----------------------- ------------- -------------------------------- --- ---------------------- -------------------------- -------------------- 
134    StatefulPartitione..prelu_add0 (Eltwise, Add)                    [b:1,h:14,w:14,c:512]                                  100,352   StatefulPartitione..relu_Relu0   |                                                   Eltwise/add_[133]    
                                                                                                                                         StatefulPartitione..prelu_mul0   | 
------ ---------------------------------------------------------------- ------------------------ ----------------------- ------------- -------------------------------- --- ---------------------- -------------------------- -------------------- 
135    StatefulPartitione..tchNormV30 (Conv2D, Conv)                    [b:1,h:7,w:7,c:512]      2,359,808/9,439,232       115,606,016   StatefulPartitione..prelu_add0   |                                                   Conv2D_[134]         
------ ---------------------------------------------------------------- ------------------------ ----------------------- ------------- -------------------------------- --- ---------------------- -------------------------- -------------------- 
136    StatefulPartitione..tchNormV30 (Conv2D, Conv)                    [b:1,h:7,w:7,c:512]      131,584/526,336             6,423,040   StatefulPartitione..6_add_add0   |                                                   Conv2D_[126]         
------ ---------------------------------------------------------------- ------------------------ ----------------------- ------------- -------------------------------- --- ---------------------- -------------------------- -------------------- 
137    StatefulPartitione..1_add_add0 (Eltwise, Add)                    [b:1,h:7,w:7,c:512]                                     25,088   StatefulPartitione..tchNormV30   |                                                   Eltwise/add_[135]    
                                                                                                                                         StatefulPartitione..tchNormV30   | 
------ ---------------------------------------------------------------- ------------------------ ----------------------- ------------- -------------------------------- --- ---------------------- -------------------------- -------------------- 
138    StatefulPartitione..tchNormV30 (ScaleBias, BatchNormalization)   [b:1,h:7,w:7,c:512]      1,024/4,096                    50,176   StatefulPartitione..1_add_add0   |                                                   ScaleBias_[136]      
------ ---------------------------------------------------------------- ------------------------ ----------------------- ------------- -------------------------------- --- ---------------------- -------------------------- -------------------- 
139    StatefulPartitione..tchNormV30 (Conv2D, Conv)                    [b:1,h:7,w:7,c:512]      2,359,808/9,439,232       115,606,016   StatefulPartitione..tchNormV30   |                                                   Conv2D_[137]         
------ ---------------------------------------------------------------- ------------------------ ----------------------- ------------- -------------------------------- --- ---------------------- -------------------------- -------------------- 
140    StatefulPartitione..relu_Relu0 (Nonlinearity, Relu)              [b:1,h:7,w:7,c:512]                                     25,088   StatefulPartitione..tchNormV30   |                                                   Nonlinearity_[141]   
------ ---------------------------------------------------------------- ------------------------ ----------------------- ------------- -------------------------------- --- ---------------------- -------------------------- -------------------- 
141    StatefulPartitione..elu_Neg_10 (Nonlinearity, Neg)               [b:1,h:7,w:7,c:512]                                     25,088   StatefulPartitione..tchNormV30   |                                                   Nonlinearity_[138]   
------ ---------------------------------------------------------------- ------------------------ ----------------------- ------------- -------------------------------- --- ---------------------- -------------------------- -------------------- 
142    StatefulPartitione..lu_Relu_10 (Nonlinearity, Relu)              [b:1,h:7,w:7,c:512]                                     25,088   StatefulPartitione..elu_Neg_10   |                                                   Nonlinearity_[139]   
------ ---------------------------------------------------------------- ------------------------ ----------------------- ------------- -------------------------------- --- ---------------------- -------------------------- -------------------- 
143    StatefulPartitione..prelu_mul0 (Eltwise, Mul)                    [b:1,h:7,w:7,c:512]                                     25,088   StatefulPartitione..lu_Relu_10   |                        -25,088(-100.0%)           
                                                                                                                                         StatefulPartitione..prelu_Neg0   | 
------ ---------------------------------------------------------------- ------------------------ ----------------------- ------------- -------------------------------- --- ---------------------- -------------------------- -------------------- 
144    StatefulPartitione..prelu_add0 (Eltwise, Add)                    [b:1,h:7,w:7,c:512]                                     25,088   StatefulPartitione..relu_Relu0   |                                                   Eltwise/add_[142]    
                                                                                                                                         StatefulPartitione..prelu_mul0   | 
------ ---------------------------------------------------------------- ------------------------ ----------------------- ------------- -------------------------------- --- ---------------------- -------------------------- -------------------- 
145    StatefulPartitione..tchNormV30 (Conv2D, Conv)                    [b:1,h:7,w:7,c:512]      2,359,808/9,439,232       115,606,016   StatefulPartitione..prelu_add0   |                                                   Conv2D_[143]         
------ ---------------------------------------------------------------- ------------------------ ----------------------- ------------- -------------------------------- --- ---------------------- -------------------------- -------------------- 
146    StatefulPartitione..2_add_add0 (Eltwise, Add)                    [b:1,h:7,w:7,c:512]                                     25,088   StatefulPartitione..1_add_add0   |                                                   Eltwise/add_[144]    
                                                                                                                                         StatefulPartitione..tchNormV30   | 
------ ---------------------------------------------------------------- ------------------------ ----------------------- ------------- -------------------------------- --- ---------------------- -------------------------- -------------------- 
147    StatefulPartitione..tchNormV30 (ScaleBias, BatchNormalization)   [b:1,h:7,w:7,c:512]      1,024/4,096                    50,176   StatefulPartitione..2_add_add0   |                                                   ScaleBias_[145]      
------ ---------------------------------------------------------------- ------------------------ ----------------------- ------------- -------------------------------- --- ---------------------- -------------------------- -------------------- 
148    StatefulPartitione..tchNormV30 (Conv2D, Conv)                    [b:1,h:7,w:7,c:512]      2,359,808/9,439,232       115,606,016   StatefulPartitione..tchNormV30   |                                                   Conv2D_[146]         
------ ---------------------------------------------------------------- ------------------------ ----------------------- ------------- -------------------------------- --- ---------------------- -------------------------- -------------------- 
149    StatefulPartitione..relu_Relu0 (Nonlinearity, Relu)              [b:1,h:7,w:7,c:512]                                     25,088   StatefulPartitione..tchNormV30   |                                                   Nonlinearity_[150]   
------ ---------------------------------------------------------------- ------------------------ ----------------------- ------------- -------------------------------- --- ---------------------- -------------------------- -------------------- 
150    StatefulPartitione..elu_Neg_10 (Nonlinearity, Neg)               [b:1,h:7,w:7,c:512]                                     25,088   StatefulPartitione..tchNormV30   |                                                   Nonlinearity_[147]   
------ ---------------------------------------------------------------- ------------------------ ----------------------- ------------- -------------------------------- --- ---------------------- -------------------------- -------------------- 
151    StatefulPartitione..lu_Relu_10 (Nonlinearity, Relu)              [b:1,h:7,w:7,c:512]                                     25,088   StatefulPartitione..elu_Neg_10   |                                                   Nonlinearity_[148]   
------ ---------------------------------------------------------------- ------------------------ ----------------------- ------------- -------------------------------- --- ---------------------- -------------------------- -------------------- 
152    StatefulPartitione..prelu_mul0 (Eltwise, Mul)                    [b:1,h:7,w:7,c:512]                                     25,088   StatefulPartitione..lu_Relu_10   |                        -25,088(-100.0%)           
                                                                                                                                         StatefulPartitione..prelu_Neg0   | 
------ ---------------------------------------------------------------- ------------------------ ----------------------- ------------- -------------------------------- --- ---------------------- -------------------------- -------------------- 
153    StatefulPartitione..prelu_add0 (Eltwise, Add)                    [b:1,h:7,w:7,c:512]                                     25,088   StatefulPartitione..relu_Relu0   |                                                   Eltwise/add_[151]    
                                                                                                                                         StatefulPartitione..prelu_mul0   | 
------ ---------------------------------------------------------------- ------------------------ ----------------------- ------------- -------------------------------- --- ---------------------- -------------------------- -------------------- 
154    StatefulPartitione..tchNormV30 (Conv2D, Conv)                    [b:1,h:7,w:7,c:512]      2,359,808/9,439,232       115,606,016   StatefulPartitione..prelu_add0   |                                                   Conv2D_[152]         
------ ---------------------------------------------------------------- ------------------------ ----------------------- ------------- -------------------------------- --- ---------------------- -------------------------- -------------------- 
155    StatefulPartitione..3_add_add0 (Eltwise, Add)                    [b:1,h:7,w:7,c:512]                                     25,088   StatefulPartitione..2_add_add0   |                                                   Eltwise/add_[153]    
                                                                                                                                         StatefulPartitione..tchNormV30   | 
------ ---------------------------------------------------------------- ------------------------ ----------------------- ------------- -------------------------------- --- ---------------------- -------------------------- -------------------- 
156    StatefulPartitione..tchNormV30 (ScaleBias, BatchNormalization)   [b:1,h:7,w:7,c:512]      1,024/4,096                    50,176   StatefulPartitione..3_add_add0   |                                                   ScaleBias_[154]      
------ ---------------------------------------------------------------- ------------------------ ----------------------- ------------- -------------------------------- --- ---------------------- -------------------------- -------------------- 
157    StatefulPartitione..rmV3__3680 (Transpose, Transpose)            [b:1,h:7,w:512,c:7]                                     12,544   StatefulPartitione..tchNormV30   |                        -12,544(-100.0%)           
------ ---------------------------------------------------------------- ------------------------ ----------------------- ------------- -------------------------------- --- ---------------------- -------------------------- -------------------- 
158    StatefulPartitione..n_Reshape0 (Reshape, Reshape)                [b:1,c:25088]                                                    StatefulPartitione..rmV3__3680   |                                                   
------ ---------------------------------------------------------------- ------------------------ ----------------------- ------------- -------------------------------- --- ---------------------- -------------------------- -------------------- 
159    StatefulPartitione..se_MatMul0 (Gemm, MatMul)                    [b:1,c:512]                                         12,845,568   StatefulPartitione..n_Reshape0   |                        -12,845,568(-100.0%)       
                                                                                                                                         StatefulPartitione..ariableOp0   | 
------ ---------------------------------------------------------------- ------------------------ ----------------------- ------------- -------------------------------- --- ---------------------- -------------------------- -------------------- 
160    StatefulPartitione..e_BiasAdd0 (Eltwise, Add)                    [b:1,c:512]                                                512   StatefulPartitione..se_MatMul0   |                        -512(-100.0%)              
                                                                                                                                         StatefulPartitione..ariableOp0   | 
------ ---------------------------------------------------------------- ------------------------ ----------------------- ------------- -------------------------------- --- ---------------------- -------------------------- -------------------- 
161    StatefulPartitione..orm_mul_10 (Eltwise, Mul)                    [b:1,c:512]                                                512   StatefulPartitione..e_BiasAdd0   |                        -512(-100.0%)              
                                                                                                                                         StatefulPartitione..hnorm_mul0   | 
------ ---------------------------------------------------------------- ------------------------ ----------------------- ------------- -------------------------------- --- ---------------------- -------------------------- -------------------- 
162    embedding (Eltwise, Add)                                         [b:1,c:512]                                                512   StatefulPartitione..orm_mul_10   | +51,382,272(+100.0%)   +12,845,056(+2508800.0%)   Dense_[o][155]       
                                                                                                                                         StatefulPartitione..hnorm_sub0   | 
------ ---------------------------------------------------------------- ------------------------ ----------------------- ------------- -------------------------------- --- ---------------------- -------------------------- -------------------- 
model/c-model: macc=4,481,988,096/4,485,266,816 +3,278,720(+0.1%) weights=136,523,008/136,522,752 -256(-0.0%) activations=--/7,227,648 io=--/0



Generated C-graph summary
------------------------------------------------------------------------------------------------------------------------
model name            : mobilefacenet_arcface_112x112
c-name                : network_facerec
c-node #              : 156
c-array #             : 325
activations size      : 7227648 (1 segment)
weights size          : 136522752 (1 segment)
macc                  : 4485266816
inputs                : ['input_1_output']
outputs               : ['StatefulPartitionedCall_ResNet34_dense_MatMul0_output']

C-Arrays (325)
------ ------------------------------------------------------------------------------- ------------------- ------------------------- ------------- --------- 
c_id   name (*_array)                                                                  item/size           domain/mem-pool           c-type        comment   
------ ------------------------------------------------------------------------------- ------------------- ------------------------- ------------- --------- 
0      StatefulPartitionedCall_ResNet34_batch_normalization_FusedBatchNormV30_bias     512/2048            weights/weights           const float             
1      StatefulPartitionedCall_ResNet34_batch_normalization_FusedBatchNormV30_output   25088/100352        activations/**default**   float                   
2      StatefulPartitionedCall_ResNet34_batch_normalization_FusedBatchNormV30_scale    512/2048            weights/weights           const float             
3      StatefulPartitionedCall_ResNet34_conv1_bn_FusedBatchNormV30_bias                64/256              weights/weights           const float             
4      StatefulPartitionedCall_ResNet34_conv1_bn_FusedBatchNormV30_output              802816/3211264      activations/**default**   float                   
5      StatefulPartitionedCall_ResNet34_conv1_bn_FusedBatchNormV30_scratch0            27/108              activations/**default**   float                   
6      StatefulPartitionedCall_ResNet34_conv1_bn_FusedBatchNormV30_weights             1728/6912           weights/weights           const float             
7      StatefulPartitionedCall_ResNet34_conv1_prelu_Neg_10_output                      802816/3211264      activations/**default**   float                   
8      StatefulPartitionedCall_ResNet34_conv1_prelu_Relu0_output                       802816/3211264      activations/**default**   float                   
9      StatefulPartitionedCall_ResNet34_conv1_prelu_Relu_10_output                     802816/3211264      activations/**default**   float                   
10     StatefulPartitionedCall_ResNet34_conv1_prelu_add0_output                        802816/3211264      activations/**default**   float                   
11     StatefulPartitionedCall_ResNet34_conv1_prelu_mul0_bias                          64/256              weights/weights           const float             
12     StatefulPartitionedCall_ResNet34_conv1_prelu_mul0_output                        802816/3211264      activations/**default**   float                   
13     StatefulPartitionedCall_ResNet34_conv1_prelu_mul0_scale                         64/256              weights/weights           const float             
14     StatefulPartitionedCall_ResNet34_conv2_block1_0_bn_FusedBatchNormV30_bias       64/256              weights/weights           const float             
15     StatefulPartitionedCall_ResNet34_conv2_block1_0_bn_FusedBatchNormV30_output     200704/802816       activations/**default**   float                   
16     StatefulPartitionedCall_ResNet34_conv2_block1_0_bn_FusedBatchNormV30_scratch0   64/256              activations/**default**   float                   
17     StatefulPartitionedCall_ResNet34_conv2_block1_0_bn_FusedBatchNormV30_weights    4096/16384          weights/weights           const float             
18     StatefulPartitionedCall_ResNet34_conv2_block1_1_bn_FusedBatchNormV30_bias       64/256              weights/weights           const float             
19     StatefulPartitionedCall_ResNet34_conv2_block1_1_bn_FusedBatchNormV30_output     802816/3211264      activations/**default**   float                   
20     StatefulPartitionedCall_ResNet34_conv2_block1_1_bn_FusedBatchNormV30_scale      64/256              weights/weights           const float             
21     StatefulPartitionedCall_ResNet34_conv2_block1_1_prelu_Neg_10_output             802816/3211264      activations/**default**   float                   
22     StatefulPartitionedCall_ResNet34_conv2_block1_1_prelu_Relu0_output              802816/3211264      activations/**default**   float                   
23     StatefulPartitionedCall_ResNet34_conv2_block1_1_prelu_Relu_10_output            802816/3211264      activations/**default**   float                   
24     StatefulPartitionedCall_ResNet34_conv2_block1_1_prelu_add0_output               802816/3211264      activations/**default**   float                   
25     StatefulPartitionedCall_ResNet34_conv2_block1_1_prelu_mul0_output               802816/3211264      activations/**default**   float                   
26     StatefulPartitionedCall_ResNet34_conv2_block1_1_prelu_mul0_scale                64/256              weights/weights           const float             
27     StatefulPartitionedCall_ResNet34_conv2_block1_2_bn_FusedBatchNormV30_bias       64/256              weights/weights           const float             
28     StatefulPartitionedCall_ResNet34_conv2_block1_2_bn_FusedBatchNormV30_output     802816/3211264      activations/**default**   float                   
29     StatefulPartitionedCall_ResNet34_conv2_block1_2_bn_FusedBatchNormV30_scratch0   576/2304            activations/**default**   float                   
30     StatefulPartitionedCall_ResNet34_conv2_block1_2_bn_FusedBatchNormV30_weights    36864/147456        weights/weights           const float             
31     StatefulPartitionedCall_ResNet34_conv2_block1_3_bn_FusedBatchNormV30_bias       64/256              weights/weights           const float             
32     StatefulPartitionedCall_ResNet34_conv2_block1_3_bn_FusedBatchNormV30_output     200704/802816       activations/**default**   float                   
33     StatefulPartitionedCall_ResNet34_conv2_block1_3_bn_FusedBatchNormV30_scratch0   576/2304            activations/**default**   float                   
34     StatefulPartitionedCall_ResNet34_conv2_block1_3_bn_FusedBatchNormV30_weights    36864/147456        weights/weights           const float             
35     StatefulPartitionedCall_ResNet34_conv2_block1_add_add0_output                   200704/802816       activations/**default**   float                   
36     StatefulPartitionedCall_ResNet34_conv2_block2_1_bn_FusedBatchNormV30_bias       64/256              weights/weights           const float             
37     StatefulPartitionedCall_ResNet34_conv2_block2_1_bn_FusedBatchNormV30_output     200704/802816       activations/**default**   float                   
38     StatefulPartitionedCall_ResNet34_conv2_block2_1_bn_FusedBatchNormV30_scale      64/256              weights/weights           const float             
39     StatefulPartitionedCall_ResNet34_conv2_block2_1_prelu_Neg_10_output             200704/802816       activations/**default**   float                   
40     StatefulPartitionedCall_ResNet34_conv2_block2_1_prelu_Relu0_output              200704/802816       activations/**default**   float                   
41     StatefulPartitionedCall_ResNet34_conv2_block2_1_prelu_Relu_10_output            200704/802816       activations/**default**   float                   
42     StatefulPartitionedCall_ResNet34_conv2_block2_1_prelu_add0_output               200704/802816       activations/**default**   float                   
43     StatefulPartitionedCall_ResNet34_conv2_block2_1_prelu_mul0_output               200704/802816       activations/**default**   float                   
44     StatefulPartitionedCall_ResNet34_conv2_block2_1_prelu_mul0_scale                64/256              weights/weights           const float             
45     StatefulPartitionedCall_ResNet34_conv2_block2_2_bn_FusedBatchNormV30_bias       64/256              weights/weights           const float             
46     StatefulPartitionedCall_ResNet34_conv2_block2_2_bn_FusedBatchNormV30_output     200704/802816       activations/**default**   float                   
47     StatefulPartitionedCall_ResNet34_conv2_block2_2_bn_FusedBatchNormV30_scratch0   576/2304            activations/**default**   float                   
48     StatefulPartitionedCall_ResNet34_conv2_block2_2_bn_FusedBatchNormV30_weights    36864/147456        weights/weights           const float             
49     StatefulPartitionedCall_ResNet34_conv2_block2_3_bn_FusedBatchNormV30_bias       64/256              weights/weights           const float             
50     StatefulPartitionedCall_ResNet34_conv2_block2_3_bn_FusedBatchNormV30_output     200704/802816       activations/**default**   float                   
51     StatefulPartitionedCall_ResNet34_conv2_block2_3_bn_FusedBatchNormV30_scratch0   576/2304            activations/**default**   float                   
52     StatefulPartitionedCall_ResNet34_conv2_block2_3_bn_FusedBatchNormV30_weights    36864/147456        weights/weights           const float             
53     StatefulPartitionedCall_ResNet34_conv2_block2_add_add0_output                   200704/802816       activations/**default**   float                   
54     StatefulPartitionedCall_ResNet34_conv2_block3_1_bn_FusedBatchNormV30_bias       64/256              weights/weights           const float             
55     StatefulPartitionedCall_ResNet34_conv2_block3_1_bn_FusedBatchNormV30_output     200704/802816       activations/**default**   float                   
56     StatefulPartitionedCall_ResNet34_conv2_block3_1_bn_FusedBatchNormV30_scale      64/256              weights/weights           const float             
57     StatefulPartitionedCall_ResNet34_conv2_block3_1_prelu_Neg_10_output             200704/802816       activations/**default**   float                   
58     StatefulPartitionedCall_ResNet34_conv2_block3_1_prelu_Relu0_output              200704/802816       activations/**default**   float                   
59     StatefulPartitionedCall_ResNet34_conv2_block3_1_prelu_Relu_10_output            200704/802816       activations/**default**   float                   
60     StatefulPartitionedCall_ResNet34_conv2_block3_1_prelu_add0_output               200704/802816       activations/**default**   float                   
61     StatefulPartitionedCall_ResNet34_conv2_block3_1_prelu_mul0_output               200704/802816       activations/**default**   float                   
62     StatefulPartitionedCall_ResNet34_conv2_block3_1_prelu_mul0_scale                64/256              weights/weights           const float             
63     StatefulPartitionedCall_ResNet34_conv2_block3_2_bn_FusedBatchNormV30_bias       64/256              weights/weights           const float             
64     StatefulPartitionedCall_ResNet34_conv2_block3_2_bn_FusedBatchNormV30_output     200704/802816       activations/**default**   float                   
65     StatefulPartitionedCall_ResNet34_conv2_block3_2_bn_FusedBatchNormV30_scratch0   576/2304            activations/**default**   float                   
66     StatefulPartitionedCall_ResNet34_conv2_block3_2_bn_FusedBatchNormV30_weights    36864/147456        weights/weights           const float             
67     StatefulPartitionedCall_ResNet34_conv2_block3_3_bn_FusedBatchNormV30_bias       64/256              weights/weights           const float             
68     StatefulPartitionedCall_ResNet34_conv2_block3_3_bn_FusedBatchNormV30_output     200704/802816       activations/**default**   float                   
69     StatefulPartitionedCall_ResNet34_conv2_block3_3_bn_FusedBatchNormV30_scratch0   576/2304            activations/**default**   float                   
70     StatefulPartitionedCall_ResNet34_conv2_block3_3_bn_FusedBatchNormV30_weights    36864/147456        weights/weights           const float             
71     StatefulPartitionedCall_ResNet34_conv2_block3_add_add0_output                   200704/802816       activations/**default**   float                   
72     StatefulPartitionedCall_ResNet34_conv3_block1_0_bn_FusedBatchNormV30_bias       128/512             weights/weights           const float             
73     StatefulPartitionedCall_ResNet34_conv3_block1_0_bn_FusedBatchNormV30_output     100352/401408       activations/**default**   float                   
74     StatefulPartitionedCall_ResNet34_conv3_block1_0_bn_FusedBatchNormV30_scratch0   64/256              activations/**default**   float                   
75     StatefulPartitionedCall_ResNet34_conv3_block1_0_bn_FusedBatchNormV30_weights    8192/32768          weights/weights           const float             
76     StatefulPartitionedCall_ResNet34_conv3_block1_1_bn_FusedBatchNormV30_bias       64/256              weights/weights           const float             
77     StatefulPartitionedCall_ResNet34_conv3_block1_1_bn_FusedBatchNormV30_output     200704/802816       activations/**default**   float                   
78     StatefulPartitionedCall_ResNet34_conv3_block1_1_bn_FusedBatchNormV30_scale      64/256              weights/weights           const float             
79     StatefulPartitionedCall_ResNet34_conv3_block1_1_prelu_Neg_10_output             401408/1605632      activations/**default**   float                   
80     StatefulPartitionedCall_ResNet34_conv3_block1_1_prelu_Relu0_output              401408/1605632      activations/**default**   float                   
81     StatefulPartitionedCall_ResNet34_conv3_block1_1_prelu_Relu_10_output            401408/1605632      activations/**default**   float                   
82     StatefulPartitionedCall_ResNet34_conv3_block1_1_prelu_add0_output               401408/1605632      activations/**default**   float                   
83     StatefulPartitionedCall_ResNet34_conv3_block1_1_prelu_mul0_bias                 128/512             weights/weights           const float             
84     StatefulPartitionedCall_ResNet34_conv3_block1_1_prelu_mul0_output               401408/1605632      activations/**default**   float                   
85     StatefulPartitionedCall_ResNet34_conv3_block1_1_prelu_mul0_scale                128/512             weights/weights           const float             
86     StatefulPartitionedCall_ResNet34_conv3_block1_2_bn_FusedBatchNormV30_bias       128/512             weights/weights           const float             
87     StatefulPartitionedCall_ResNet34_conv3_block1_2_bn_FusedBatchNormV30_output     401408/1605632      activations/**default**   float                   
88     StatefulPartitionedCall_ResNet34_conv3_block1_2_bn_FusedBatchNormV30_scratch0   576/2304            activations/**default**   float                   
89     StatefulPartitionedCall_ResNet34_conv3_block1_2_bn_FusedBatchNormV30_weights    73728/294912        weights/weights           const float             
90     StatefulPartitionedCall_ResNet34_conv3_block1_3_bn_FusedBatchNormV30_bias       128/512             weights/weights           const float             
91     StatefulPartitionedCall_ResNet34_conv3_block1_3_bn_FusedBatchNormV30_output     100352/401408       activations/**default**   float                   
92     StatefulPartitionedCall_ResNet34_conv3_block1_3_bn_FusedBatchNormV30_scratch0   1152/4608           activations/**default**   float                   
93     StatefulPartitionedCall_ResNet34_conv3_block1_3_bn_FusedBatchNormV30_weights    147456/589824       weights/weights           const float             
94     StatefulPartitionedCall_ResNet34_conv3_block1_add_add0_output                   100352/401408       activations/**default**   float                   
95     StatefulPartitionedCall_ResNet34_conv3_block2_1_bn_FusedBatchNormV30_bias       128/512             weights/weights           const float             
96     StatefulPartitionedCall_ResNet34_conv3_block2_1_bn_FusedBatchNormV30_output     100352/401408       activations/**default**   float                   
97     StatefulPartitionedCall_ResNet34_conv3_block2_1_bn_FusedBatchNormV30_scale      128/512             weights/weights           const float             
98     StatefulPartitionedCall_ResNet34_conv3_block2_1_prelu_Neg_10_output             100352/401408       activations/**default**   float                   
99     StatefulPartitionedCall_ResNet34_conv3_block2_1_prelu_Relu0_output              100352/401408       activations/**default**   float                   
100    StatefulPartitionedCall_ResNet34_conv3_block2_1_prelu_Relu_10_output            100352/401408       activations/**default**   float                   
101    StatefulPartitionedCall_ResNet34_conv3_block2_1_prelu_add0_output               100352/401408       activations/**default**   float                   
102    StatefulPartitionedCall_ResNet34_conv3_block2_1_prelu_mul0_output               100352/401408       activations/**default**   float                   
103    StatefulPartitionedCall_ResNet34_conv3_block2_1_prelu_mul0_scale                128/512             weights/weights           const float             
104    StatefulPartitionedCall_ResNet34_conv3_block2_2_bn_FusedBatchNormV30_bias       128/512             weights/weights           const float             
105    StatefulPartitionedCall_ResNet34_conv3_block2_2_bn_FusedBatchNormV30_output     100352/401408       activations/**default**   float                   
106    StatefulPartitionedCall_ResNet34_conv3_block2_2_bn_FusedBatchNormV30_scratch0   1152/4608           activations/**default**   float                   
107    StatefulPartitionedCall_ResNet34_conv3_block2_2_bn_FusedBatchNormV30_weights    147456/589824       weights/weights           const float             
108    StatefulPartitionedCall_ResNet34_conv3_block2_3_bn_FusedBatchNormV30_bias       128/512             weights/weights           const float             
109    StatefulPartitionedCall_ResNet34_conv3_block2_3_bn_FusedBatchNormV30_output     100352/401408       activations/**default**   float                   
110    StatefulPartitionedCall_ResNet34_conv3_block2_3_bn_FusedBatchNormV30_scratch0   1152/4608           activations/**default**   float                   
111    StatefulPartitionedCall_ResNet34_conv3_block2_3_bn_FusedBatchNormV30_weights    147456/589824       weights/weights           const float             
112    StatefulPartitionedCall_ResNet34_conv3_block2_add_add0_output                   100352/401408       activations/**default**   float                   
113    StatefulPartitionedCall_ResNet34_conv3_block3_1_bn_FusedBatchNormV30_bias       128/512             weights/weights           const float             
114    StatefulPartitionedCall_ResNet34_conv3_block3_1_bn_FusedBatchNormV30_output     100352/401408       activations/**default**   float                   
115    StatefulPartitionedCall_ResNet34_conv3_block3_1_bn_FusedBatchNormV30_scale      128/512             weights/weights           const float             
116    StatefulPartitionedCall_ResNet34_conv3_block3_1_prelu_Neg_10_output             100352/401408       activations/**default**   float                   
117    StatefulPartitionedCall_ResNet34_conv3_block3_1_prelu_Relu0_output              100352/401408       activations/**default**   float                   
118    StatefulPartitionedCall_ResNet34_conv3_block3_1_prelu_Relu_10_output            100352/401408       activations/**default**   float                   
119    StatefulPartitionedCall_ResNet34_conv3_block3_1_prelu_add0_output               100352/401408       activations/**default**   float                   
120    StatefulPartitionedCall_ResNet34_conv3_block3_1_prelu_mul0_output               100352/401408       activations/**default**   float                   
121    StatefulPartitionedCall_ResNet34_conv3_block3_1_prelu_mul0_scale                128/512             weights/weights           const float             
122    StatefulPartitionedCall_ResNet34_conv3_block3_2_bn_FusedBatchNormV30_bias       128/512             weights/weights           const float             
123    StatefulPartitionedCall_ResNet34_conv3_block3_2_bn_FusedBatchNormV30_output     100352/401408       activations/**default**   float                   
124    StatefulPartitionedCall_ResNet34_conv3_block3_2_bn_FusedBatchNormV30_scratch0   1152/4608           activations/**default**   float                   
125    StatefulPartitionedCall_ResNet34_conv3_block3_2_bn_FusedBatchNormV30_weights    147456/589824       weights/weights           const float             
126    StatefulPartitionedCall_ResNet34_conv3_block3_3_bn_FusedBatchNormV30_bias       128/512             weights/weights           const float             
127    StatefulPartitionedCall_ResNet34_conv3_block3_3_bn_FusedBatchNormV30_output     100352/401408       activations/**default**   float                   
128    StatefulPartitionedCall_ResNet34_conv3_block3_3_bn_FusedBatchNormV30_scratch0   1152/4608           activations/**default**   float                   
129    StatefulPartitionedCall_ResNet34_conv3_block3_3_bn_FusedBatchNormV30_weights    147456/589824       weights/weights           const float             
130    StatefulPartitionedCall_ResNet34_conv3_block3_add_add0_output                   100352/401408       activations/**default**   float                   
131    StatefulPartitionedCall_ResNet34_conv3_block4_1_bn_FusedBatchNormV30_bias       128/512             weights/weights           const float             
132    StatefulPartitionedCall_ResNet34_conv3_block4_1_bn_FusedBatchNormV30_output     100352/401408       activations/**default**   float                   
133    StatefulPartitionedCall_ResNet34_conv3_block4_1_bn_FusedBatchNormV30_scale      128/512             weights/weights           const float             
134    StatefulPartitionedCall_ResNet34_conv3_block4_1_prelu_Neg_10_output             100352/401408       activations/**default**   float                   
135    StatefulPartitionedCall_ResNet34_conv3_block4_1_prelu_Relu0_output              100352/401408       activations/**default**   float                   
136    StatefulPartitionedCall_ResNet34_conv3_block4_1_prelu_Relu_10_output            100352/401408       activations/**default**   float                   
137    StatefulPartitionedCall_ResNet34_conv3_block4_1_prelu_add0_output               100352/401408       activations/**default**   float                   
138    StatefulPartitionedCall_ResNet34_conv3_block4_1_prelu_mul0_output               100352/401408       activations/**default**   float                   
139    StatefulPartitionedCall_ResNet34_conv3_block4_1_prelu_mul0_scale                128/512             weights/weights           const float             
140    StatefulPartitionedCall_ResNet34_conv3_block4_2_bn_FusedBatchNormV30_bias       128/512             weights/weights           const float             
141    StatefulPartitionedCall_ResNet34_conv3_block4_2_bn_FusedBatchNormV30_output     100352/401408       activations/**default**   float                   
142    StatefulPartitionedCall_ResNet34_conv3_block4_2_bn_FusedBatchNormV30_scratch0   1152/4608           activations/**default**   float                   
143    StatefulPartitionedCall_ResNet34_conv3_block4_2_bn_FusedBatchNormV30_weights    147456/589824       weights/weights           const float             
144    StatefulPartitionedCall_ResNet34_conv3_block4_3_bn_FusedBatchNormV30_bias       128/512             weights/weights           const float             
145    StatefulPartitionedCall_ResNet34_conv3_block4_3_bn_FusedBatchNormV30_output     100352/401408       activations/**default**   float                   
146    StatefulPartitionedCall_ResNet34_conv3_block4_3_bn_FusedBatchNormV30_scratch0   1152/4608           activations/**default**   float                   
147    StatefulPartitionedCall_ResNet34_conv3_block4_3_bn_FusedBatchNormV30_weights    147456/589824       weights/weights           const float             
148    StatefulPartitionedCall_ResNet34_conv3_block4_add_add0_output                   100352/401408       activations/**default**   float                   
149    StatefulPartitionedCall_ResNet34_conv4_block1_0_bn_FusedBatchNormV30_bias       256/1024            weights/weights           const float             
150    StatefulPartitionedCall_ResNet34_conv4_block1_0_bn_FusedBatchNormV30_output     50176/200704        activations/**default**   float                   
151    StatefulPartitionedCall_ResNet34_conv4_block1_0_bn_FusedBatchNormV30_scratch0   128/512             activations/**default**   float                   
152    StatefulPartitionedCall_ResNet34_conv4_block1_0_bn_FusedBatchNormV30_weights    32768/131072        weights/weights           const float             
153    StatefulPartitionedCall_ResNet34_conv4_block1_1_bn_FusedBatchNormV30_bias       128/512             weights/weights           const float             
154    StatefulPartitionedCall_ResNet34_conv4_block1_1_bn_FusedBatchNormV30_output     100352/401408       activations/**default**   float                   
155    StatefulPartitionedCall_ResNet34_conv4_block1_1_bn_FusedBatchNormV30_scale      128/512             weights/weights           const float             
156    StatefulPartitionedCall_ResNet34_conv4_block1_1_prelu_Neg_10_output             200704/802816       activations/**default**   float                   
157    StatefulPartitionedCall_ResNet34_conv4_block1_1_prelu_Relu0_output              200704/802816       activations/**default**   float                   
158    StatefulPartitionedCall_ResNet34_conv4_block1_1_prelu_Relu_10_output            200704/802816       activations/**default**   float                   
159    StatefulPartitionedCall_ResNet34_conv4_block1_1_prelu_add0_output               200704/802816       activations/**default**   float                   
160    StatefulPartitionedCall_ResNet34_conv4_block1_1_prelu_mul0_bias                 256/1024            weights/weights           const float             
161    StatefulPartitionedCall_ResNet34_conv4_block1_1_prelu_mul0_output               200704/802816       activations/**default**   float                   
162    StatefulPartitionedCall_ResNet34_conv4_block1_1_prelu_mul0_scale                256/1024            weights/weights           const float             
163    StatefulPartitionedCall_ResNet34_conv4_block1_2_bn_FusedBatchNormV30_bias       256/1024            weights/weights           const float             
164    StatefulPartitionedCall_ResNet34_conv4_block1_2_bn_FusedBatchNormV30_output     200704/802816       activations/**default**   float                   
165    StatefulPartitionedCall_ResNet34_conv4_block1_2_bn_FusedBatchNormV30_scratch0   1152/4608           activations/**default**   float                   
166    StatefulPartitionedCall_ResNet34_conv4_block1_2_bn_FusedBatchNormV30_weights    294912/1179648      weights/weights           const float             
167    StatefulPartitionedCall_ResNet34_conv4_block1_3_bn_FusedBatchNormV30_bias       256/1024            weights/weights           const float             
168    StatefulPartitionedCall_ResNet34_conv4_block1_3_bn_FusedBatchNormV30_output     50176/200704        activations/**default**   float                   
169    StatefulPartitionedCall_ResNet34_conv4_block1_3_bn_FusedBatchNormV30_scratch0   2304/9216           activations/**default**   float                   
170    StatefulPartitionedCall_ResNet34_conv4_block1_3_bn_FusedBatchNormV30_weights    589824/2359296      weights/weights           const float             
171    StatefulPartitionedCall_ResNet34_conv4_block1_add_add0_output                   50176/200704        activations/**default**   float                   
172    StatefulPartitionedCall_ResNet34_conv4_block2_1_bn_FusedBatchNormV30_bias       256/1024            weights/weights           const float             
173    StatefulPartitionedCall_ResNet34_conv4_block2_1_bn_FusedBatchNormV30_output     50176/200704        activations/**default**   float                   
174    StatefulPartitionedCall_ResNet34_conv4_block2_1_bn_FusedBatchNormV30_scale      256/1024            weights/weights           const float             
175    StatefulPartitionedCall_ResNet34_conv4_block2_1_prelu_Neg_10_output             50176/200704        activations/**default**   float                   
176    StatefulPartitionedCall_ResNet34_conv4_block2_1_prelu_Relu0_output              50176/200704        activations/**default**   float                   
177    StatefulPartitionedCall_ResNet34_conv4_block2_1_prelu_Relu_10_output            50176/200704        activations/**default**   float                   
178    StatefulPartitionedCall_ResNet34_conv4_block2_1_prelu_add0_output               50176/200704        activations/**default**   float                   
179    StatefulPartitionedCall_ResNet34_conv4_block2_1_prelu_mul0_output               50176/200704        activations/**default**   float                   
180    StatefulPartitionedCall_ResNet34_conv4_block2_1_prelu_mul0_scale                256/1024            weights/weights           const float             
181    StatefulPartitionedCall_ResNet34_conv4_block2_2_bn_FusedBatchNormV30_bias       256/1024            weights/weights           const float             
182    StatefulPartitionedCall_ResNet34_conv4_block2_2_bn_FusedBatchNormV30_output     50176/200704        activations/**default**   float                   
183    StatefulPartitionedCall_ResNet34_conv4_block2_2_bn_FusedBatchNormV30_scratch0   2304/9216           activations/**default**   float                   
184    StatefulPartitionedCall_ResNet34_conv4_block2_2_bn_FusedBatchNormV30_weights    589824/2359296      weights/weights           const float             
185    StatefulPartitionedCall_ResNet34_conv4_block2_3_bn_FusedBatchNormV30_bias       256/1024            weights/weights           const float             
186    StatefulPartitionedCall_ResNet34_conv4_block2_3_bn_FusedBatchNormV30_output     50176/200704        activations/**default**   float                   
187    StatefulPartitionedCall_ResNet34_conv4_block2_3_bn_FusedBatchNormV30_scratch0   2304/9216           activations/**default**   float                   
188    StatefulPartitionedCall_ResNet34_conv4_block2_3_bn_FusedBatchNormV30_weights    589824/2359296      weights/weights           const float             
189    StatefulPartitionedCall_ResNet34_conv4_block2_add_add0_output                   50176/200704        activations/**default**   float                   
190    StatefulPartitionedCall_ResNet34_conv4_block3_1_bn_FusedBatchNormV30_bias       256/1024            weights/weights           const float             
191    StatefulPartitionedCall_ResNet34_conv4_block3_1_bn_FusedBatchNormV30_output     50176/200704        activations/**default**   float                   
192    StatefulPartitionedCall_ResNet34_conv4_block3_1_bn_FusedBatchNormV30_scale      256/1024            weights/weights           const float             
193    StatefulPartitionedCall_ResNet34_conv4_block3_1_prelu_Neg_10_output             50176/200704        activations/**default**   float                   
194    StatefulPartitionedCall_ResNet34_conv4_block3_1_prelu_Relu0_output              50176/200704        activations/**default**   float                   
195    StatefulPartitionedCall_ResNet34_conv4_block3_1_prelu_Relu_10_output            50176/200704        activations/**default**   float                   
196    StatefulPartitionedCall_ResNet34_conv4_block3_1_prelu_add0_output               50176/200704        activations/**default**   float                   
197    StatefulPartitionedCall_ResNet34_conv4_block3_1_prelu_mul0_output               50176/200704        activations/**default**   float                   
198    StatefulPartitionedCall_ResNet34_conv4_block3_1_prelu_mul0_scale                256/1024            weights/weights           const float             
199    StatefulPartitionedCall_ResNet34_conv4_block3_2_bn_FusedBatchNormV30_bias       256/1024            weights/weights           const float             
200    StatefulPartitionedCall_ResNet34_conv4_block3_2_bn_FusedBatchNormV30_output     50176/200704        activations/**default**   float                   
201    StatefulPartitionedCall_ResNet34_conv4_block3_2_bn_FusedBatchNormV30_scratch0   2304/9216           activations/**default**   float                   
202    StatefulPartitionedCall_ResNet34_conv4_block3_2_bn_FusedBatchNormV30_weights    589824/2359296      weights/weights           const float             
203    StatefulPartitionedCall_ResNet34_conv4_block3_3_bn_FusedBatchNormV30_bias       256/1024            weights/weights           const float             
204    StatefulPartitionedCall_ResNet34_conv4_block3_3_bn_FusedBatchNormV30_output     50176/200704        activations/**default**   float                   
205    StatefulPartitionedCall_ResNet34_conv4_block3_3_bn_FusedBatchNormV30_scratch0   2304/9216           activations/**default**   float                   
206    StatefulPartitionedCall_ResNet34_conv4_block3_3_bn_FusedBatchNormV30_weights    589824/2359296      weights/weights           const float             
207    StatefulPartitionedCall_ResNet34_conv4_block3_add_add0_output                   50176/200704        activations/**default**   float                   
208    StatefulPartitionedCall_ResNet34_conv4_block4_1_bn_FusedBatchNormV30_bias       256/1024            weights/weights           const float             
209    StatefulPartitionedCall_ResNet34_conv4_block4_1_bn_FusedBatchNormV30_output     50176/200704        activations/**default**   float                   
210    StatefulPartitionedCall_ResNet34_conv4_block4_1_bn_FusedBatchNormV30_scale      256/1024            weights/weights           const float             
211    StatefulPartitionedCall_ResNet34_conv4_block4_1_prelu_Neg_10_output             50176/200704        activations/**default**   float                   
212    StatefulPartitionedCall_ResNet34_conv4_block4_1_prelu_Relu0_output              50176/200704        activations/**default**   float                   
213    StatefulPartitionedCall_ResNet34_conv4_block4_1_prelu_Relu_10_output            50176/200704        activations/**default**   float                   
214    StatefulPartitionedCall_ResNet34_conv4_block4_1_prelu_add0_output               50176/200704        activations/**default**   float                   
215    StatefulPartitionedCall_ResNet34_conv4_block4_1_prelu_mul0_output               50176/200704        activations/**default**   float                   
216    StatefulPartitionedCall_ResNet34_conv4_block4_1_prelu_mul0_scale                256/1024            weights/weights           const float             
217    StatefulPartitionedCall_ResNet34_conv4_block4_2_bn_FusedBatchNormV30_bias       256/1024            weights/weights           const float             
218    StatefulPartitionedCall_ResNet34_conv4_block4_2_bn_FusedBatchNormV30_output     50176/200704        activations/**default**   float                   
219    StatefulPartitionedCall_ResNet34_conv4_block4_2_bn_FusedBatchNormV30_scratch0   2304/9216           activations/**default**   float                   
220    StatefulPartitionedCall_ResNet34_conv4_block4_2_bn_FusedBatchNormV30_weights    589824/2359296      weights/weights           const float             
221    StatefulPartitionedCall_ResNet34_conv4_block4_3_bn_FusedBatchNormV30_bias       256/1024            weights/weights           const float             
222    StatefulPartitionedCall_ResNet34_conv4_block4_3_bn_FusedBatchNormV30_output     50176/200704        activations/**default**   float                   
223    StatefulPartitionedCall_ResNet34_conv4_block4_3_bn_FusedBatchNormV30_scratch0   2304/9216           activations/**default**   float                   
224    StatefulPartitionedCall_ResNet34_conv4_block4_3_bn_FusedBatchNormV30_weights    589824/2359296      weights/weights           const float             
225    StatefulPartitionedCall_ResNet34_conv4_block4_add_add0_output                   50176/200704        activations/**default**   float                   
226    StatefulPartitionedCall_ResNet34_conv4_block5_1_bn_FusedBatchNormV30_bias       256/1024            weights/weights           const float             
227    StatefulPartitionedCall_ResNet34_conv4_block5_1_bn_FusedBatchNormV30_output     50176/200704        activations/**default**   float                   
228    StatefulPartitionedCall_ResNet34_conv4_block5_1_bn_FusedBatchNormV30_scale      256/1024            weights/weights           const float             
229    StatefulPartitionedCall_ResNet34_conv4_block5_1_prelu_Neg_10_output             50176/200704        activations/**default**   float                   
230    StatefulPartitionedCall_ResNet34_conv4_block5_1_prelu_Relu0_output              50176/200704        activations/**default**   float                   
231    StatefulPartitionedCall_ResNet34_conv4_block5_1_prelu_Relu_10_output            50176/200704        activations/**default**   float                   
232    StatefulPartitionedCall_ResNet34_conv4_block5_1_prelu_add0_output               50176/200704        activations/**default**   float                   
233    StatefulPartitionedCall_ResNet34_conv4_block5_1_prelu_mul0_output               50176/200704        activations/**default**   float                   
234    StatefulPartitionedCall_ResNet34_conv4_block5_1_prelu_mul0_scale                256/1024            weights/weights           const float             
235    StatefulPartitionedCall_ResNet34_conv4_block5_2_bn_FusedBatchNormV30_bias       256/1024            weights/weights           const float             
236    StatefulPartitionedCall_ResNet34_conv4_block5_2_bn_FusedBatchNormV30_output     50176/200704        activations/**default**   float                   
237    StatefulPartitionedCall_ResNet34_conv4_block5_2_bn_FusedBatchNormV30_scratch0   2304/9216           activations/**default**   float                   
238    StatefulPartitionedCall_ResNet34_conv4_block5_2_bn_FusedBatchNormV30_weights    589824/2359296      weights/weights           const float             
239    StatefulPartitionedCall_ResNet34_conv4_block5_3_bn_FusedBatchNormV30_bias       256/1024            weights/weights           const float             
240    StatefulPartitionedCall_ResNet34_conv4_block5_3_bn_FusedBatchNormV30_output     50176/200704        activations/**default**   float                   
241    StatefulPartitionedCall_ResNet34_conv4_block5_3_bn_FusedBatchNormV30_scratch0   2304/9216           activations/**default**   float                   
242    StatefulPartitionedCall_ResNet34_conv4_block5_3_bn_FusedBatchNormV30_weights    589824/2359296      weights/weights           const float             
243    StatefulPartitionedCall_ResNet34_conv4_block5_add_add0_output                   50176/200704        activations/**default**   float                   
244    StatefulPartitionedCall_ResNet34_conv4_block6_1_bn_FusedBatchNormV30_bias       256/1024            weights/weights           const float             
245    StatefulPartitionedCall_ResNet34_conv4_block6_1_bn_FusedBatchNormV30_output     50176/200704        activations/**default**   float                   
246    StatefulPartitionedCall_ResNet34_conv4_block6_1_bn_FusedBatchNormV30_scale      256/1024            weights/weights           const float             
247    StatefulPartitionedCall_ResNet34_conv4_block6_1_prelu_Neg_10_output             50176/200704        activations/**default**   float                   
248    StatefulPartitionedCall_ResNet34_conv4_block6_1_prelu_Relu0_output              50176/200704        activations/**default**   float                   
249    StatefulPartitionedCall_ResNet34_conv4_block6_1_prelu_Relu_10_output            50176/200704        activations/**default**   float                   
250    StatefulPartitionedCall_ResNet34_conv4_block6_1_prelu_add0_output               50176/200704        activations/**default**   float                   
251    StatefulPartitionedCall_ResNet34_conv4_block6_1_prelu_mul0_output               50176/200704        activations/**default**   float                   
252    StatefulPartitionedCall_ResNet34_conv4_block6_1_prelu_mul0_scale                256/1024            weights/weights           const float             
253    StatefulPartitionedCall_ResNet34_conv4_block6_2_bn_FusedBatchNormV30_bias       256/1024            weights/weights           const float             
254    StatefulPartitionedCall_ResNet34_conv4_block6_2_bn_FusedBatchNormV30_output     50176/200704        activations/**default**   float                   
255    StatefulPartitionedCall_ResNet34_conv4_block6_2_bn_FusedBatchNormV30_scratch0   2304/9216           activations/**default**   float                   
256    StatefulPartitionedCall_ResNet34_conv4_block6_2_bn_FusedBatchNormV30_weights    589824/2359296      weights/weights           const float             
257    StatefulPartitionedCall_ResNet34_conv4_block6_3_bn_FusedBatchNormV30_bias       256/1024            weights/weights           const float             
258    StatefulPartitionedCall_ResNet34_conv4_block6_3_bn_FusedBatchNormV30_output     50176/200704        activations/**default**   float                   
259    StatefulPartitionedCall_ResNet34_conv4_block6_3_bn_FusedBatchNormV30_scratch0   2304/9216           activations/**default**   float                   
260    StatefulPartitionedCall_ResNet34_conv4_block6_3_bn_FusedBatchNormV30_weights    589824/2359296      weights/weights           const float             
261    StatefulPartitionedCall_ResNet34_conv4_block6_add_add0_output                   50176/200704        activations/**default**   float                   
262    StatefulPartitionedCall_ResNet34_conv5_block1_0_bn_FusedBatchNormV30_bias       512/2048            weights/weights           const float             
263    StatefulPartitionedCall_ResNet34_conv5_block1_0_bn_FusedBatchNormV30_output     25088/100352        activations/**default**   float                   
264    StatefulPartitionedCall_ResNet34_conv5_block1_0_bn_FusedBatchNormV30_scratch0   256/1024            activations/**default**   float                   
265    StatefulPartitionedCall_ResNet34_conv5_block1_0_bn_FusedBatchNormV30_weights    131072/524288       weights/weights           const float             
266    StatefulPartitionedCall_ResNet34_conv5_block1_1_bn_FusedBatchNormV30_bias       256/1024            weights/weights           const float             
267    StatefulPartitionedCall_ResNet34_conv5_block1_1_bn_FusedBatchNormV30_output     50176/200704        activations/**default**   float                   
268    StatefulPartitionedCall_ResNet34_conv5_block1_1_bn_FusedBatchNormV30_scale      256/1024            weights/weights           const float             
269    StatefulPartitionedCall_ResNet34_conv5_block1_1_prelu_Neg_10_output             100352/401408       activations/**default**   float                   
270    StatefulPartitionedCall_ResNet34_conv5_block1_1_prelu_Relu0_output              100352/401408       activations/**default**   float                   
271    StatefulPartitionedCall_ResNet34_conv5_block1_1_prelu_Relu_10_output            100352/401408       activations/**default**   float                   
272    StatefulPartitionedCall_ResNet34_conv5_block1_1_prelu_add0_output               100352/401408       activations/**default**   float                   
273    StatefulPartitionedCall_ResNet34_conv5_block1_1_prelu_mul0_bias                 512/2048            weights/weights           const float             
274    StatefulPartitionedCall_ResNet34_conv5_block1_1_prelu_mul0_output               100352/401408       activations/**default**   float                   
275    StatefulPartitionedCall_ResNet34_conv5_block1_1_prelu_mul0_scale                512/2048            weights/weights           const float             
276    StatefulPartitionedCall_ResNet34_conv5_block1_2_bn_FusedBatchNormV30_bias       512/2048            weights/weights           const float             
277    StatefulPartitionedCall_ResNet34_conv5_block1_2_bn_FusedBatchNormV30_output     100352/401408       activations/**default**   float                   
278    StatefulPartitionedCall_ResNet34_conv5_block1_2_bn_FusedBatchNormV30_scratch0   2304/9216           activations/**default**   float                   
279    StatefulPartitionedCall_ResNet34_conv5_block1_2_bn_FusedBatchNormV30_weights    1179648/4718592     weights/weights           const float             
280    StatefulPartitionedCall_ResNet34_conv5_block1_3_bn_FusedBatchNormV30_bias       512/2048            weights/weights           const float             
281    StatefulPartitionedCall_ResNet34_conv5_block1_3_bn_FusedBatchNormV30_output     25088/100352        activations/**default**   float                   
282    StatefulPartitionedCall_ResNet34_conv5_block1_3_bn_FusedBatchNormV30_scratch0   4608/18432          activations/**default**   float                   
283    StatefulPartitionedCall_ResNet34_conv5_block1_3_bn_FusedBatchNormV30_weights    2359296/9437184     weights/weights           const float             
284    StatefulPartitionedCall_ResNet34_conv5_block1_add_add0_output                   25088/100352        activations/**default**   float                   
285    StatefulPartitionedCall_ResNet34_conv5_block2_1_bn_FusedBatchNormV30_bias       512/2048            weights/weights           const float             
286    StatefulPartitionedCall_ResNet34_conv5_block2_1_bn_FusedBatchNormV30_output     25088/100352        activations/**default**   float                   
287    StatefulPartitionedCall_ResNet34_conv5_block2_1_bn_FusedBatchNormV30_scale      512/2048            weights/weights           const float             
288    StatefulPartitionedCall_ResNet34_conv5_block2_1_prelu_Neg_10_output             25088/100352        activations/**default**   float                   
289    StatefulPartitionedCall_ResNet34_conv5_block2_1_prelu_Relu0_output              25088/100352        activations/**default**   float                   
290    StatefulPartitionedCall_ResNet34_conv5_block2_1_prelu_Relu_10_output            25088/100352        activations/**default**   float                   
291    StatefulPartitionedCall_ResNet34_conv5_block2_1_prelu_add0_output               25088/100352        activations/**default**   float                   
292    StatefulPartitionedCall_ResNet34_conv5_block2_1_prelu_mul0_output               25088/100352        activations/**default**   float                   
293    StatefulPartitionedCall_ResNet34_conv5_block2_1_prelu_mul0_scale                512/2048            weights/weights           const float             
294    StatefulPartitionedCall_ResNet34_conv5_block2_2_bn_FusedBatchNormV30_bias       512/2048            weights/weights           const float             
295    StatefulPartitionedCall_ResNet34_conv5_block2_2_bn_FusedBatchNormV30_output     25088/100352        activations/**default**   float                   
296    StatefulPartitionedCall_ResNet34_conv5_block2_2_bn_FusedBatchNormV30_scratch0   4608/18432          activations/**default**   float                   
297    StatefulPartitionedCall_ResNet34_conv5_block2_2_bn_FusedBatchNormV30_weights    2359296/9437184     weights/weights           const float             
…
                                                                                                                             O: StatefulPartitionedCall_ResNet34_conv5_block2_1_prelu_add0_output               f32(1x7x7x512) (291)     
------ ------------------------------------------------------------------------ ----- --------------- ----------- ---------- ---------------------------------------------------------------------------------- ------------------------ 
143    StatefulPartitionedCall_ResNet34_conv5_block2_3_bn_FusedBatchNormV30     145   Conv2D          115606016   9439232    I: StatefulPartitionedCall_ResNet34_conv5_block2_1_prelu_add0_output               f32(1x7x7x512) (291)     
                                                                                                                             S: StatefulPartitionedCall_ResNet34_conv5_block2_3_bn_FusedBatchNormV30_scratch0                            
                                                                                                                             W: StatefulPartitionedCall_ResNet34_conv5_block2_3_bn_FusedBatchNormV30_weights    f32(512x3x3x512) (301)   
                                                                                                                             W: StatefulPartitionedCall_ResNet34_conv5_block2_3_bn_FusedBatchNormV30_bias       f32(512) (298)           
                                                                                                                             O: StatefulPartitionedCall_ResNet34_conv5_block2_3_bn_FusedBatchNormV30_output     f32(1x7x7x512) (299)     
------ ------------------------------------------------------------------------ ----- --------------- ----------- ---------- ---------------------------------------------------------------------------------- ------------------------ 
144    StatefulPartitionedCall_ResNet34_conv5_block2_add_add0                   146   Eltwise/add     25088       0          I: StatefulPartitionedCall_ResNet34_conv5_block1_add_add0_output                   f32(1x7x7x512) (284)     
                                                                                                                             I: StatefulPartitionedCall_ResNet34_conv5_block2_3_bn_FusedBatchNormV30_output     f32(1x7x7x512) (284)     
                                                                                                                             O: StatefulPartitionedCall_ResNet34_conv5_block2_add_add0_output                   f32(1x7x7x512) (302)     
------ ------------------------------------------------------------------------ ----- --------------- ----------- ---------- ---------------------------------------------------------------------------------- ------------------------ 
145    StatefulPartitionedCall_ResNet34_conv5_block3_1_bn_FusedBatchNormV30     147   ScaleBias       50176       4096       I: StatefulPartitionedCall_ResNet34_conv5_block2_add_add0_output                   f32(1x7x7x512) (302)     
                                                                                                                             W: StatefulPartitionedCall_ResNet34_conv5_block3_1_bn_FusedBatchNormV30_scale      f32(512) (305)           
                                                                                                                             W: StatefulPartitionedCall_ResNet34_conv5_block3_1_bn_FusedBatchNormV30_bias       f32(512) (303)           
                                                                                                                             O: StatefulPartitionedCall_ResNet34_conv5_block3_1_bn_FusedBatchNormV30_output     f32(1x7x7x512) (304)     
------ ------------------------------------------------------------------------ ----- --------------- ----------- ---------- ---------------------------------------------------------------------------------- ------------------------ 
146    StatefulPartitionedCall_ResNet34_conv5_block3_2_bn_FusedBatchNormV30     148   Conv2D          115606016   9439232    I: StatefulPartitionedCall_ResNet34_conv5_block3_1_bn_FusedBatchNormV30_output     f32(1x7x7x512) (304)     
                                                                                                                             S: StatefulPartitionedCall_ResNet34_conv5_block3_2_bn_FusedBatchNormV30_scratch0                            
                                                                                                                             W: StatefulPartitionedCall_ResNet34_conv5_block3_2_bn_FusedBatchNormV30_weights    f32(512x3x3x512) (315)   
                                                                                                                             W: StatefulPartitionedCall_ResNet34_conv5_block3_2_bn_FusedBatchNormV30_bias       f32(512) (312)           
                                                                                                                             O: StatefulPartitionedCall_ResNet34_conv5_block3_2_bn_FusedBatchNormV30_output     f32(1x7x7x512) (313)     
------ ------------------------------------------------------------------------ ----- --------------- ----------- ---------- ---------------------------------------------------------------------------------- ------------------------ 
147    StatefulPartitionedCall_ResNet34_conv5_block3_1_prelu_Neg_10             150   Nonlinearity    25088       0          I: StatefulPartitionedCall_ResNet34_conv5_block3_2_bn_FusedBatchNormV30_output     f32(1x7x7x512) (313)     
                                                                                                                             O: StatefulPartitionedCall_ResNet34_conv5_block3_1_prelu_Neg_10_output             f32(1x7x7x512) (306)     
------ ------------------------------------------------------------------------ ----- --------------- ----------- ---------- ---------------------------------------------------------------------------------- ------------------------ 
148    StatefulPartitionedCall_ResNet34_conv5_block3_1_prelu_Relu_10            151   Nonlinearity    25088       0          I: StatefulPartitionedCall_ResNet34_conv5_block3_1_prelu_Neg_10_output             f32(1x7x7x512) (306)     
                                                                                                                             O: StatefulPartitionedCall_ResNet34_conv5_block3_1_prelu_Relu_10_output            f32(1x7x7x512) (308)     
------ ------------------------------------------------------------------------ ----- --------------- ----------- ---------- ---------------------------------------------------------------------------------- ------------------------ 
149    StatefulPartitionedCall_ResNet34_conv5_block3_1_prelu_mul0               152   ScaleBias       50176       4096       I: StatefulPartitionedCall_ResNet34_conv5_block3_1_prelu_Relu_10_output            f32(1x7x7x512) (308)     
                                                                                                                             W: StatefulPartitionedCall_ResNet34_conv5_block3_1_prelu_mul0_scale                f32(512) (311)           
                                                                                                                             W: StatefulPartitionedCall_ResNet34_conv5_block1_1_prelu_mul0_bias                 f32(512) (273)           
                                                                                                                             O: StatefulPartitionedCall_ResNet34_conv5_block3_1_prelu_mul0_output               f32(1x7x7x512) (310)     
------ ------------------------------------------------------------------------ ----- --------------- ----------- ---------- ---------------------------------------------------------------------------------- ------------------------ 
150    StatefulPartitionedCall_ResNet34_conv5_block3_1_prelu_Relu0              149   Nonlinearity    25088       0          I: StatefulPartitionedCall_ResNet34_conv5_block3_2_bn_FusedBatchNormV30_output     f32(1x7x7x512) (313)     
                                                                                                                             O: StatefulPartitionedCall_ResNet34_conv5_block3_1_prelu_Relu0_output              f32(1x7x7x512) (307)     
------ ------------------------------------------------------------------------ ----- --------------- ----------- ---------- ---------------------------------------------------------------------------------- ------------------------ 
151    StatefulPartitionedCall_ResNet34_conv5_block3_1_prelu_add0               153   Eltwise/add     25088       0          I: StatefulPartitionedCall_ResNet34_conv5_block3_1_prelu_Relu0_output              f32(1x7x7x512) (307)     
                                                                                                                             I: StatefulPartitionedCall_ResNet34_conv5_block3_1_prelu_mul0_output               f32(1x7x7x512) (307)     
                                                                                                                             O: StatefulPartitionedCall_ResNet34_conv5_block3_1_prelu_add0_output               f32(1x7x7x512) (309)     
------ ------------------------------------------------------------------------ ----- --------------- ----------- ---------- ---------------------------------------------------------------------------------- ------------------------ 
152    StatefulPartitionedCall_ResNet34_conv5_block3_3_bn_FusedBatchNormV30     154   Conv2D          115606016   9439232    I: StatefulPartitionedCall_ResNet34_conv5_block3_1_prelu_add0_output               f32(1x7x7x512) (309)     
                                                                                                                             S: StatefulPartitionedCall_ResNet34_conv5_block3_3_bn_FusedBatchNormV30_scratch0                            
                                                                                                                             W: StatefulPartitionedCall_ResNet34_conv5_block3_3_bn_FusedBatchNormV30_weights    f32(512x3x3x512) (319)   
                                                                                                                             W: StatefulPartitionedCall_ResNet34_conv5_block3_3_bn_FusedBatchNormV30_bias       f32(512) (316)           
                                                                                                                             O: StatefulPartitionedCall_ResNet34_conv5_block3_3_bn_FusedBatchNormV30_output     f32(1x7x7x512) (317)     
------ ------------------------------------------------------------------------ ----- --------------- ----------- ---------- ---------------------------------------------------------------------------------- ------------------------ 
153    StatefulPartitionedCall_ResNet34_conv5_block3_add_add0                   155   Eltwise/add     25088       0          I: StatefulPartitionedCall_ResNet34_conv5_block2_add_add0_output                   f32(1x7x7x512) (302)     
                                                                                                                             I: StatefulPartitionedCall_ResNet34_conv5_block3_3_bn_FusedBatchNormV30_output     f32(1x7x7x512) (302)     
                                                                                                                             O: StatefulPartitionedCall_ResNet34_conv5_block3_add_add0_output                   f32(1x7x7x512) (320)     
------ ------------------------------------------------------------------------ ----- --------------- ----------- ---------- ---------------------------------------------------------------------------------- ------------------------ 
154    StatefulPartitionedCall_ResNet34_batch_normalization_FusedBatchNormV30   156   ScaleBias       50176       4096       I: StatefulPartitionedCall_ResNet34_conv5_block3_add_add0_output                   f32(1x7x7x512) (320)     
                                                                                                                             W: StatefulPartitionedCall_ResNet34_batch_normalization_FusedBatchNormV30_scale    f32(512) (2)             
                                                                                                                             W: StatefulPartitionedCall_ResNet34_batch_normalization_FusedBatchNormV30_bias     f32(512) (0)             
                                                                                                                             O: StatefulPartitionedCall_ResNet34_batch_normalization_FusedBatchNormV30_output   f32(1x7x7x512) (1)       
------ ------------------------------------------------------------------------ ----- --------------- ----------- ---------- ---------------------------------------------------------------------------------- ------------------------ 
155    StatefulPartitionedCall_ResNet34_dense_MatMul0                           162   Dense           12845568    51382272   I: StatefulPartitionedCall_ResNet34_batch_normalization_FusedBatchNormV30_output   f32(1x7x7x512) (1)       
                                                                                                                             W: StatefulPartitionedCall_ResNet34_dense_MatMul0_weights                          f32(512x25088) (323)     
                                                                                                                             W: StatefulPartitionedCall_ResNet34_dense_MatMul0_bias                             f32(512) (321)           
                                                                                                                             O: StatefulPartitionedCall_ResNet34_dense_MatMul0_output                           f32(1x512) (322)         
------ ------------------------------------------------------------------------ ----- --------------- ----------- ---------- ---------------------------------------------------------------------------------- ------------------------ 



Number of operations per c-layer
------- ------ ----------------------------------------------- --------------- -------------- 
c_id    m_id   name (type)                                                 #op           type 
------- ------ ----------------------------------------------- --------------- -------------- 
0       2      StatefulPartitione..tchNormV30 (Conv2D)              21,676,096   smul_f32_f32 
1       4      StatefulPartitione..elu_Neg_10 (Nonlinearity)           802,816     op_f32_f32 
2       5      StatefulPartitione..lu_Relu_10 (Nonlinearity)           802,816     op_f32_f32 
3       6      StatefulPartitione..prelu_mul0 (ScaleBias)            1,605,632   smul_f32_f32 
4       3      StatefulPartitione..relu_Relu0 (Nonlinearity)           802,816     op_f32_f32 
5       7      StatefulPartitione..prelu_add0 (Eltwise/add)            802,816     op_f32_f32 
6       16     StatefulPartitione..tchNormV30 (Conv2D)              12,845,120   smul_f32_f32 
7       8      StatefulPartitione..tchNormV30 (ScaleBias)            1,605,632   smul_f32_f32 
8       9      StatefulPartitione..tchNormV30 (Conv2D)             462,422,080   smul_f32_f32 
9       11     StatefulPartitione..elu_Neg_10 (Nonlinearity)           802,816     op_f32_f32 
10      12     StatefulPartitione..lu_Relu_10 (Nonlinearity)           802,816     op_f32_f32 
11      13     StatefulPartitione..prelu_mul0 (ScaleBias)            1,605,632   smul_f32_f32 
12      10     StatefulPartitione..relu_Relu0 (Nonlinearity)           802,816     op_f32_f32 
13      14     StatefulPartitione..prelu_add0 (Eltwise/add)            802,816     op_f32_f32 
14      15     StatefulPartitione..tchNormV30 (Conv2D)             115,605,568   smul_f32_f32 
15      17     StatefulPartitione..1_add_add0 (Eltwise/add)            200,704     op_f32_f32 
16      18     StatefulPartitione..tchNormV30 (ScaleBias)              401,408   smul_f32_f32 
17      19     StatefulPartitione..tchNormV30 (Conv2D)             115,605,568   smul_f32_f32 
18      21     StatefulPartitione..elu_Neg_10 (Nonlinearity)           200,704     op_f32_f32 
19      22     StatefulPartitione..lu_Relu_10 (Nonlinearity)           200,704     op_f32_f32 
20      23     StatefulPartitione..prelu_mul0 (ScaleBias)              401,408   smul_f32_f32 
21      20     StatefulPartitione..relu_Relu0 (Nonlinearity)           200,704     op_f32_f32 
22      24     StatefulPartitione..prelu_add0 (Eltwise/add)            200,704     op_f32_f32 
23      25     StatefulPartitione..tchNormV30 (Conv2D)             115,605,568   smul_f32_f32 
24      26     StatefulPartitione..2_add_add0 (Eltwise/add)            200,704     op_f32_f32 
25      27     StatefulPartitione..tchNormV30 (ScaleBias)              401,408   smul_f32_f32 
26      28     StatefulPartitione..tchNormV30 (Conv2D)             115,605,568   smul_f32_f32 
27      30     StatefulPartitione..elu_Neg_10 (Nonlinearity)           200,704     op_f32_f32 
28      31     StatefulPartitione..lu_Relu_10 (Nonlinearity)           200,704     op_f32_f32 
29      32     StatefulPartitione..prelu_mul0 (ScaleBias)              401,408   smul_f32_f32 
30      29     StatefulPartitione..relu_Relu0 (Nonlinearity)           200,704     op_f32_f32 
31      33     StatefulPartitione..prelu_add0 (Eltwise/add)            200,704     op_f32_f32 
32      34     StatefulPartitione..tchNormV30 (Conv2D)             115,605,568   smul_f32_f32 
33      35     StatefulPartitione..3_add_add0 (Eltwise/add)            200,704     op_f32_f32 
34      44     StatefulPartitione..tchNormV30 (Conv2D)               6,422,656   smul_f32_f32 
35      36     StatefulPartitione..tchNormV30 (ScaleBias)              401,408   smul_f32_f32 
36      37     StatefulPartitione..tchNormV30 (Conv2D)             231,211,136   smul_f32_f32 
37      39     StatefulPartitione..elu_Neg_10 (Nonlinearity)           401,408     op_f32_f32 
38      40     StatefulPartitione..lu_Relu_10 (Nonlinearity)           401,408     op_f32_f32 
39      41     StatefulPartitione..prelu_mul0 (ScaleBias)              802,816   smul_f32_f32 
40      38     StatefulPartitione..relu_Relu0 (Nonlinearity)           401,408     op_f32_f32 
41      42     StatefulPartitione..prelu_add0 (Eltwise/add)            401,408     op_f32_f32 
42      43     StatefulPartitione..tchNormV30 (Conv2D)             115,605,632   smul_f32_f32 
43      45     StatefulPartitione..1_add_add0 (Eltwise/add)            100,352     op_f32_f32 
44      46     StatefulPartitione..tchNormV30 (ScaleBias)              200,704   smul_f32_f32 
45      47     StatefulPartitione..tchNormV30 (Conv2D)             115,605,632   smul_f32_f32 
46      49     StatefulPartitione..elu_Neg_10 (Nonlinearity)           100,352     op_f32_f32 
47      50     StatefulPartitione..lu_Relu_10 (Nonlinearity)           100,352     op_f32_f32 
48      51     StatefulPartitione..prelu_mul0 (ScaleBias)              200,704   smul_f32_f32 
49      48     StatefulPartitione..relu_Relu0 (Nonlinearity)           100,352     op_f32_f32 
50      52     StatefulPartitione..prelu_add0 (Eltwise/add)            100,352     op_f32_f32 
51      53     StatefulPartitione..tchNormV30 (Conv2D)             115,605,632   smul_f32_f32 
52      54     StatefulPartitione..2_add_add0 (Eltwise/add)            100,352     op_f32_f32 
53      55     StatefulPartitione..tchNormV30 (ScaleBias)              200,704   smul_f32_f32 
54      56     StatefulPartitione..tchNormV30 (Conv2D)             115,605,632   smul_f32_f32 
55      58     StatefulPartitione..elu_Neg_10 (Nonlinearity)           100,352     op_f32_f32 
56      59     StatefulPartitione..lu_Relu_10 (Nonlinearity)           100,352     op_f32_f32 
57      60     StatefulPartitione..prelu_mul0 (ScaleBias)              200,704   smul_f32_f32 
58      57     StatefulPartitione..relu_Relu0 (Nonlinearity)           100,352     op_f32_f32 
59      61     StatefulPartitione..prelu_add0 (Eltwise/add)            100,352     op_f32_f32 
60      62     StatefulPartitione..tchNormV30 (Conv2D)             115,605,632   smul_f32_f32 
61      63     StatefulPartitione..3_add_add0 (Eltwise/add)            100,352     op_f32_f32 
62      64     StatefulPartitione..tchNormV30 (ScaleBias)              200,704   smul_f32_f32 
63      65     StatefulPartitione..tchNormV30 (Conv2D)             115,605,632   smul_f32_f32 
64      67     StatefulPartitione..elu_Neg_10 (Nonlinearity)           100,352     op_f32_f32 
65      68     StatefulPartitione..lu_Relu_10 (Nonlinearity)           100,352     op_f32_f32 
66      69     StatefulPartitione..prelu_mul0 (ScaleBias)              200,704   smul_f32_f32 
67      66     StatefulPartitione..relu_Relu0 (Nonlinearity)           100,352     op_f32_f32 
68      70     StatefulPartitione..prelu_add0 (Eltwise/add)            100,352     op_f32_f32 
69      71     StatefulPartitione..tchNormV30 (Conv2D)             115,605,632   smul_f32_f32 
70      72     StatefulPartitione..4_add_add0 (Eltwise/add)            100,352     op_f32_f32 
71      81     StatefulPartitione..tchNormV30 (Conv2D)               6,422,784   smul_f32_f32 
72      73     StatefulPartitione..tchNormV30 (ScaleBias)              200,704   smul_f32_f32 
73      74     StatefulPartitione..tchNormV30 (Conv2D)             231,211,264   smul_f32_f32 
74      76     StatefulPartitione..elu_Neg_10 (Nonlinearity)           200,704     op_f32_f32 
75      77     StatefulPartitione..lu_Relu_10 (Nonlinearity)           200,704     op_f32_f32 
76      78     StatefulPartitione..prelu_mul0 (ScaleBias)              401,408   smul_f32_f32 
77      75     StatefulPartitione..relu_Relu0 (Nonlinearity)           200,704     op_f32_f32 
78      79     StatefulPartitione..prelu_add0 (Eltwise/add)            200,704     op_f32_f32 
79      80     StatefulPartitione..tchNormV30 (Conv2D)             115,605,760   smul_f32_f32 
80      82     StatefulPartitione..1_add_add0 (Eltwise/add)             50,176     op_f32_f32 
81      83     StatefulPartitione..tchNormV30 (ScaleBias)              100,352   smul_f32_f32 
82      84     StatefulPartitione..tchNormV30 (Conv2D)             115,605,760   smul_f32_f32 
83      86     StatefulPartitione..elu_Neg_10 (Nonlinearity)            50,176     op_f32_f32 
84      87     StatefulPartitione..lu_Relu_10 (Nonlinearity)            50,176     op_f32_f32 
85      88     StatefulPartitione..prelu_mul0 (ScaleBias)              100,352   smul_f32_f32 
86      85     StatefulPartitione..relu_Relu0 (Nonlinearity)            50,176     op_f32_f32 
87      89     StatefulPartitione..prelu_add0 (Eltwise/add)             50,176     op_f32_f32 
88      90     StatefulPartitione..tchNormV30 (Conv2D)             115,605,760   smul_f32_f32 
89      91     StatefulPartitione..2_add_add0 (Eltwise/add)             50,176     op_f32_f32 
90      92     StatefulPartitione..tchNormV30 (ScaleBias)              100,352   smul_f32_f32 
91      93     StatefulPartitione..tchNormV30 (Conv2D)             115,605,760   smul_f32_f32 
92      95     StatefulPartitione..elu_Neg_10 (Nonlinearity)            50,176     op_f32_f32 
93      96     StatefulPartitione..lu_Relu_10 (Nonlinearity)            50,176     op_f32_f32 
94      97     StatefulPartitione..prelu_mul0 (ScaleBias)              100,352   smul_f32_f32 
95      94     StatefulPartitione..relu_Relu0 (Nonlinearity)            50,176     op_f32_f32 
96      98     StatefulPartitione..prelu_add0 (Eltwise/add)             50,176     op_f32_f32 
97      99     StatefulPartitione..tchNormV30 (Conv2D)             115,605,760   smul_f32_f32 
98      100    StatefulPartitione..3_add_add0 (Eltwise/add)             50,176     op_f32_f32 
99      101    StatefulPartitione..tchNormV30 (ScaleBias)              100,352   smul_f32_f32 
100     102    StatefulPartitione..tchNormV30 (Conv2D)             115,605,760   smul_f32_f32 
101     104    StatefulPartitione..elu_Neg_10 (Nonlinearity)            50,176     op_f32_f32 
102     105    StatefulPartitione..lu_Relu_10 (Nonlinearity)            50,176     op_f32_f32 
103     106    StatefulPartitione..prelu_mul0 (ScaleBias)              100,352   smul_f32_f32 
104     103    StatefulPartitione..relu_Relu0 (Nonlinearity)            50,176     op_f32_f32 
105     107    StatefulPartitione..prelu_add0 (Eltwise/add)             50,176     op_f32_f32 
106     108    StatefulPartitione..tchNormV30 (Conv2D)             115,605,760   smul_f32_f32 
107     109    StatefulPartitione..4_add_add0 (Eltwise/add)             50,176     op_f32_f32 
108     110    StatefulPartitione..tchNormV30 (ScaleBias)              100,352   smul_f32_f32 
109     111    StatefulPartitione..tchNormV30 (Conv2D)             115,605,760   smul_f32_f32 
110     113    StatefulPartitione..elu_Neg_10 (Nonlinearity)            50,176     op_f32_f32 
111     114    StatefulPartitione..lu_Relu_10 (Nonlinearity)            50,176     op_f32_f32 
112     115    StatefulPartitione..prelu_mul0 (ScaleBias)              100,352   smul_f32_f32 
113     112    StatefulPartitione..relu_Relu0 (Nonlinearity)            50,176     op_f32_f32 
114     116    StatefulPartitione..prelu_add0 (Eltwise/add)             50,176     op_f32_f32 
115     117    StatefulPartitione..tchNormV30 (Conv2D)             115,605,760   smul_f32_f32 
116     118    StatefulPartitione..5_add_add0 (Eltwise/add)             50,176     op_f32_f32 
117     119    StatefulPartitione..tchNormV30 (ScaleBias)              100,352   smul_f32_f32 
118     120    StatefulPartitione..tchNormV30 (Conv2D)             115,605,760   smul_f32_f32 
119     122    StatefulPartitione..elu_Neg_10 (Nonlinearity)            50,176     op_f32_f32 
120     123    StatefulPartitione..lu_Relu_10 (Nonlinearity)            50,176     op_f32_f32 
121     124    StatefulPartitione..prelu_mul0 (ScaleBias)              100,352   smul_f32_f32 
122     121    StatefulPartitione..relu_Relu0 (Nonlinearity)            50,176     op_f32_f32 
123     125    StatefulPartitione..prelu_add0 (Eltwise/add)             50,176     op_f32_f32 
124     126    StatefulPartitione..tchNormV30 (Conv2D)             115,605,760   smul_f32_f32 
125     127    StatefulPartitione..6_add_add0 (Eltwise/add)             50,176     op_f32_f32 
126     136    StatefulPartitione..tchNormV30 (Conv2D)               6,423,040   smul_f32_f32 
127     128    StatefulPartitione..tchNormV30 (ScaleBias)              100,352   smul_f32_f32 
128     129    StatefulPartitione..tchNormV30 (Conv2D)             231,211,520   smul_f32_f32 
129     131    StatefulPartitione..elu_Neg_10 (Nonlinearity)           100,352     op_f32_f32 
130     132    StatefulPartitione..lu_Relu_10 (Nonlinearity)           100,352     op_f32_f32 
131     133    StatefulPartitione..prelu_mul0 (ScaleBias)              200,704   smul_f32_f32 
132     130    StatefulPartitione..relu_Relu0 (Nonlinearity)           100,352     op_f32_f32 
133     134    StatefulPartitione..prelu_add0 (Eltwise/add)            100,352     op_f32_f32 
134     135    StatefulPartitione..tchNormV30 (Conv2D)             115,606,016   smul_f32_f32 
135     137    StatefulPartitione..1_add_add0 (Eltwise/add)             25,088     op_f32_f32 
136     138    StatefulPartitione..tchNormV30 (ScaleBias)               50,176   smul_f32_f32 
137     139    StatefulPartitione..tchNormV30 (Conv2D)             115,606,016   smul_f32_f32 
138     141    StatefulPartitione..elu_Neg_10 (Nonlinearity)            25,088     op_f32_f32 
139     142    StatefulPartitione..lu_Relu_10 (Nonlinearity)            25,088     op_f32_f32 
140     143    StatefulPartitione..prelu_mul0 (ScaleBias)               50,176   smul_f32_f32 
141     140    StatefulPartitione..relu_Relu0 (Nonlinearity)            25,088     op_f32_f32 
142     144    StatefulPartitione..prelu_add0 (Eltwise/add)             25,088     op_f32_f32 
143     145    StatefulPartitione..tchNormV30 (Conv2D)             115,606,016   smul_f32_f32 
144     146    StatefulPartitione..2_add_add0 (Eltwise/add)             25,088     op_f32_f32 
145     147    StatefulPartitione..tchNormV30 (ScaleBias)               50,176   smul_f32_f32 
146     148    StatefulPartitione..tchNormV30 (Conv2D)             115,606,016   smul_f32_f32 
147     150    StatefulPartitione..elu_Neg_10 (Nonlinearity)            25,088     op_f32_f32 
148     151    StatefulPartitione..lu_Relu_10 (Nonlinearity)            25,088     op_f32_f32 
149     152    StatefulPartitione..prelu_mul0 (ScaleBias)               50,176   smul_f32_f32 
150     149    StatefulPartitione..relu_Relu0 (Nonlinearity)            25,088     op_f32_f32 
151     153    StatefulPartitione..prelu_add0 (Eltwise/add)             25,088     op_f32_f32 
152     154    StatefulPartitione..tchNormV30 (Conv2D)             115,606,016   smul_f32_f32 
153     155    StatefulPartitione..3_add_add0 (Eltwise/add)             25,088     op_f32_f32 
154     156    StatefulPartitione..tchNormV30 (ScaleBias)               50,176   smul_f32_f32 
155     162    StatefulPartitione..se_MatMul0 (Dense)               12,845,568   smul_f32_f32 
------- ------ ----------------------------------------------- --------------- -------------- 
total                                                            4,485,266,816 

Number of operation types
---------------- --------------- ----------- 
operation type                 #           % 
---------------- --------------- ----------- 
smul_f32_f32       4,470,640,512       99.7% 
op_f32_f32            14,626,304        0.3% 

Complexity report (model)
------ ------------------------------------------ ------------------------- ------------------------- ------- 
m_id   name                                       c_macc                    c_rom                     c_id    
------ ------------------------------------------ ------------------------- ------------------------- ------- 
6      StatefulPartitionedCall_ResN..prelu_Neg0   |                  0.0%   |                  0.0%   [3]     
13     StatefulPartitionedCall_ResN..prelu_Neg0   |                  0.0%   |                  0.0%   [11]    
23     StatefulPartitionedCall_ResN..prelu_Neg0   |                  0.0%   |                  0.0%   [20]    
32     StatefulPartitionedCall_ResN..prelu_Neg0   |                  0.0%   |                  0.0%   [29]    
41     StatefulPartitionedCall_ResN..prelu_Neg0   |                  0.0%   |                  0.0%   [39]    
51     StatefulPartitionedCall_ResN..prelu_Neg0   |                  0.0%   |                  0.0%   [48]    
60     StatefulPartitionedCall_ResN..prelu_Neg0   |                  0.0%   |                  0.0%   [57]    
69     StatefulPartitionedCall_ResN..prelu_Neg0   |                  0.0%   |                  0.0%   [66]    
78     StatefulPartitionedCall_ResN..prelu_Neg0   |                  0.0%   |                  0.0%   [76]    
88     StatefulPartitionedCall_ResN..prelu_Neg0   |                  0.0%   |                  0.0%   [85]    
97     StatefulPartitionedCall_ResN..prelu_Neg0   |                  0.0%   |                  0.0%   [94]    
106    StatefulPartitionedCall_ResN..prelu_Neg0   |                  0.0%   |                  0.0%   [103]   
115    StatefulPartitionedCall_ResN..prelu_Neg0   |                  0.0%   |                  0.0%   [112]   
124    StatefulPartitionedCall_ResN..prelu_Neg0   |                  0.0%   |                  0.0%   [121]   
133    StatefulPartitionedCall_ResN..prelu_Neg0   |                  0.0%   |                  0.0%   [131]   
143    StatefulPartitionedCall_ResN..prelu_Neg0   |                  0.0%   |                  0.0%   [140]   
152    StatefulPartitionedCall_ResN..prelu_Neg0   |                  0.0%   |                  0.0%   [149]   
2      StatefulPartitionedCall_ResN..tchNormV30   |                  0.5%   |                  0.0%   [0]     
3      StatefulPartitionedCall_ResN..relu_Relu0   |                  0.0%   |                  0.0%   [4]     
4      StatefulPartitionedCall_ResN..elu_Neg_10   |                  0.0%   |                  0.0%   [1]     
5      StatefulPartitionedCall_ResN..lu_Relu_10   |                  0.0%   |                  0.0%   [2]     
7      StatefulPartitionedCall_ResN..prelu_add0   |                  0.0%   |                  0.0%   [5]     
8      StatefulPartitionedCall_ResN..tchNormV30   |                  0.0%   |                  0.0%   [7]     
9      StatefulPartitionedCall_ResN..tchNormV30   ||||||||||||||||  10.3%   |                  0.1%   [8]     
10     StatefulPartitionedCall_ResN..relu_Relu0   |                  0.0%   |                  0.0%   [12]    
11     StatefulPartitionedCall_ResN..elu_Neg_10   |                  0.0%   |                  0.0%   [9]     
12     StatefulPartitionedCall_ResN..lu_Relu_10   |                  0.0%   |                  0.0%   [10]    
14     StatefulPartitionedCall_ResN..prelu_add0   |                  0.0%   |                  0.0%   [13]    
15     StatefulPartitionedCall_ResN..tchNormV30   ||||               2.6%   |                  0.1%   [14]    
16     StatefulPartitionedCall_ResN..tchNormV30   |                  0.3%   |                  0.0%   [6]     
17     StatefulPartitionedCall_ResN..1_add_add0   |                  0.0%   |                  0.0%   [15]    
18     StatefulPartitionedCall_ResN..tchNormV30   |                  0.0%   |                  0.0%   [16]    
19     StatefulPartitionedCall_ResN..tchNormV30   ||||               2.6%   |                  0.1%   [17]    
20     StatefulPartitionedCall_ResN..relu_Relu0   |                  0.0%   |                  0.0%   [21]    
21     StatefulPartitionedCall_ResN..elu_Neg_10   |                  0.0%   |                  0.0%   [18]    
22     StatefulPartitionedCall_ResN..lu_Relu_10   |                  0.0%   |                  0.0%   [19]    
24     StatefulPartitionedCall_ResN..prelu_add0   |                  0.0%   |                  0.0%   [22]    
25     StatefulPartitionedCall_ResN..tchNormV30   ||||               2.6%   |                  0.1%   [23]    
26     StatefulPartitionedCall_ResN..2_add_add0   |                  0.0%   |                  0.0%   [24]    
27     StatefulPartitionedCall_ResN..tchNormV30   |                  0.0%   |                  0.0%   [25]    
28     StatefulPartitionedCall_ResN..tchNormV30   ||||               2.6%   |                  0.1%   [26]    
29     StatefulPartitionedCall_ResN..relu_Relu0   |                  0.0%   |                  0.0%   [30]    
30     StatefulPartitionedCall_ResN..elu_Neg_10   |                  0.0%   |                  0.0%   [27]    
31     StatefulPartitionedCall_ResN..lu_Relu_10   |                  0.0%   |                  0.0%   [28]    
33     StatefulPartitionedCall_ResN..prelu_add0   |                  0.0%   |                  0.0%   [31]    
34     StatefulPartitionedCall_ResN..tchNormV30   ||||               2.6%   |                  0.1%   [32]    
35     StatefulPartitionedCall_ResN..3_add_add0   |                  0.0%   |                  0.0%   [33]    
36     StatefulPartitionedCall_ResN..tchNormV30   |                  0.0%   |                  0.0%   [35]    
37     StatefulPartitionedCall_ResN..tchNormV30   ||||||||           5.2%   |                  0.2%   [36]    
38     StatefulPartitionedCall_ResN..relu_Relu0   |                  0.0%   |                  0.0%   [40]    
39     StatefulPartitionedCall_ResN..elu_Neg_10   |                  0.0%   |                  0.0%   [37]    
40     StatefulPartitionedCall_ResN..lu_Relu_10   |                  0.0%   |                  0.0%   [38]    
42     StatefulPartitionedCall_ResN..prelu_add0   |                  0.0%   |                  0.0%   [41]    
43     StatefulPartitionedCall_ResN..tchNormV30   ||||               2.6%   |                  0.4%   [42]    
44     StatefulPartitionedCall_ResN..tchNormV30   |                  0.1%   |                  0.0%   [34]    
45     StatefulPartitionedCall_ResN..1_add_add0   |                  0.0%   |                  0.0%   [43]    
46     StatefulPartitionedCall_ResN..tchNormV30   |                  0.0%   |                  0.0%   [44]    
47     StatefulPartitionedCall_ResN..tchNormV30   ||||               2.6%   |                  0.4%   [45]    
48     StatefulPartitionedCall_ResN..relu_Relu0   |                  0.0%   |                  0.0%   [49]    
49     StatefulPartitionedCall_ResN..elu_Neg_10   |                  0.0%   |                  0.0%   [46]    
50     StatefulPartitionedCall_ResN..lu_Relu_10   |                  0.0%   |                  0.0%   [47]    
52     StatefulPartitionedCall_ResN..prelu_add0   |                  0.0%   |                  0.0%   [50]    
53     StatefulPartitionedCall_ResN..tchNormV30   ||||               2.6%   |                  0.4%   [51]    
54     StatefulPartitionedCall_ResN..2_add_add0   |                  0.0%   |                  0.0%   [52]    
55     StatefulPartitionedCall_ResN..tchNormV30   |                  0.0%   |                  0.0%   [53]    
56     StatefulPartitionedCall_ResN..tchNormV30   ||||               2.6%   |                  0.4%   [54]    
57     StatefulPartitionedCall_ResN..relu_Relu0   |                  0.0%   |                  0.0%   [58]    
58     StatefulPartitionedCall_ResN..elu_Neg_10   |                  0.0%   |                  0.0%   [55]    
59     StatefulPartitionedCall_ResN..lu_Relu_10   |                  0.0%   |                  0.0%   [56]    
61     StatefulPartitionedCall_ResN..prelu_add0   |                  0.0%   |                  0.0%   [59]    
62     StatefulPartitionedCall_ResN..tchNormV30   ||||               2.6%   |                  0.4%   [60]    
63     StatefulPartitionedCall_ResN..3_add_add0   |                  0.0%   |                  0.0%   [61]    
64     StatefulPartitionedCall_ResN..tchNormV30   |                  0.0%   |                  0.0%   [62]    
65     StatefulPartitionedCall_ResN..tchNormV30   ||||               2.6%   |                  0.4%   [63]    
66     StatefulPartitionedCall_ResN..relu_Relu0   |                  0.0%   |                  0.0%   [67]    
67     StatefulPartitionedCall_ResN..elu_Neg_10   |                  0.0%   |                  0.0%   [64]    
68     StatefulPartitionedCall_ResN..lu_Relu_10   |                  0.0%   |                  0.0%   [65]    
70     StatefulPartitionedCall_ResN..prelu_add0   |                  0.0%   |                  0.0%   [68]    
71     StatefulPartitionedCall_ResN..tchNormV30   ||||               2.6%   |                  0.4%   [69]    
72     StatefulPartitionedCall_ResN..4_add_add0   |                  0.0%   |                  0.0%   [70]    
73     StatefulPartitionedCall_ResN..tchNormV30   |                  0.0%   |                  0.0%   [72]    
74     StatefulPartitionedCall_ResN..tchNormV30   ||||||||           5.2%   |                  0.9%   [73]    
75     StatefulPartitionedCall_ResN..relu_Relu0   |                  0.0%   |                  0.0%   [77]    
76     StatefulPartitionedCall_ResN..elu_Neg_10   |                  0.0%   |                  0.0%   [74]    
77     StatefulPartitionedCall_ResN..lu_Relu_10   |                  0.0%   |                  0.0%   [75]    
79     StatefulPartitionedCall_ResN..prelu_add0   |                  0.0%   |                  0.0%   [78]    
80     StatefulPartitionedCall_ResN..tchNormV30   ||||               2.6%   |                  1.7%   [79]    
81     StatefulPartitionedCall_ResN..tchNormV30   |                  0.1%   |                  0.1%   [71]    
82     StatefulPartitionedCall_ResN..1_add_add0   |                  0.0%   |                  0.0%   [80]    
83     StatefulPartitionedCall_ResN..tchNormV30   |                  0.0%   |                  0.0%   [81]    
84     StatefulPartitionedCall_ResN..tchNormV30   ||||               2.6%   |                  1.7%   [82]    
85     StatefulPartitionedCall_ResN..relu_Relu0   |                  0.0%   |                  0.0%   [86]    
86     StatefulPartitionedCall_ResN..elu_Neg_10   |                  0.0%   |                  0.0%   [83]    
87     StatefulPartitionedCall_ResN..lu_Relu_10   |                  0.0%   |                  0.0%   [84]    
89     StatefulPartitionedCall_ResN..prelu_add0   |                  0.0%   |                  0.0%   [87]    
90     StatefulPartitionedCall_ResN..tchNormV30   ||||               2.6%   |                  1.7%   [88]    
91     StatefulPartitionedCall_ResN..2_add_add0   |                  0.0%   |                  0.0%   [89]    
92     StatefulPartitionedCall_ResN..tchNormV30   |                  0.0%   |                  0.0%   [90]    
93     StatefulPartitionedCall_ResN..tchNormV30   ||||               2.6%   |                  1.7%   [91]    
94     StatefulPartitionedCall_ResN..relu_Relu0   |                  0.0%   |                  0.0%   [95]    
95     StatefulPartitionedCall_ResN..elu_Neg_10   |                  0.0%   |                  0.0%   [92]    
96     StatefulPartitionedCall_ResN..lu_Relu_10   |                  0.0%   |                  0.0%   [93]    
98     StatefulPartitionedCall_ResN..prelu_add0   |                  0.0%   |                  0.0%   [96]    
99     StatefulPartitionedCall_ResN..tchNormV30   ||||               2.6%   |                  1.7%   [97]    
100    StatefulPartitionedCall_ResN..3_add_add0   |                  0.0%   |                  0.0%   [98]    
101    StatefulPartitionedCall_ResN..tchNormV30   |                  0.0%   |                  0.0%   [99]    
102    StatefulPartitionedCall_ResN..tchNormV30   ||||               2.6%   |                  1.7%   [100]   
103    StatefulPartitionedCall_ResN..relu_Relu0   |                  0.0%   |                  0.0%   [104]   
104    StatefulPartitionedCall_ResN..elu_Neg_10   |                  0.0%   |                  0.0%   [101]   
105    StatefulPartitionedCall_ResN..lu_Relu_10   |                  0.0%   |                  0.0%   [102]   
107    StatefulPartitionedCall_ResN..prelu_add0   |                  0.0%   |                  0.0%   [105]   
108    StatefulPartitionedCall_ResN..tchNormV30   ||||               2.6%   |                  1.7%   [106]   
109    StatefulPartitionedCall_ResN..4_add_add0   |                  0.0%   |                  0.0%   [107]   
110    StatefulPartitionedCall_ResN..tchNormV30   |                  0.0%   |                  0.0%   [108]   
111    StatefulPartitionedCall_ResN..tchNormV30   ||||               2.6%   |                  1.7%   [109]   
112    StatefulPartitionedCall_ResN..relu_Relu0   |                  0.0%   |                  0.0%   [113]   
113    StatefulPartitionedCall_ResN..elu_Neg_10   |                  0.0%   |                  0.0%   [110]   
114    StatefulPartitionedCall_ResN..lu_Relu_10   |                  0.0%   |                  0.0%   [111]   
116    StatefulPartitionedCall_ResN..prelu_add0   |                  0.0%   |                  0.0%   [114]   
117    StatefulPartitionedCall_ResN..tchNormV30   ||||               2.6%   |                  1.7%   [115]   
118    StatefulPartitionedCall_ResN..5_add_add0   |                  0.0%   |                  0.0%   [116]   
119    StatefulPartitionedCall_ResN..tchNormV30   |                  0.0%   |                  0.0%   [117]   
120    StatefulPartitionedCall_ResN..tchNormV30   ||||               2.6%   |                  1.7%   [118]   
121    StatefulPartitionedCall_ResN..relu_Relu0   |                  0.0%   |                  0.0%   [122]   
122    StatefulPartitionedCall_ResN..elu_Neg_10   |                  0.0%   |                  0.0%   [119]   
123    StatefulPartitionedCall_ResN..lu_Relu_10   |                  0.0%   |                  0.0%   [120]   
125    StatefulPartitionedCall_ResN..prelu_add0   |                  0.0%   |                  0.0%   [123]   
126    StatefulPartitionedCall_ResN..tchNormV30   ||||               2.6%   |                  1.7%   [124]   
127    StatefulPartitionedCall_ResN..6_add_add0   |                  0.0%   |                  0.0%   [125]   
128    StatefulPartitionedCall_ResN..tchNormV30   |                  0.0%   |                  0.0%   [127]   
129    StatefulPartitionedCall_ResN..tchNormV30   ||||||||           5.2%   ||                 3.5%   [128]   
130    StatefulPartitionedCall_ResN..relu_Relu0   |                  0.0%   |                  0.0%   [132]   
131    StatefulPartitionedCall_ResN..elu_Neg_10   |                  0.0%   |                  0.0%   [129]   
132    StatefulPartitionedCall_ResN..lu_Relu_10   |                  0.0%   |                  0.0%   [130]   
134    StatefulPartitionedCall_ResN..prelu_add0   |                  0.0%   |                  0.0%   [133]   
135    StatefulPartitionedCall_ResN..tchNormV30   ||||               2.6%   |||                6.9%   [134]   
136    StatefulPartitionedCall_ResN..tchNormV30   |                  0.1%   |                  0.4%   [126]   
137    StatefulPartitionedCall_ResN..1_add_add0   |                  0.0%   |                  0.0%   [135]   
138    StatefulPartitionedCall_ResN..tchNormV30   |                  0.0%   |                  0.0%   [136]   
139    StatefulPartitionedCall_ResN..tchNormV30   ||||               2.6%   |||                6.9%   [137]   
140    StatefulPartitionedCall_ResN..relu_Relu0   |                  0.0%   |                  0.0%   [141]   
141    StatefulPartitionedCall_ResN..elu_Neg_10   |                  0.0%   |                  0.0%   [138]   
142    StatefulPartitionedCall_ResN..lu_Relu_10   |                  0.0%   |                  0.0%   [139]   
144    StatefulPartitionedCall_ResN..prelu_add0   |                  0.0%   |                  0.0%   [142]   
145    StatefulPartitionedCall_ResN..tchNormV30   ||||               2.6%   |||                6.9%   [143]   
146    StatefulPartitionedCall_ResN..2_add_add0   |                  0.0%   |                  0.0%   [144]   
147    StatefulPartitionedCall_ResN..tchNormV30   |                  0.0%   |                  0.0%   [145]   
148    StatefulPartitionedCall_ResN..tchNormV30   ||||               2.6%   |||                6.9%   [146]   
149    StatefulPartitionedCall_ResN..relu_Relu0   |                  0.0%   |                  0.0%   [150]   
150    StatefulPartitionedCall_ResN..elu_Neg_10   |                  0.0%   |                  0.0%   [147]   
151    StatefulPartitionedCall_ResN..lu_Relu_10   |                  0.0%   |                  0.0%   [148]   
153    StatefulPartitionedCall_ResN..prelu_add0   |                  0.0%   |                  0.0%   [151]   
154    StatefulPartitionedCall_ResN..tchNormV30   ||||               2.6%   |||                6.9%   [152]   
155    StatefulPartitionedCall_ResN..3_add_add0   |                  0.0%   |                  0.0%   [153]   
156    StatefulPartitionedCall_ResN..tchNormV30   |                  0.0%   |                  0.0%   [154]   
162    embedding                                  |                  0.3%   ||||||||||||||||  37.6%   [155]   
------ ------------------------------------------ ------------------------- ------------------------- ------- 
macc=4,485,266,816 weights=136,522,752 act=7,227,648 ram_io=0
 
 Requested memory size by section - "stm32h7" target
 ------------------------------ -------- ------------- -------- ----------- 
 module                             text        rodata     data         bss 
 ------------------------------ -------- ------------- -------- ----------- 
 NetworkRuntime1020_CM7_GCC.a     10,780             0        0           0 
 network_facerec.o                 5,748         1,248   41,712         988 
 network_facerec_data.o               48            16       88           0 
 lib (toolchain)*                      0             0        0           0 
 ------------------------------ -------- ------------- -------- ----------- 
 RT total**                       16,576         1,264   41,800         988 
 ------------------------------ -------- ------------- -------- ----------- 
 weights                               0   136,522,752        0           0 
 activations                           0             0        0   7,227,648 
 io                                    0             0        0           0 
 ------------------------------ -------- ------------- -------- ----------- 
 TOTAL                            16,576   136,524,016   41,800   7,228,636 
 ------------------------------ -------- ------------- -------- ----------- 
 *  toolchain objects (libm/libgcc*)
 ** RT AI runtime objects (kernels+infrastructure)
  
  Summary - "stm32h7" target
  ---------------------------------------------------
                FLASH (ro)     %*    RAM (rw)      % 
  ---------------------------------------------------
  RT total          59,640   0.0%      42,788   0.6% 
  ---------------------------------------------------
  TOTAL        136,582,392          7,270,436        
  ---------------------------------------------------
  *  rt/total


Generated files (7)
----------------------------------------------------------------------- 
C:\STM32_FaceRecognition\face_rec_model\network_facerec_data_params.h   
C:\STM32_FaceRecognition\face_rec_model\network_facerec_data_params.c   
C:\STM32_FaceRecognition\face_rec_model\network_facerec_data.h          
C:\STM32_FaceRecognition\face_rec_model\network_facerec_data.c          
C:\STM32_FaceRecognition\face_rec_model\network_facerec_config.h        
C:\STM32_FaceRecognition\face_rec_model\network_facerec.h               
C:\STM32_FaceRecognition\face_rec_model\network_facerec.c               
