ST Edge AI Core v2.2.0-20266 2adc00962
Created date          : 2025-08-29 11:45:44
Parameters            : generate -m C:\Model\mobilefacenet.tflite --target stm32 --output C:\Model\facerec_out --name FaceRec

Exec/report summary (generate)
-------------------------------------------------------------------------------------------
model file         :   C:\Model\mobilefacenet.tflite                                       
type               :   tflite                                                              
c_name             :   facerec                                                             
compression        :   lossless                                                            
options            :   allocate-inputs, allocate-outputs                                   
optimization       :   balanced                                                            
target/series      :   stm32                                                               
workspace dir      :   C:\ST\STEdgeAI\2.2\Utilities\windows\st_ai_ws                       
output dir         :   C:\Model\facerec_out                                                
model_fmt          :   float                                                               
model_name         :   mobilefacenet                                                       
model_hash         :   0x22e5e9a1e6777a2a27325e12ee315bc9                                  
params #           :   1,260,161 items (4.81 MiB)                                          
-------------------------------------------------------------------------------------------
input 1/1          :   'input', f32(1x112x112x3), 147.00 KBytes, activations               
output 1/1         :   'normalization_263', f32(1x128), 512 Bytes, activations             
macc               :   253,766,016                                                         
weights (ro)       :   5,044,480 B (4.81 MiB) (1 segment) / +3,836(+0.1%) vs float model   
activations (rw)   :   4,816,896 B (4.59 MiB) (1 segment) *                                
ram (total)        :   4,816,896 B (4.59 MiB) = 4,816,896 + 0 + 0                          
-------------------------------------------------------------------------------------------
(*) 'input'/'output' buffers are allocated in the activations buffer

Model name - mobilefacenet
------ ----------------------------------------------------- ----------------------- ------------------- ------------ ------------------- --- ----------------- --------------------- ------------------------ 
m_id   layer (type,original)                                 oshape                  param/size                  macc        connected to   | c_size            c_macc                c_type                   
------ ----------------------------------------------------- ----------------------- ------------------- ------------ ------------------- --- ----------------- --------------------- ------------------------ 
0      input (Input, )                                       [b:1,h:112,w:112,c:3]                                                          | +7,168(+100.0%)   +5,419,072(+100.0%)   Conv2D_[0]               
       conv2d_0 (Conv2D, CONV_2D)                            [b:1,h:56,w:56,c:64]    1,792/7,168            5,419,072               input   | -7,168(-100.0%)   -5,419,072(-100.0%)   
------ ----------------------------------------------------- ----------------------- ------------------- ------------ ------------------- --- ----------------- --------------------- ------------------------ 
1      nl_1 (Nonlinearity, ABS)                              [b:1,h:56,w:56,c:64]                             401,408            conv2d_0   |                                         Nonlinearity_[2]         
------ ----------------------------------------------------- ----------------------- ------------------- ------------ ------------------- --- ----------------- --------------------- ------------------------ 
2      eltwise_2 (Eltwise, SUB)                              [b:1,h:56,w:56,c:64]                             200,704            conv2d_0   |                                         Eltwise/sub_[3]          
                                                                                                                                     nl_1   | 
------ ----------------------------------------------------- ----------------------- ------------------- ------------ ------------------- --- ----------------- --------------------- ------------------------ 
3      arith_constant136 (Placeholder, )                     [b:64]                  64/256                                                 | -256(-100.0%)                           
       eltwise_3 (Eltwise, MUL)                              [b:1,h:56,w:56,c:64]                             200,704           eltwise_2   |                   -200,704(-100.0%)     
                                                                                                                        arith_constant136   | 
------ ----------------------------------------------------- ----------------------- ------------------- ------------ ------------------- --- ----------------- --------------------- ------------------------ 
4      arith_constant119 (Placeholder, )                     []                      1/4                                                    | +508(+12700.0%)   +401,408(+100.0%)     ScaleBias_[4]            
       eltwise_4 (Eltwise, MUL)                              [b:1,h:56,w:56,c:64]                             200,704           eltwise_3   |                   -200,704(-100.0%)     
                                                                                                                        arith_constant119   | 
------ ----------------------------------------------------- ----------------------- ------------------- ------------ ------------------- --- ----------------- --------------------- ------------------------ 
5      nl_5 (Nonlinearity, RELU)                             [b:1,h:56,w:56,c:64]                             200,704            conv2d_0   |                                         Nonlinearity_[1]         
------ ----------------------------------------------------- ----------------------- ------------------- ------------ ------------------- --- ----------------- --------------------- ------------------------ 
6      eltwise_6 (Eltwise, ADD)                              [b:1,h:56,w:56,c:64]                             200,704                nl_5   |                                         Eltwise/add_[5]          
                                                                                                                                eltwise_4   | 
------ ----------------------------------------------------- ----------------------- ------------------- ------------ ------------------- --- ----------------- --------------------- ------------------------ 
7      conv2d_7 (Conv2D, DEPTHWISE_CONV_2D)                  [b:1,h:56,w:56,c:64]    640/2,560              1,806,400           eltwise_6   |                                         Conv2D_[6]               
------ ----------------------------------------------------- ----------------------- ------------------- ------------ ------------------- --- ----------------- --------------------- ------------------------ 
8      nl_8 (Nonlinearity, ABS)                              [b:1,h:56,w:56,c:64]                             401,408            conv2d_7   |                                         Nonlinearity_[8]         
------ ----------------------------------------------------- ----------------------- ------------------- ------------ ------------------- --- ----------------- --------------------- ------------------------ 
9      eltwise_9 (Eltwise, SUB)                              [b:1,h:56,w:56,c:64]                             200,704            conv2d_7   |                                         Eltwise/sub_[9]          
                                                                                                                                     nl_8   | 
------ ----------------------------------------------------- ----------------------- ------------------- ------------ ------------------- --- ----------------- --------------------- ------------------------ 
10     arith_constant118 (Placeholder, )                     [b:64]                  64/256                                                 | -256(-100.0%)                           
       eltwise_10 (Eltwise, MUL)                             [b:1,h:56,w:56,c:64]                             200,704           eltwise_9   |                   -200,704(-100.0%)     
                                                                                                                        arith_constant118   | 
------ ----------------------------------------------------- ----------------------- ------------------- ------------ ------------------- --- ----------------- --------------------- ------------------------ 
11     eltwise_11 (Eltwise, MUL)                             [b:1,h:56,w:56,c:64]                             200,704          eltwise_10   | +512(+100.0%)     +200,704(+100.0%)     ScaleBias_[10]           
                                                                                                                        arith_constant119   | 
------ ----------------------------------------------------- ----------------------- ------------------- ------------ ------------------- --- ----------------- --------------------- ------------------------ 
12     nl_12 (Nonlinearity, RELU)                            [b:1,h:56,w:56,c:64]                             200,704            conv2d_7   |                                         Nonlinearity_[7]         
------ ----------------------------------------------------- ----------------------- ------------------- ------------ ------------------- --- ----------------- --------------------- ------------------------ 
13     eltwise_13 (Eltwise, ADD)                             [b:1,h:56,w:56,c:64]                             200,704               nl_12   |                                         Eltwise/add_[11]         
                                                                                                                               eltwise_11   | 
------ ----------------------------------------------------- ----------------------- ------------------- ------------ ------------------- --- ----------------- --------------------- ------------------------ 
14     conv2d_14 (Conv2D, CONV_2D)                           [b:1,h:56,w:56,c:64]    4,160/16,640          12,845,120          eltwise_13   |                                         Conv2D_[12]              
------ ----------------------------------------------------- ----------------------- ------------------- ------------ ------------------- --- ----------------- --------------------- ------------------------ 
15     conv2d_15 (Conv2D, CONV_2D)                           [b:1,h:56,w:56,c:128]   8,320/33,280          25,690,240           conv2d_14   |                                         Conv2D_[13]              
------ ----------------------------------------------------- ----------------------- ------------------- ------------ ------------------- --- ----------------- --------------------- ------------------------ 
16     nl_16 (Nonlinearity, ABS)                             [b:1,h:56,w:56,c:128]                            802,816           conv2d_15   |                                         Nonlinearity_[15]        
------ ----------------------------------------------------- ----------------------- ------------------- ------------ ------------------- --- ----------------- --------------------- ------------------------ 
17     eltwise_17 (Eltwise, SUB)                             [b:1,h:56,w:56,c:128]                            401,408           conv2d_15   |                                         Eltwise/sub_[16]         
                                                                                                                                    nl_16   | 
------ ----------------------------------------------------- ----------------------- ------------------- ------------ ------------------- --- ----------------- --------------------- ------------------------ 
18     arith_constant134 (Placeholder, )                     [b:128]                 128/512                                                | -512(-100.0%)                           
       eltwise_18 (Eltwise, MUL)                             [b:1,h:56,w:56,c:128]                            401,408          eltwise_17   |                   -401,408(-100.0%)     
                                                                                                                        arith_constant134   | 
------ ----------------------------------------------------- ----------------------- ------------------- ------------ ------------------- --- ----------------- --------------------- ------------------------ 
19     eltwise_19 (Eltwise, MUL)                             [b:1,h:56,w:56,c:128]                            401,408          eltwise_18   | +1,024(+100.0%)   +401,408(+100.0%)     ScaleBias_[17]           
                                                                                                                        arith_constant119   | 
------ ----------------------------------------------------- ----------------------- ------------------- ------------ ------------------- --- ----------------- --------------------- ------------------------ 
20     nl_20 (Nonlinearity, RELU)                            [b:1,h:56,w:56,c:128]                            401,408           conv2d_15   |                                         Nonlinearity_[14]        
------ ----------------------------------------------------- ----------------------- ------------------- ------------ ------------------- --- ----------------- --------------------- ------------------------ 
21     eltwise_21 (Eltwise, ADD)                             [b:1,h:56,w:56,c:128]                            401,408               nl_20   |                                         Eltwise/add_[18]         
                                                                                                                               eltwise_19   | 
------ ----------------------------------------------------- ----------------------- ------------------- ------------ ------------------- --- ----------------- --------------------- ------------------------ 
22     conv2d_22 (Conv2D, DEPTHWISE_CONV_2D)                 [b:1,h:28,w:28,c:128]   1,280/5,120              903,296          eltwise_21   |                                         Conv2D_[19]              
------ ----------------------------------------------------- ----------------------- ------------------- ------------ ------------------- --- ----------------- --------------------- ------------------------ 
23     nl_23 (Nonlinearity, ABS)                             [b:1,h:28,w:28,c:128]                            200,704           conv2d_22   |                                         Nonlinearity_[21]        
------ ----------------------------------------------------- ----------------------- ------------------- ------------ ------------------- --- ----------------- --------------------- ------------------------ 
24     eltwise_24 (Eltwise, SUB)                             [b:1,h:28,w:28,c:128]                            100,352           conv2d_22   |                                         Eltwise/sub_[22]         
                                                                                                                                    nl_23   | 
------ ----------------------------------------------------- ----------------------- ------------------- ------------ ------------------- --- ----------------- --------------------- ------------------------ 
25     arith_constant117 (Placeholder, )                     [b:128]                 128/512                                                | -512(-100.0%)                           
       eltwise_25 (Eltwise, MUL)                             [b:1,h:28,w:28,c:128]                            100,352          eltwise_24   |                   -100,352(-100.0%)     
                                                                                                                        arith_constant117   | 
------ ----------------------------------------------------- ----------------------- ------------------- ------------ ------------------- --- ----------------- --------------------- ------------------------ 
26     eltwise_26 (Eltwise, MUL)                             [b:1,h:28,w:28,c:128]                            100,352          eltwise_25   | +1,024(+100.0%)   +100,352(+100.0%)     ScaleBias_[23]           
                                                                                                                        arith_constant119   | 
------ ----------------------------------------------------- ----------------------- ------------------- ------------ ------------------- --- ----------------- --------------------- ------------------------ 
27     nl_27 (Nonlinearity, RELU)                            [b:1,h:28,w:28,c:128]                            100,352           conv2d_22   |                                         Nonlinearity_[20]        
------ ----------------------------------------------------- ----------------------- ------------------- ------------ ------------------- --- ----------------- --------------------- ------------------------ 
28     eltwise_28 (Eltwise, ADD)                             [b:1,h:28,w:28,c:128]                            100,352               nl_27   |                                         Eltwise/add_[24]         
                                                                                                                               eltwise_26   | 
------ ----------------------------------------------------- ----------------------- ------------------- ------------ ------------------- --- ----------------- --------------------- ------------------------ 
29     conv2d_29 (Conv2D, CONV_2D)                           [b:1,h:28,w:28,c:64]    8,256/33,024           6,422,592          eltwise_28   |                                         Conv2D_[25]              
------ ----------------------------------------------------- ----------------------- ------------------- ------------ ------------------- --- ----------------- --------------------- ------------------------ 
30     conv2d_30 (Conv2D, CONV_2D)                           [b:1,h:28,w:28,c:128]   8,320/33,280           6,422,656           conv2d_29   |                                         Conv2D_[26]              
------ ----------------------------------------------------- ----------------------- ------------------- ------------ ------------------- --- ----------------- --------------------- ------------------------ 
31     nl_31 (Nonlinearity, ABS)                             [b:1,h:28,w:28,c:128]                            200,704           conv2d_30   |                                         Nonlinearity_[28]        
------ ----------------------------------------------------- ----------------------- ------------------- ------------ ------------------- --- ----------------- --------------------- ------------------------ 
32     eltwise_32 (Eltwise, SUB)                             [b:1,h:28,w:28,c:128]                            100,352           conv2d_30   |                                         Eltwise/sub_[29]         
                                                                                                                                    nl_31   | 
------ ----------------------------------------------------- ----------------------- ------------------- ------------ ------------------- --- ----------------- --------------------- ------------------------ 
33     arith_constant123 (Placeholder, )                     [b:128]                 128/512                                                | -512(-100.0%)                           
       eltwise_33 (Eltwise, MUL)                             [b:1,h:28,w:28,c:128]                            100,352          eltwise_32   |                   -100,352(-100.0%)     
                                                                                                                        arith_constant123   | 
------ ----------------------------------------------------- ----------------------- ------------------- ------------ ------------------- --- ----------------- --------------------- ------------------------ 
34     eltwise_34 (Eltwise, MUL)                             [b:1,h:28,w:28,c:128]                            100,352          eltwise_33   | +1,024(+100.0%)   +100,352(+100.0%)     ScaleBias_[30]           
                                                                                                                        arith_constant119   | 
------ ----------------------------------------------------- ----------------------- ------------------- ------------ ------------------- --- ----------------- --------------------- ------------------------ 
35     nl_35 (Nonlinearity, RELU)                            [b:1,h:28,w:28,c:128]                            100,352           conv2d_30   |                                         Nonlinearity_[27]        
------ ----------------------------------------------------- ----------------------- ------------------- ------------ ------------------- --- ----------------- --------------------- ------------------------ 
36     eltwise_36 (Eltwise, ADD)                             [b:1,h:28,w:28,c:128]                            100,352               nl_35   |                                         Eltwise/add_[31]         
                                                                                                                               eltwise_34   | 
------ ----------------------------------------------------- ----------------------- ------------------- ------------ ------------------- --- ----------------- --------------------- ------------------------ 
37     conv2d_37 (Conv2D, DEPTHWISE_CONV_2D)                 [b:1,h:28,w:28,c:128]   1,280/5,120              903,296          eltwise_36   |                                         Conv2D_[32]              
------ ----------------------------------------------------- ----------------------- ------------------- ------------ ------------------- --- ----------------- --------------------- ------------------------ 
38     nl_38 (Nonlinearity, ABS)                             [b:1,h:28,w:28,c:128]                            200,704           conv2d_37   |                                         Nonlinearity_[34]        
------ ----------------------------------------------------- ----------------------- ------------------- ------------ ------------------- --- ----------------- --------------------- ------------------------ 
39     eltwise_39 (Eltwise, SUB)                             [b:1,h:28,w:28,c:128]                            100,352           conv2d_37   |                                         Eltwise/sub_[35]         
                                                                                                                                    nl_38   | 
------ ----------------------------------------------------- ----------------------- ------------------- ------------ ------------------- --- ----------------- --------------------- ------------------------ 
40     arith_constant110 (Placeholder, )                     [b:128]                 128/512                                                | -512(-100.0%)                           
       eltwise_40 (Eltwise, MUL)                             [b:1,h:28,w:28,c:128]                            100,352          eltwise_39   |                   -100,352(-100.0%)     
                                                                                                                        arith_constant110   | 
------ ----------------------------------------------------- ----------------------- ------------------- ------------ ------------------- --- ----------------- --------------------- ------------------------ 
41     eltwise_41 (Eltwise, MUL)                             [b:1,h:28,w:28,c:128]                            100,352          eltwise_40   | +1,024(+100.0%)   +100,352(+100.0%)     ScaleBias_[36]           
                                                                                                                        arith_constant119   | 
------ ----------------------------------------------------- ----------------------- ------------------- ------------ ------------------- --- ----------------- --------------------- ------------------------ 
42     nl_42 (Nonlinearity, RELU)                            [b:1,h:28,w:28,c:128]                            100,352           conv2d_37   |                                         Nonlinearity_[33]        
------ ----------------------------------------------------- ----------------------- ------------------- ------------ ------------------- --- ----------------- --------------------- ------------------------ 
43     eltwise_43 (Eltwise, ADD)                             [b:1,h:28,w:28,c:128]                            100,352               nl_42   |                                         Eltwise/add_[37]         
                                                                                                                               eltwise_41   | 
------ ----------------------------------------------------- ----------------------- ------------------- ------------ ------------------- --- ----------------- --------------------- ------------------------ 
44     conv2d_44 (Conv2D, CONV_2D)                           [b:1,h:28,w:28,c:64]    8,256/33,024           6,422,592          eltwise_43   |                                         Conv2D_[38]              
------ ----------------------------------------------------- ----------------------- ------------------- ------------ ------------------- --- ----------------- --------------------- ------------------------ 
45     eltwise_45 (Eltwise, ADD)                             [b:1,h:28,w:28,c:64]                              50,176           conv2d_44   |                                         Eltwise/add_[39]         
                                                                                                                                conv2d_29   | 
------ ----------------------------------------------------- ----------------------- ------------------- ------------ ------------------- --- ----------------- --------------------- ------------------------ 
46     conv2d_46 (Conv2D, CONV_2D)                           [b:1,h:28,w:28,c:128]   8,320/33,280           6,422,656          eltwise_45   |                                         Conv2D_[40]              
------ ----------------------------------------------------- ----------------------- ------------------- ------------ ------------------- --- ----------------- --------------------- ------------------------ 
47     nl_47 (Nonlinearity, ABS)                             [b:1,h:28,w:28,c:128]                            200,704           conv2d_46   |                                         Nonlinearity_[42]        
------ ----------------------------------------------------- ----------------------- ------------------- ------------ ------------------- --- ----------------- --------------------- ------------------------ 
48     eltwise_48 (Eltwise, SUB)                             [b:1,h:28,w:28,c:128]                            100,352           conv2d_46   |                                         Eltwise/sub_[43]         
                                                                                                                                    nl_47   | 
------ ----------------------------------------------------- ----------------------- ------------------- ------------ ------------------- --- ----------------- --------------------- ------------------------ 
49     arith_constant122 (Placeholder, )                     [b:128]                 128/512                                                | -512(-100.0%)                           
       eltwise_49 (Eltwise, MUL)                             [b:1,h:28,w:28,c:128]                            100,352          eltwise_48   |                   -100,352(-100.0%)     
                                                                                                                        arith_constant122   | 
------ ----------------------------------------------------- ----------------------- ------------------- ------------ ------------------- --- ----------------- --------------------- ------------------------ 
50     eltwise_50 (Eltwise, MUL)                             [b:1,h:28,w:28,c:128]                            100,352          eltwise_49   | +1,024(+100.0%)   +100,352(+100.0%)     ScaleBias_[44]           
                                                                                                                        arith_constant119   | 
------ ----------------------------------------------------- ----------------------- ------------------- ------------ ------------------- --- ----------------- --------------------- ------------------------ 
51     nl_51 (Nonlinearity, RELU)                            [b:1,h:28,w:28,c:128]                            100,352           conv2d_46   |                                         Nonlinearity_[41]        
------ ----------------------------------------------------- ----------------------- ------------------- ------------ ------------------- --- ----------------- --------------------- ------------------------ 
52     eltwise_52 (Eltwise, ADD)                             [b:1,h:28,w:28,c:128]                            100,352               nl_51   |                                         Eltwise/add_[45]         
                                                                                                                               eltwise_50   | 
------ ----------------------------------------------------- ----------------------- ------------------- ------------ ------------------- --- ----------------- --------------------- ------------------------ 
53     conv2d_53 (Conv2D, DEPTHWISE_CONV_2D)                 [b:1,h:28,w:28,c:128]   1,280/5,120              903,296          eltwise_52   |                                         Conv2D_[46]              
------ ----------------------------------------------------- ----------------------- ------------------- ------------ ------------------- --- ----------------- --------------------- ------------------------ 
54     nl_54 (Nonlinearity, ABS)                             [b:1,h:28,w:28,c:128]                            200,704           conv2d_53   |                                         Nonlinearity_[48]        
------ ----------------------------------------------------- ----------------------- ------------------- ------------ ------------------- --- ----------------- --------------------- ------------------------ 
55     eltwise_55 (Eltwise, SUB)                             [b:1,h:28,w:28,c:128]                            100,352           conv2d_53   |                                         Eltwise/sub_[49]         
                                                                                                                                    nl_54   | 
------ ----------------------------------------------------- ----------------------- ------------------- ------------ ------------------- --- ----------------- --------------------- ------------------------ 
56     arith_constant109 (Placeholder, )                     [b:128]                 128/512                                                | -512(-100.0%)                           
       eltwise_56 (Eltwise, MUL)                             [b:1,h:28,w:28,c:128]                            100,352          eltwise_55   |                   -100,352(-100.0%)     
                                                                                                                        arith_constant109   | 
------ ----------------------------------------------------- ----------------------- ------------------- ------------ ------------------- --- ----------------- --------------------- ------------------------ 
57     eltwise_57 (Eltwise, MUL)                             [b:1,h:28,w:28,c:128]                            100,352          eltwise_56   | +1,024(+100.0%)   +100,352(+100.0%)     ScaleBias_[50]           
                                                                                                                        arith_constant119   | 
------ ----------------------------------------------------- ----------------------- ------------------- ------------ ------------------- --- ----------------- --------------------- ------------------------ 
58     nl_58 (Nonlinearity, RELU)                            [b:1,h:28,w:28,c:128]                            100,352           conv2d_53   |                                         Nonlinearity_[47]        
------ ----------------------------------------------------- ----------------------- ------------------- ------------ ------------------- --- ----------------- --------------------- ------------------------ 
59     eltwise_59 (Eltwise, ADD)                             [b:1,h:28,w:28,c:128]                            100,352               nl_58   |                                         Eltwise/add_[51]         
                                                                                                                               eltwise_57   | 
------ ----------------------------------------------------- ----------------------- ------------------- ------------ ------------------- --- ----------------- --------------------- ------------------------ 
60     conv2d_60 (Conv2D, CONV_2D)                           [b:1,h:28,w:28,c:64]    8,256/33,024           6,422,592          eltwise_59   |                                         Conv2D_[52]              
------ ----------------------------------------------------- ----------------------- ------------------- ------------ ------------------- --- ----------------- --------------------- ------------------------ 
61     eltwise_61 (Eltwise, ADD)                             [b:1,h:28,w:28,c:64]                              50,176           conv2d_60   |                                         Eltwise/add_[53]         
                                                                                                                               eltwise_45   | 
------ ----------------------------------------------------- ----------------------- ------------------- ------------ ------------------- --- ----------------- --------------------- ------------------------ 
62     conv2d_62 (Conv2D, CONV_2D)                           [b:1,h:28,w:28,c:128]   8,320/33,280           6,422,656          eltwise_61   |                                         Conv2D_[54]              
------ ----------------------------------------------------- ----------------------- ------------------- ------------ ------------------- --- ----------------- --------------------- ------------------------ 
63     nl_63 (Nonlinearity, ABS)                             [b:1,h:28,w:28,c:128]                            200,704           conv2d_62   |                                         Nonlinearity_[56]        
------ ----------------------------------------------------- ----------------------- ------------------- ------------ ------------------- --- ----------------- --------------------- ------------------------ 
64     eltwise_64 (Eltwise, SUB)                             [b:1,h:28,w:28,c:128]                            100,352           conv2d_62   |                                         Eltwise/sub_[57]         
                                                                                                                                    nl_63   | 
------ ----------------------------------------------------- ----------------------- ------------------- ------------ ------------------- --- ----------------- --------------------- ------------------------ 
65     arith_constant121 (Placeholder, )                     [b:128]                 128/512                                                | -512(-100.0%)                           
       eltwise_65 (Eltwise, MUL)                             [b:1,h:28,w:28,c:128]                            100,352          eltwise_64   |                   -100,352(-100.0%)     
                                                                                                                        arith_constant121   | 
------ ----------------------------------------------------- ----------------------- ------------------- ------------ ------------------- --- ----------------- --------------------- ------------------------ 
66     eltwise_66 (Eltwise, MUL)                             [b:1,h:28,w:28,c:128]                            100,352          eltwise_65   | +1,024(+100.0%)   +100,352(+100.0%)     ScaleBias_[58]           
                                                                                                                        arith_constant119   | 
------ ----------------------------------------------------- ----------------------- ------------------- ------------ ------------------- --- ----------------- --------------------- ------------------------ 
67     nl_67 (Nonlinearity, RELU)                            [b:1,h:28,w:28,c:128]                            100,352           conv2d_62   |                                         Nonlinearity_[55]        
------ ----------------------------------------------------- ----------------------- ------------------- ------------ ------------------- --- ----------------- --------------------- ------------------------ 
68     eltwise_68 (Eltwise, ADD)                             [b:1,h:28,w:28,c:128]                            100,352               nl_67   |                                         Eltwise/add_[59]         
                                                                                                                               eltwise_66   | 
------ ----------------------------------------------------- ----------------------- ------------------- ------------ ------------------- --- ----------------- --------------------- ------------------------ 
69     conv2d_69 (Conv2D, DEPTHWISE_CONV_2D)                 [b:1,h:28,w:28,c:128]   1,280/5,120              903,296          eltwise_68   |                                         Conv2D_[60]              
------ ----------------------------------------------------- ----------------------- ------------------- ------------ ------------------- --- ----------------- --------------------- ------------------------ 
70     nl_70 (Nonlinearity, ABS)                             [b:1,h:28,w:28,c:128]                            200,704           conv2d_69   |                                         Nonlinearity_[62]        
------ ----------------------------------------------------- ----------------------- ------------------- ------------ ------------------- --- ----------------- --------------------- ------------------------ 
71     eltwise_71 (Eltwise, SUB)                             [b:1,h:28,w:28,c:128]                            100,352           conv2d_69   |                                         Eltwise/sub_[63]         
                                                                                                                                    nl_70   | 
------ ----------------------------------------------------- ----------------------- ------------------- ------------ ------------------- --- ----------------- --------------------- ------------------------ 
72     arith_constant108 (Placeholder, )                     [b:128]                 128/512                                                | -512(-100.0%)                           
       eltwise_72 (Eltwise, MUL)                             [b:1,h:28,w:28,c:128]                            100,352          eltwise_71   |                   -100,352(-100.0%)     
                                                                                                                        arith_constant108   | 
------ ----------------------------------------------------- ----------------------- ------------------- ------------ ------------------- --- ----------------- --------------------- ------------------------ 
73     eltwise_73 (Eltwise, MUL)                             [b:1,h:28,w:28,c:128]                            100,352          eltwise_72   | +1,024(+100.0%)   +100,352(+100.0%)     ScaleBias_[64]           
                                                                                                                        arith_constant119   | 
------ ----------------------------------------------------- ----------------------- ------------------- ------------ ------------------- --- ----------------- --------------------- ------------------------ 
74     nl_74 (Nonlinearity, RELU)                            [b:1,h:28,w:28,c:128]                            100,352           conv2d_69   |                                         Nonlinearity_[61]        
------ ----------------------------------------------------- ----------------------- ------------------- ------------ ------------------- --- ----------------- --------------------- ------------------------ 
75     eltwise_75 (Eltwise, ADD)                             [b:1,h:28,w:28,c:128]                            100,352               nl_74   |                                         Eltwise/add_[65]         
                                                                                                                               eltwise_73   | 
------ ----------------------------------------------------- ----------------------- ------------------- ------------ ------------------- --- ----------------- --------------------- ------------------------ 
76     conv2d_76 (Conv2D, CONV_2D)                           [b:1,h:28,w:28,c:64]    8,256/33,024           6,422,592          eltwise_75   |                                         Conv2D_[66]              
------ ----------------------------------------------------- ----------------------- ------------------- ------------ ------------------- --- ----------------- --------------------- ------------------------ 
77     eltwise_77 (Eltwise, ADD)                             [b:1,h:28,w:28,c:64]                              50,176           conv2d_76   |                                         Eltwise/add_[67]         
                                                                                                                               eltwise_61   | 
------ ----------------------------------------------------- ----------------------- ------------------- ------------ ------------------- --- ----------------- --------------------- ------------------------ 
78     conv2d_78 (Conv2D, CONV_2D)                           [b:1,h:28,w:28,c:128]   8,320/33,280           6,422,656          eltwise_77   |                                         Conv2D_[68]              
------ ----------------------------------------------------- ----------------------- ------------------- ------------ ------------------- --- ----------------- --------------------- ------------------------ 
79     nl_79 (Nonlinearity, ABS)                             [b:1,h:28,w:28,c:128]                            200,704           conv2d_78   |                                         Nonlinearity_[70]        
------ ----------------------------------------------------- ----------------------- ------------------- ------------ ------------------- --- ----------------- --------------------- ------------------------ 
80     eltwise_80 (Eltwise, SUB)                             [b:1,h:28,w:28,c:128]                            100,352           conv2d_78   |                                         Eltwise/sub_[71]         
                                                                                                                                    nl_79   | 
------ ----------------------------------------------------- ----------------------- ------------------- ------------ ------------------- --- ----------------- --------------------- ------------------------ 
81     arith_constant120 (Placeholder, )                     [b:128]                 128/512                                                | -512(-100.0%)                           
       eltwise_81 (Eltwise, MUL)                             [b:1,h:28,w:28,c:128]                            100,352          eltwise_80   |                   -100,352(-100.0%)     
                                                                                                                        arith_constant120   | 
------ ----------------------------------------------------- ----------------------- ------------------- ------------ ------------------- --- ----------------- --------------------- ------------------------ 
82     eltwise_82 (Eltwise, MUL)                             [b:1,h:28,w:28,c:128]                            100,352          eltwise_81   | +1,024(+100.0%)   +100,352(+100.0%)     ScaleBias_[72]           
                                                                                                                        arith_constant119   | 
------ ----------------------------------------------------- ----------------------- ------------------- ------------ ------------------- --- ----------------- --------------------- ------------------------ 
83     nl_83 (Nonlinearity, RELU)                            [b:1,h:28,w:28,c:128]                            100,352           conv2d_78   |                                         Nonlinearity_[69]        
------ ----------------------------------------------------- ----------------------- ------------------- ------------ ------------------- --- ----------------- --------------------- ------------------------ 
84     eltwise_84 (Eltwise, ADD)                             [b:1,h:28,w:28,c:128]                            100,352               nl_83   |                                         Eltwise/add_[73]         
                                                                                                                               eltwise_82   | 
------ ----------------------------------------------------- ----------------------- ------------------- ------------ ------------------- --- ----------------- --------------------- ------------------------ 
85     conv2d_85 (Conv2D, DEPTHWISE_CONV_2D)                 [b:1,h:28,w:28,c:128]   1,280/5,120              903,296          eltwise_84   |                                         Conv2D_[74]              
------ ----------------------------------------------------- ----------------------- ------------------- ------------ ------------------- --- ----------------- --------------------- ------------------------ 
86     nl_86 (Nonlinearity, ABS)                             [b:1,h:28,w:28,c:128]                            200,704           conv2d_85   |                                         Nonlinearity_[76]        
------ ----------------------------------------------------- ----------------------- ------------------- ------------ ------------------- --- ----------------- --------------------- ------------------------ 
87     eltwise_87 (Eltwise, SUB)                             [b:1,h:28,w:28,c:128]                            100,352           conv2d_85   |                                         Eltwise/sub_[77]         
                                                                                                                                    nl_86   | 
------ ----------------------------------------------------- ----------------------- ------------------- ------------ ------------------- --- ----------------- --------------------- ------------------------ 
88     arith_constant107 (Placeholder, )                     [b:128]                 128/512                                                | -512(-100.0%)                           
       eltwise_88 (Eltwise, MUL)                             [b:1,h:28,w:28,c:128]                            100,352          eltwise_87   |                   -100,352(-100.0%)     
                                                                                                                        arith_constant107   | 
------ ----------------------------------------------------- ----------------------- ------------------- ------------ ------------------- --- ----------------- --------------------- ------------------------ 
89     eltwise_89 (Eltwise, MUL)                             [b:1,h:28,w:28,c:128]                            100,352          eltwise_88   | +1,024(+100.0%)   +100,352(+100.0%)     ScaleBias_[78]           
                                                                                                                        arith_constant119   | 
------ ----------------------------------------------------- ----------------------- ------------------- ------------ ------------------- --- ----------------- --------------------- ------------------------ 
90     nl_90 (Nonlinearity, RELU)                            [b:1,h:28,w:28,c:128]                            100,352           conv2d_85   |                                         Nonlinearity_[75]        
------ ----------------------------------------------------- ----------------------- ------------------- ------------ ------------------- --- ----------------- --------------------- ------------------------ 
91     eltwise_91 (Eltwise, ADD)                             [b:1,h:28,w:28,c:128]                            100,352               nl_90   |                                         Eltwise/add_[79]         
                                                                                                                               eltwise_89   | 
------ ----------------------------------------------------- ----------------------- ------------------- ------------ ------------------- --- ----------------- --------------------- ------------------------ 
92     conv2d_92 (Conv2D, CONV_2D)                           [b:1,h:28,w:28,c:64]    8,256/33,024           6,422,592          eltwise_91   |                                         Conv2D_[80]              
------ ----------------------------------------------------- ----------------------- ------------------- ------------ ------------------- --- ----------------- --------------------- ------------------------ 
93     eltwise_93 (Eltwise, ADD)                             [b:1,h:28,w:28,c:64]                              50,176           conv2d_92   |                                         Eltwise/add_[81]         
                                                                                                                               eltwise_77   | 
------ ----------------------------------------------------- ----------------------- ------------------- ------------ ------------------- --- ----------------- --------------------- ------------------------ 
94     conv2d_94 (Conv2D, CONV_2D)                           [b:1,h:28,w:28,c:256]   16,640/66,560         12,845,312          eltwise_93   |                                         Conv2D_[82]              
------ ----------------------------------------------------- ----------------------- ------------------- ------------ ------------------- --- ----------------- --------------------- ------------------------ 
95     nl_95 (Nonlinearity, ABS)                             [b:1,h:28,w:28,c:256]                            401,408           conv2d_94   |                                         Nonlinearity_[84]        
------ ----------------------------------------------------- ----------------------- ------------------- ------------ ------------------- --- ----------------- --------------------- ------------------------ 
96     eltwise_96 (Eltwise, SUB)                             [b:1,h:28,w:28,c:256]                            200,704           conv2d_94   |                                         Eltwise/sub_[85]         
                                                                                                                                    nl_95   | 
------ ----------------------------------------------------- ----------------------- ------------------- ------------ ------------------- --- ----------------- --------------------- ------------------------ 
97     arith_constant133 (Placeholder, )                     [b:256]                 256/1,024                                              | -1,024(-100.0%)                         
       eltwise_97 (Eltwise, MUL)                             [b:1,h:28,w:28,c:256]                            200,704          eltwise_96   |                   -200,704(-100.0%)     
                                                                                                                        arith_constant133   | 
------ ----------------------------------------------------- ----------------------- ------------------- ------------ ------------------- --- ----------------- --------------------- ------------------------ 
98     eltwise_98 (Eltwise, MUL)                             [b:1,h:28,w:28,c:256]                            200,704          eltwise_97   | +2,048(+100.0%)   +200,704(+100.0%)     ScaleBias_[86]           
                                                                                                                        arith_constant119   | 
------ ----------------------------------------------------- ----------------------- ------------------- ------------ ------------------- --- ----------------- --------------------- ------------------------ 
99     nl_99 (Nonlinearity, RELU)                            [b:1,h:28,w:28,c:256]                            200,704           conv2d_94   |                                         Nonlinearity_[83]        
------ ----------------------------------------------------- ----------------------- ------------------- ------------ ------------------- --- ----------------- --------------------- ------------------------ 
100    eltwise_100 (Eltwise, ADD)                            [b:1,h:28,w:28,c:256]                            200,704               nl_99   |                                         Eltwise/add_[87]         
                                                                                                                               eltwise_98   | 
------ ----------------------------------------------------- ----------------------- ------------------- ------------ ------------------- --- ----------------- --------------------- ------------------------ 
101    conv2d_101 (Conv2D, DEPTHWISE_CONV_2D)                [b:1,h:14,w:14,c:256]   2,560/10,240             451,840         eltwise_100   |                                         Conv2D_[88]              
------ ----------------------------------------------------- ----------------------- ------------------- ------------ ------------------- --- ----------------- --------------------- ------------------------ 
102    nl_102 (Nonlinearity, ABS)                            [b:1,h:14,w:14,c:256]                            100,352          conv2d_101   |                                         Nonlinearity_[90]        
------ ----------------------------------------------------- ----------------------- ------------------- ------------ ------------------- --- ----------------- --------------------- ------------------------ 
103    eltwise_103 (Eltwise, SUB)                            [b:1,h:14,w:14,c:256]                             50,176          conv2d_101   |                                         Eltwise/sub_[91]         
                                                                                                                                   nl_102   | 
------ ----------------------------------------------------- ----------------------- ------------------- ------------ ------------------- --- ----------------- --------------------- ------------------------ 
104    arith_constant106 (Placeholder, )                     [b:256]                 256/1,024                                              | -1,024(-100.0%)                         
       eltwise_104 (Eltwise, MUL)                            [b:1,h:14,w:14,c:256]                             50,176         eltwise_103   |                   -50,176(-100.0%)      
                                                                                                                        arith_constant106   | 
------ ----------------------------------------------------- ----------------------- ------------------- ------------ ------------------- --- ----------------- --------------------- ------------------------ 
105    eltwise_105 (Eltwise, MUL)                            [b:1,h:14,w:14,c:256]                             50,176         eltwise_104   | +2,048(+100.0%)   +50,176(+100.0%)      ScaleBias_[92]           
                                                                                                                        arith_constant119   | 
------ ----------------------------------------------------- ----------------------- ------------------- ------------ ------------------- --- ----------------- --------------------- ------------------------ 
106    nl_106 (Nonlinearity, RELU)                           [b:1,h:14,w:14,c:256]                             50,176          conv2d_101   |                                         Nonlinearity_[89]        
------ ----------------------------------------------------- ----------------------- ------------------- ------------ ------------------- --- ----------------- --------------------- ------------------------ 
107    eltwise_107 (Eltwise, ADD)                            [b:1,h:14,w:14,c:256]                             50,176              nl_106   |                                         Eltwise/add_[93]         
                                                                                                                              eltwise_105   | 
------ ----------------------------------------------------- ----------------------- ------------------- ------------ ------------------- --- ----------------- --------------------- ------------------------ 
108    conv2d_108 (Conv2D, CONV_2D)                          [b:1,h:14,w:14,c:128]   32,896/131,584         6,422,656         eltwise_107   |                                         Conv2D_[94]              
------ ----------------------------------------------------- ----------------------- ------------------- ------------ ------------------- --- ----------------- --------------------- ------------------------ 
109    conv2d_109 (Conv2D, CONV_2D)                          [b:1,h:14,w:14,c:256]   33,024/132,096         6,422,784          conv2d_108   |                                         Conv2D_[95]              
------ ----------------------------------------------------- ----------------------- ------------------- ------------ ------------------- --- ----------------- --------------------- ------------------------ 
110    nl_110 (Nonlinearity, ABS)                            [b:1,h:14,w:14,c:256]                            100,352          conv2d_109   |                                         Nonlinearity_[97]        
------ ----------------------------------------------------- ----------------------- ------------------- ------------ ------------------- --- ----------------- --------------------- ------------------------ 
111    eltwise_111 (Eltwise, SUB)                            [b:1,h:14,w:14,c:256]                             50,176          conv2d_109   |                                         Eltwise/sub_[98]         
                                                                                                                                   nl_110   | 
------ ----------------------------------------------------- ----------------------- ------------------- ------------ ------------------- --- ----------------- --------------------- ------------------------ 
112    arith_constant132 (Placeholder, )                     [b:256]                 256/1,024                                              | -1,024(-100.0%)                         
       eltwise_112 (Eltwise, MUL)                            [b:1,h:14,w:14,c:256]                             50,176         eltwise_111   |                   -50,176(-100.0%)      
                                                                                                                        arith_constant132   | 
------ ----------------------------------------------------- ----------------------- ------------------- ------------ ------------------- --- ----------------- --------------------- ------------------------ 
113    eltwise_113 (Eltwise, MUL)                            [b:1,h:14,w:14,c:256]                             50,176         eltwise_112   | +2,048(+100.0%)   +50,176(+100.0%)      ScaleBias_[99]           
                                                                                                                        arith_constant119   | 
------ ----------------------------------------------------- ----------------------- ------------------- ------------ ------------------- --- ----------------- --------------------- ------------------------ 
114    nl_114 (Nonlinearity, RELU)                           [b:1,h:14,w:14,c:256]                             50,176          conv2d_109   |                                         Nonlinearity_[96]        
------ ----------------------------------------------------- ----------------------- ------------------- ------------ ------------------- --- ----------------- --------------------- ------------------------ 
115    eltwise_115 (Eltwise, ADD)                            [b:1,h:14,w:14,c:256]                             50,176              nl_114   |                                         Eltwise/add_[100]        
                                                                                                                              eltwise_113   | 
------ ----------------------------------------------------- ----------------------- ------------------- ------------ ------------------- --- ----------------- --------------------- ------------------------ 
116    conv2d_116 (Conv2D, DEPTHWISE_CONV_2D)                [b:1,h:14,w:14,c:256]   2,560/10,240             451,840         eltwise_115   |                                         Conv2D_[101]             
------ ----------------------------------------------------- ----------------------- ------------------- ------------ ------------------- --- ----------------- --------------------- ------------------------ 
117    nl_117 (Nonlinearity, ABS)                            [b:1,h:14,w:14,c:256]                            100,352          conv2d_116   |                                         Nonlinearity_[103]       
------ ----------------------------------------------------- ----------------------- ------------------- ------------ ------------------- --- ----------------- --------------------- ------------------------ 
118    eltwise_118 (Eltwise, SUB)                            [b:1,h:14,w:14,c:256]                             50,176          conv2d_116   |                                         Eltwise/sub_[104]        
                                                                                                                                   nl_117   | 
------ ----------------------------------------------------- ----------------------- ------------------- ------------ ------------------- --- ----------------- --------------------- ------------------------ 
119    arith_constant105 (Placeholder, )                     [b:256]                 256/1,024                                              | -1,024(-100.0%)                         
       eltwise_119 (Eltwise, MUL)                            [b:1,h:14,w:14,c:256]                             50,176         eltwise_118   |                   -50,176(-100.0%)      
                                                                                                                        arith_constant105   | 
------ ----------------------------------------------------- ----------------------- ------------------- ------------ ------------------- --- ----------------- --------------------- ------------------------ 
120    eltwise_120 (Eltwise, MUL)                            [b:1,h:14,w:14,c:256]                             50,176         eltwise_119   | +2,048(+100.0%)   +50,176(+100.0%)      ScaleBias_[105]          
                                                                                                                        arith_constant119   | 
------ ----------------------------------------------------- ----------------------- ------------------- ------------ ------------------- --- ----------------- --------------------- ------------------------ 
121    nl_121 (Nonlinearity, RELU)                           [b:1,h:14,w:14,c:256]                             50,176          conv2d_116   |                                         Nonlinearity_[102]       
------ ----------------------------------------------------- ----------------------- ------------------- ------------ ------------------- --- ----------------- --------------------- ------------------------ 
122    eltwise_122 (Eltwise, ADD)                            [b:1,h:14,w:14,c:256]                             50,176              nl_121   |                                         Eltwise/add_[106]        
                                                                                                                              eltwise_120   | 
------ ----------------------------------------------------- ----------------------- ------------------- ------------ ------------------- --- ----------------- --------------------- ------------------------ 
123    conv2d_123 (Conv2D, CONV_2D)                          [b:1,h:14,w:14,c:128]   32,896/131,584         6,422,656         eltwise_122   |                                         Conv2D_[107]             
------ ----------------------------------------------------- ----------------------- ------------------- ------------ ------------------- --- ----------------- --------------------- ------------------------ 
124    eltwise_124 (Eltwise, ADD)                            [b:1,h:14,w:14,c:128]                             25,088          conv2d_123   |                                         Eltwise/add_[108]        
                                                                                                                               conv2d_108   | 
------ ----------------------------------------------------- ----------------------- ------------------- ------------ ------------------- --- ----------------- --------------------- ------------------------ 
125    conv2d_125 (Conv2D, CONV_2D)                          [b:1,h:14,w:14,c:256]   33,024/132,096         6,422,784         eltwise_124   |                                         Conv2D_[109]             
------ ----------------------------------------------------- ----------------------- ------------------- ------------ ------------------- --- ----------------- --------------------- ------------------------ 
126    nl_126 (Nonlinearity, ABS)                            [b:1,h:14,w:14,c:256]                            100,352          conv2d_125   |                                         Nonlinearity_[111]       
------ ----------------------------------------------------- ----------------------- ------------------- ------------ ------------------- --- ----------------- --------------------- ------------------------ 
127    eltwise_127 (Eltwise, SUB)                            [b:1,h:14,w:14,c:256]                             50,176          conv2d_125   |                                         Eltwise/sub_[112]        
                                                                                                                                   nl_126   | 
------ ----------------------------------------------------- ----------------------- ------------------- ------------ ------------------- --- ----------------- --------------------- ------------------------ 
128    arith_constant131 (Placeholder, )                     [b:256]                 256/1,024                                              | -1,024(-100.0%)                         
       eltwise_128 (Eltwise, MUL)                            [b:1,h:14,w:14,c:256]                             50,176         eltwise_127   |                   -50,176(-100.0%)      
                                                                                                                        arith_constant131   | 
------ ----------------------------------------------------- ----------------------- ------------------- ------------ ------------------- --- ----------------- --------------------- ------------------------ 
129    eltwise_129 (Eltwise, MUL)                            [b:1,h:14,w:14,c:256]                             50,176         eltwise_128   | +2,048(+100.0%)   +50,176(+100.0%)      ScaleBias_[113]          
                                                                                                                        arith_constant119   | 
------ ----------------------------------------------------- ----------------------- ------------------- ------------ ------------------- --- ----------------- --------------------- ------------------------ 
130    nl_130 (Nonlinearity, RELU)                           [b:1,h:14,w:14,c:256]                             50,176          conv2d_125   |                                         Nonlinearity_[110]       
------ ----------------------------------------------------- ----------------------- ------------------- ------------ ------------------- --- ----------------- --------------------- ------------------------ 
131    eltwise_131 (Eltwise, ADD)                            [b:1,h:14,w:14,c:256]                             50,176              nl_130   |                                         Eltwise/add_[114]        
                                                                                                                              eltwise_129   | 
------ ----------------------------------------------------- ----------------------- ------------------- ------------ ------------------- --- ----------------- --------------------- ------------------------ 
132    conv2d_132 (Conv2D, DEPTHWISE_CONV_2D)                [b:1,h:14,w:14,c:256]   2,560/10,240             451,840         eltwise_131   |                                         Conv2D_[115]             
------ ----------------------------------------------------- ----------------------- ------------------- ------------ ------------------- --- ----------------- --------------------- ------------------------ 
133    nl_133 (Nonlinearity, ABS)                            [b:1,h:14,w:14,c:256]                            100,352          conv2d_132   |                                         Nonlinearity_[117]       
------ ----------------------------------------------------- ----------------------- ------------------- ------------ ------------------- --- ----------------- --------------------- ------------------------ 
134    eltwise_134 (Eltwise, SUB)                            [b:1,h:14,w:14,c:256]                             50,176          conv2d_132   |                                         Eltwise/sub_[118]        
                                                                                                                                   nl_133   | 
------ ----------------------------------------------------- ----------------------- ------------------- ------------ ------------------- --- ----------------- --------------------- ------------------------ 
135    arith_constant104 (Placeholder, )                     [b:256]                 256/1,024                                              | -1,024(-100.0%)                         
       eltwise_135 (Eltwise, MUL)                            [b:1,h:14,w:14,c:256]                             50,176         eltwise_134   |                   -50,176(-100.0%)      
                                                                                                                        arith_constant104   | 
------ ----------------------------------------------------- ----------------------- ------------------- ------------ ------------------- --- ----------------- --------------------- ------------------------ 
136    eltwise_136 (Eltwise, MUL)                            [b:1,h:14,w:14,c:256]                             50,176         eltwise_135   | +2,048(+100.0%)   +50,176(+100.0%)      ScaleBias_[119]          
                                                                                                                        arith_constant119   | 
------ ----------------------------------------------------- ----------------------- ------------------- ------------ ------------------- --- ----------------- --------------------- ------------------------ 
137    nl_137 (Nonlinearity, RELU)                           [b:1,h:14,w:14,c:256]                             50,176          conv2d_132   |                                         Nonlinearity_[116]       
------ ----------------------------------------------------- ----------------------- ------------------- ------------ ------------------- --- ----------------- --------------------- ------------------------ 
138    eltwise_138 (Eltwise, ADD)                            [b:1,h:14,w:14,c:256]                             50,176              nl_137   |                                         Eltwise/add_[120]        
                                                                                                                              eltwise_136   | 
------ ----------------------------------------------------- ----------------------- ------------------- ------------ ------------------- --- ----------------- --------------------- ------------------------ 
139    conv2d_139 (Conv2D, CONV_2D)                          [b:1,h:14,w:14,c:128]   32,896/131,584         6,422,656         eltwise_138   |                                         Conv2D_[121]             
------ ----------------------------------------------------- ----------------------- ------------------- ------------ ------------------- --- ----------------- --------------------- ------------------------ 
140    eltwise_140 (Eltwise, ADD)                            [b:1,h:14,w:14,c:128]                             25,088          conv2d_139   |                                         Eltwise/add_[122]        
                                                                                                                              eltwise_124   | 
------ ----------------------------------------------------- ----------------------- ------------------- ------------ ------------------- --- ----------------- --------------------- ------------------------ 
141    conv2d_141 (Conv2D, CONV_2D)                          [b:1,h:14,w:14,c:256]   33,024/132,096         6,422,784         eltwise_140   |                                         Conv2D_[123]             
------ ----------------------------------------------------- ----------------------- ------------------- ------------ ------------------- --- ----------------- --------------------- ------------------------ 
142    nl_142 (Nonlinearity, ABS)                            [b:1,h:14,w:14,c:256]                            100,352          conv2d_141   |                                         Nonlinearity_[125]       
------ ----------------------------------------------------- ----------------------- ------------------- ------------ ------------------- --- ----------------- --------------------- ------------------------ 
143    eltwise_143 (Eltwise, SUB)                            [b:1,h:14,w:14,c:256]                             50,176          conv2d_141   |                                         Eltwise/sub_[126]        
                                                                                                                                   nl_142   | 
------ ----------------------------------------------------- ----------------------- ------------------- ------------ ------------------- --- ----------------- --------------------- ------------------------ 
144    arith_constant130 (Placeholder, )                     [b:256]                 256/1,024                                              | -1,024(-100.0%)                         
       eltwise_144 (Eltwise, MUL)                            [b:1,h:14,w:14,c:256]                             50,176         eltwise_143   |                   -50,176(-100.0%)      
                                                                                                                        arith_constant130   | 
------ ----------------------------------------------------- ----------------------- ------------------- ------------ ------------------- --- ----------------- --------------------- ------------------------ 
145    eltwise_145 (Eltwise, MUL)                            [b:1,h:14,w:14,c:256]                             50,176         eltwise_144   | +2,048(+100.0%)   +50,176(+100.0%)      ScaleBias_[127]          
                                                                                                                        arith_constant119   | 
------ ----------------------------------------------------- ----------------------- ------------------- ------------ ------------------- --- ----------------- --------------------- ------------------------ 
146    nl_146 (Nonlinearity, RELU)                           [b:1,h:14,w:14,c:256]                             50,176          conv2d_141   |                                         Nonlinearity_[124]       
------ ----------------------------------------------------- ----------------------- ------------------- ------------ ------------------- --- ----------------- --------------------- ------------------------ 
147    eltwise_147 (Eltwise, ADD)                            [b:1,h:14,w:14,c:256]                             50,176              nl_146   |                                         Eltwise/add_[128]        
                                                                                                                              eltwise_145   | 
------ ----------------------------------------------------- ----------------------- ------------------- ------------ ------------------- --- ----------------- --------------------- ------------------------ 
148    conv2d_148 (Conv2D, DEPTHWISE_CONV_2D)                [b:1,h:14,w:14,c:256]   2,560/10,240             451,840         eltwise_147   |                                         Conv2D_[129]             
------ ----------------------------------------------------- ----------------------- ------------------- ------------ ------------------- --- ----------------- --------------------- ------------------------ 
149    nl_149 (Nonlinearity, ABS)                            [b:1,h:14,w:14,c:256]                            100,352          conv2d_148   |                                         Nonlinearity_[131]       
------ ----------------------------------------------------- ----------------------- ------------------- ------------ ------------------- --- ----------------- --------------------- ------------------------ 
150    eltwise_150 (Eltwise, SUB)                            [b:1,h:14,w:14,c:256]                             50,176          conv2d_148   |                                         Eltwise/sub_[132]        
                                                                                                                                   nl_149   | 
------ ----------------------------------------------------- ----------------------- ------------------- ------------ ------------------- --- ----------------- --------------------- ------------------------ 
151    arith_constant103 (Placeholder, )                     [b:256]                 256/1,024                                              | -1,024(-100.0%)                         
       eltwise_151 (Eltwise, MUL)                            [b:1,h:14,w:14,c:256]                             50,176         eltwise_150   |                   -50,176(-100.0%)      
                                                                                                                        arith_constant103   | 
------ ----------------------------------------------------- ----------------------- ------------------- ------------ ------------------- --- ----------------- --------------------- ------------------------ 
152    eltwise_152 (Eltwise, MUL)                            [b:1,h:14,w:14,c:256]                             50,176         eltwise_151   | +2,048(+100.0%)   +50,176(+100.0%)      ScaleBias_[133]          
                                                                                                                        arith_constant119   | 
------ ----------------------------------------------------- ----------------------- ------------------- ------------ ------------------- --- ----------------- --------------------- ------------------------ 
153    nl_153 (Nonlinearity, RELU)                           [b:1,h:14,w:14,c:256]                             50,176          conv2d_148   |                                         Nonlinearity_[130]       
------ ----------------------------------------------------- ----------------------- ------------------- ------------ ------------------- --- ----------------- --------------------- ------------------------ 
154    eltwise_154 (Eltwise, ADD)                            [b:1,h:14,w:14,c:256]                             50,176              nl_153   |                                         Eltwise/add_[134]        
                                                                                                                              eltwise_152   | 
------ ----------------------------------------------------- ----------------------- ------------------- ------------ ------------------- --- ----------------- --------------------- ------------------------ 
155    conv2d_155 (Conv2D, CONV_2D)                          [b:1,h:14,w:14,c:128]   32,896/131,584         6,422,656         eltwise_154   |                                         Conv2D_[135]             
------ ----------------------------------------------------- ----------------------- ------------------- ------------ ------------------- --- ----------------- --------------------- ------------------------ 
156    eltwise_156 (Eltwise, ADD)                            [b:1,h:14,w:14,c:128]                             25,088          conv2d_155   |                                         Eltwise/add_[136]        
                                                                                                                              eltwise_140   | 
------ ----------------------------------------------------- ----------------------- ------------------- ------------ ------------------- --- ----------------- --------------------- ------------------------ 
157    conv2d_157 (Conv2D, CONV_2D)                          [b:1,h:14,w:14,c:256]   33,024/132,096         6,422,784         eltwise_156   |                                         Conv2D_[137]             
------ ----------------------------------------------------- ----------------------- ------------------- ------------ ------------------- --- ----------------- --------------------- ------------------------ 
158    nl_158 (Nonlinearity, ABS)                            [b:1,h:14,w:14,c:256]                            100,352          conv2d_157   |                                         Nonlinearity_[139]       
------ ----------------------------------------------------- ----------------------- ------------------- ------------ ------------------- --- ----------------- --------------------- ------------------------ 
159    eltwise_159 (Eltwise, SUB)                            [b:1,h:14,w:14,c:256]                             50,176          conv2d_157   |                                         Eltwise/sub_[140]        
                                                                                                                                   nl_158   | 
------ ----------------------------------------------------- ----------------------- ------------------- ------------ ------------------- --- ----------------- --------------------- ------------------------ 
160    arith_constant129 (Placeholder, )                     [b:256]                 256/1,024                                              | -1,024(-100.0%)                         
       eltwise_160 (Eltwise, MUL)                            [b:1,h:14,w:14,c:256]                             50,176         eltwise_159   |                   -50,176(-100.0%)      
                                                                                                                        arith_constant129   | 
------ ----------------------------------------------------- ----------------------- ------------------- ------------ ------------------- --- ----------------- --------------------- ------------------------ 
161    eltwise_161 (Eltwise, MUL)                            [b:1,h:14,w:14,c:256]                             50,176         eltwise_160   | +2,048(+100.0%)   +50,176(+100.0%)      ScaleBias_[141]          
                                                                                                                        arith_constant119   | 
------ ----------------------------------------------------- ----------------------- ------------------- ------------ ------------------- --- ----------------- --------------------- ------------------------ 
162    nl_162 (Nonlinearity, RELU)                           [b:1,h:14,w:14,c:256]                             50,176          conv2d_157   |                                         Nonlinearity_[138]       
------ ----------------------------------------------------- ----------------------- ------------------- ------------ ------------------- --- ----------------- --------------------- ------------------------ 
163    eltwise_163 (Eltwise, ADD)                            [b:1,h:14,w:14,c:256]                             50,176              nl_162   |                                         Eltwise/add_[142]        
                                                                                                                              eltwise_161   | 
------ ----------------------------------------------------- ----------------------- ------------------- ------------ ------------------- --- ----------------- --------------------- ------------------------ 
164    conv2d_164 (Conv2D, DEPTHWISE_CONV_2D)                [b:1,h:14,w:14,c:256]   2,560/10,240             451,840         eltwise_163   |                                         Conv2D_[143]             
------ ----------------------------------------------------- ----------------------- ------------------- ------------ ------------------- --- ----------------- --------------------- ------------------------ 
165    nl_165 (Nonlinearity, ABS)                            [b:1,h:14,w:14,c:256]                            100,352          conv2d_164   |                                         Nonlinearity_[145]       
------ ----------------------------------------------------- ----------------------- ------------------- ------------ ------------------- --- ----------------- --------------------- ------------------------ 
166    eltwise_166 (Eltwise, SUB)                            [b:1,h:14,w:14,c:256]                             50,176          conv2d_164   |                                         Eltwise/sub_[146]        
                                                                                                                                   nl_165   | 
------ ----------------------------------------------------- ----------------------- ------------------- ------------ ------------------- --- ----------------- --------------------- ------------------------ 
167    arith_constant116 (Placeholder, )                     [b:256]                 256/1,024                                              | -1,024(-100.0%)                         
       eltwise_167 (Eltwise, MUL)                            [b:1,h:14,w:14,c:256]                             50,176         eltwise_166   |                   -50,176(-100.0%)      
                                                                                                                        arith_constant116   | 
------ ----------------------------------------------------- ----------------------- ------------------- ------------ ------------------- --- ----------------- --------------------- ------------------------ 
168    eltwise_168 (Eltwise, MUL)                            [b:1,h:14,w:14,c:256]                             50,176         eltwise_167   | +2,048(+100.0%)   +50,176(+100.0%)      ScaleBias_[147]          
                                                                                                                        arith_constant119   | 
------ ----------------------------------------------------- ----------------------- ------------------- ------------ ------------------- --- ----------------- --------------------- ------------------------ 
169    nl_169 (Nonlinearity, RELU)                           [b:1,h:14,w:14,c:256]                             50,176          conv2d_164   |                                         Nonlinearity_[144]       
------ ----------------------------------------------------- ----------------------- ------------------- ------------ ------------------- --- ----------------- --------------------- ------------------------ 
170    eltwise_170 (Eltwise, ADD)                            [b:1,h:14,w:14,c:256]                             50,176              nl_169   |                                         Eltwise/add_[148]        
                                                                                                                              eltwise_168   | 
------ ----------------------------------------------------- ----------------------- ------------------- ------------ ------------------- --- ----------------- --------------------- ------------------------ 
171    conv2d_171 (Conv2D, CONV_2D)                          [b:1,h:14,w:14,c:128]   32,896/131,584         6,422,656         eltwise_170   |                                         Conv2D_[149]             
------ ----------------------------------------------------- ----------------------- ------------------- ------------ ------------------- --- ----------------- --------------------- ------------------------ 
172    eltwise_172 (Eltwise, ADD)                            [b:1,h:14,w:14,c:128]                             25,088          conv2d_171   |                                         Eltwise/add_[150]        
                                                                                                                              eltwise_156   | 
------ ----------------------------------------------------- ----------------------- ------------------- ------------ ------------------- --- ----------------- --------------------- ------------------------ 
173    conv2d_173 (Conv2D, CONV_2D)                          [b:1,h:14,w:14,c:256]   33,024/132,096         6,422,784         eltwise_172   |                                         Conv2D_[151]             
------ ----------------------------------------------------- ----------------------- ------------------- ------------ ------------------- --- ----------------- --------------------- ------------------------ 
174    nl_174 (Nonlinearity, ABS)                            [b:1,h:14,w:14,c:256]                            100,352          conv2d_173   |                                         Nonlinearity_[153]       
------ ----------------------------------------------------- ----------------------- ------------------- ------------ ------------------- --- ----------------- --------------------- ------------------------ 
175    eltwise_175 (Eltwise, SUB)                            [b:1,h:14,w:14,c:256]                             50,176          conv2d_173   |                                         Eltwise/sub_[154]        
                                                                                                                                   nl_174   | 
------ ----------------------------------------------------- ----------------------- ------------------- ------------ ------------------- --- ----------------- --------------------- ------------------------ 
176    arith_constant128 (Placeholder, )                     [b:256]                 256/1,024                                              | -1,024(-100.0%)                         
       eltwise_176 (Eltwise, MUL)                            [b:1,h:14,w:14,c:256]                             50,176         eltwise_175   |                   -50,176(-100.0%)      
                                                                                                                        arith_constant128   | 
------ ----------------------------------------------------- ----------------------- ------------------- ------------ ------------------- --- ----------------- --------------------- ------------------------ 
177    eltwise_177 (Eltwise, MUL)                            [b:1,h:14,w:14,c:256]                             50,176         eltwise_176   | +2,048(+100.0%)   +50,176(+100.0%)      ScaleBias_[155]          
                                                                                                                        arith_constant119   | 
------ ----------------------------------------------------- ----------------------- ------------------- ------------ ------------------- --- ----------------- --------------------- ------------------------ 
178    nl_178 (Nonlinearity, RELU)                           [b:1,h:14,w:14,c:256]                             50,176          conv2d_173   |                                         Nonlinearity_[152]       
------ ----------------------------------------------------- ----------------------- ------------------- ------------ ------------------- --- ----------------- --------------------- ------------------------ 
179    eltwise_179 (Eltwise, ADD)                            [b:1,h:14,w:14,c:256]                             50,176              nl_178   |                                         Eltwise/add_[156]        
                                                                                                                              eltwise_177   | 
------ ----------------------------------------------------- ----------------------- ------------------- ------------ ------------------- --- ----------------- --------------------- ------------------------ 
180    conv2d_180 (Conv2D, DEPTHWISE_CONV_2D)                [b:1,h:14,w:14,c:256]   2,560/10,240             451,840         eltwise_179   |                                         Conv2D_[157]             
------ ----------------------------------------------------- ----------------------- ------------------- ------------ ------------------- --- ----------------- --------------------- ------------------------ 
181    nl_181 (Nonlinearity, ABS)                            [b:1,h:14,w:14,c:256]                            100,352          conv2d_180   |                                         Nonlinearity_[159]       
------ ----------------------------------------------------- ----------------------- ------------------- ------------ ------------------- --- ----------------- --------------------- ------------------------ 
182    eltwise_182 (Eltwise, SUB)                            [b:1,h:14,w:14,c:256]                             50,176          conv2d_180   |                                         Eltwise/sub_[160]        
                                                                                                                                   nl_181   | 
------ ----------------------------------------------------- ----------------------- ------------------- ------------ ------------------- --- ----------------- --------------------- ------------------------ 
183    arith_constant115 (Placeholder, )                     [b:256]                 256/1,024                                              | -1,024(-100.0%)                         
       eltwise_183 (Eltwise, MUL)                            [b:1,h:14,w:14,c:256]                             50,176         eltwise_182   |                   -50,176(-100.0%)      
                                                                                                                        arith_constant115   | 
------ ----------------------------------------------------- ----------------------- ------------------- ------------ ------------------- --- ----------------- --------------------- ------------------------ 
184    eltwise_184 (Eltwise, MUL)                            [b:1,h:14,w:14,c:256]                             50,176         eltwise_183   | +2,048(+100.0%)   +50,176(+100.0%)      ScaleBias_[161]          
                                                                                                                        arith_constant119   | 
------ ----------------------------------------------------- ----------------------- ------------------- ------------ ------------------- --- ----------------- --------------------- ------------------------ 
185    nl_185 (Nonlinearity, RELU)                           [b:1,h:14,w:14,c:256]                             50,176          conv2d_180   |                                         Nonlinearity_[158]       
------ ----------------------------------------------------- ----------------------- ------------------- ------------ ------------------- --- ----------------- --------------------- ------------------------ 
186    eltwise_186 (Eltwise, ADD)                            [b:1,h:14,w:14,c:256]                             50,176              nl_185   |                                         Eltwise/add_[162]        
                                                                                                                              eltwise_184   | 
------ ----------------------------------------------------- ----------------------- ------------------- ------------ ------------------- --- ----------------- --------------------- ------------------------ 
187    conv2d_187 (Conv2D, CONV_2D)                          [b:1,h:14,w:14,c:128]   32,896/131,584         6,422,656         eltwise_186   |                                         Conv2D_[163]             
------ ----------------------------------------------------- ----------------------- ------------------- ------------ ------------------- --- ----------------- --------------------- ------------------------ 
188    eltwise_188 (Eltwise, ADD)                            [b:1,h:14,w:14,c:128]                             25,088          conv2d_187   |                                         Eltwise/add_[164]        
                                                                                                                              eltwise_172   | 
------ ----------------------------------------------------- ----------------------- ------------------- ------------ ------------------- --- ----------------- --------------------- ------------------------ 
189    conv2d_189 (Conv2D, CONV_2D)                          [b:1,h:14,w:14,c:256]   33,024/132,096         6,422,784         eltwise_188   |                                         Conv2D_[165]             
------ ----------------------------------------------------- ----------------------- ------------------- ------------ ------------------- --- ----------------- --------------------- ------------------------ 
190    nl_190 (Nonlinearity, ABS)                            [b:1,h:14,w:14,c:256]                            100,352          conv2d_189   |                                         Nonlinearity_[167]       
------ ----------------------------------------------------- ----------------------- ------------------- ------------ ------------------- --- ----------------- --------------------- ------------------------ 
191    eltwise_191 (Eltwise, SUB)                            [b:1,h:14,w:14,c:256]                             50,176          conv2d_189   |                                         Eltwise/sub_[168]        
                                                                                                                                   nl_190   | 
------ ----------------------------------------------------- ----------------------- ------------------- ------------ ------------------- --- ----------------- --------------------- ------------------------ 
192    arith_constant127 (Placeholder, )                     [b:256]                 256/1,024                                              | -1,024(-100.0%)                         
       eltwise_192 (Eltwise, MUL)                            [b:1,h:14,w:14,c:256]                             50,176         eltwise_191   |                   -50,176(-100.0%)      
                                                                                                                        arith_constant127   | 
------ ----------------------------------------------------- ----------------------- ------------------- ------------ ------------------- --- ----------------- --------------------- ------------------------ 
193    eltwise_193 (Eltwise, MUL)                            [b:1,h:14,w:14,c:256]                             50,176         eltwise_192   | +2,048(+100.0%)   +50,176(+100.0%)      ScaleBias_[169]          
                                                                                                                        arith_constant119   | 
------ ----------------------------------------------------- ----------------------- ------------------- ------------ ------------------- --- ----------------- --------------------- ------------------------ 
194    nl_194 (Nonlinearity, RELU)                           [b:1,h:14,w:14,c:256]                             50,176          conv2d_189   |                                         Nonlinearity_[166]       
------ ----------------------------------------------------- ----------------------- ------------------- ------------ ------------------- --- ----------------- --------------------- ------------------------ 
195    eltwise_195 (Eltwise, ADD)                            [b:1,h:14,w:14,c:256]                             50,176              nl_194   |                                         Eltwise/add_[170]        
                                                                                                                              eltwise_193   | 
------ ----------------------------------------------------- ----------------------- ------------------- ------------ ------------------- --- ----------------- --------------------- ------------------------ 
196    conv2d_196 (Conv2D, DEPTHWISE_CONV_2D)                [b:1,h:14,w:14,c:256]   2,560/10,240             451,840         eltwise_195   |                                         Conv2D_[171]             
------ ----------------------------------------------------- ----------------------- ------------------- ------------ ------------------- --- ----------------- --------------------- ------------------------ 
197    nl_197 (Nonlinearity, ABS)                            [b:1,h:14,w:14,c:256]                            100,352          conv2d_196   |                                         Nonlinearity_[173]       
------ ----------------------------------------------------- ----------------------- ------------------- ------------ ------------------- --- ----------------- --------------------- ------------------------ 
198    eltwise_198 (Eltwise, SUB)                            [b:1,h:14,w:14,c:256]                             50,176          conv2d_196   |                                         Eltwise/sub_[174]        
                                                                                                                                   nl_197   | 
------ ----------------------------------------------------- ----------------------- ------------------- ------------ ------------------- --- ----------------- --------------------- ------------------------ 
199    arith_constant114 (Placeholder, )                     [b:256]                 256/1,024                                              | -1,024(-100.0%)                         
       eltwise_199 (Eltwise, MUL)                            [b:1,h:14,w:14,c:256]                             50,176         eltwise_198   |                   -50,176(-100.0%)      
                                                                                                                        arith_constant114   | 
------ ----------------------------------------------------- ----------------------- ------------------- ------------ ------------------- --- ----------------- --------------------- ------------------------ 
200    eltwise_200 (Eltwise, MUL)                            [b:1,h:14,w:14,c:256]                             50,176         eltwise_199   | +2,048(+100.0%)   +50,176(+100.0%)      ScaleBias_[175]          
                                                                                                                        arith_constant119   | 
------ ----------------------------------------------------- ----------------------- ------------------- ------------ ------------------- --- ----------------- --------------------- ------------------------ 
201    nl_201 (Nonlinearity, RELU)                           [b:1,h:14,w:14,c:256]                             50,176          conv2d_196   |                                         Nonlinearity_[172]       
------ ----------------------------------------------------- ----------------------- ------------------- ------------ ------------------- --- ----------------- --------------------- ------------------------ 
202    eltwise_202 (Eltwise, ADD)                            [b:1,h:14,w:14,c:256]                             50,176              nl_201   |                                         Eltwise/add_[176]        
                                                                                                                              eltwise_200   | 
------ ----------------------------------------------------- ----------------------- ------------------- ------------ ------------------- --- ----------------- --------------------- ------------------------ 
203    conv2d_203 (Conv2D, CONV_2D)                          [b:1,h:14,w:14,c:128]   32,896/131,584         6,422,656         eltwise_202   |                                         Conv2D_[177]             
------ ----------------------------------------------------- ----------------------- ------------------- ------------ ------------------- --- ----------------- --------------------- ------------------------ 
204    eltwise_204 (Eltwise, ADD)                            [b:1,h:14,w:14,c:128]                             25,088          conv2d_203   |                                         Eltwise/add_[178]        
                                                                                                                              eltwise_188   | 
------ ----------------------------------------------------- ----------------------- ------------------- ------------ ------------------- --- ----------------- --------------------- ------------------------ 
205    conv2d_205 (Conv2D, CONV_2D)                          [b:1,h:14,w:14,c:512]   66,048/264,192        12,845,568         eltwise_204   |                                         Conv2D_[179]             
------ ----------------------------------------------------- ----------------------- ------------------- ------------ ------------------- --- ----------------- --------------------- ------------------------ 
206    nl_206 (Nonlinearity, ABS)                            [b:1,h:14,w:14,c:512]                            200,704          conv2d_205   |                                         Nonlinearity_[181]       
------ ----------------------------------------------------- ----------------------- ------------------- ------------ ------------------- --- ----------------- --------------------- ------------------------ 
207    eltwise_207 (Eltwise, SUB)                            [b:1,h:14,w:14,c:512]                            100,352          conv2d_205   |                                         Eltwise/sub_[182]        
                                                                                                                                   nl_206   | 
------ ----------------------------------------------------- ----------------------- ------------------- ------------ ------------------- --- ----------------- --------------------- ------------------------ 
208    arith_constant126 (Placeholder, )                     [b:512]                 512/2,048                                              | -2,048(-100.0%)                         
       eltwise_208 (Eltwise, MUL)                            [b:1,h:14,w:14,c:512]                            100,352         eltwise_207   |                   -100,352(-100.0%)     
                                                                                                                        arith_constant126   | 
------ ----------------------------------------------------- ----------------------- ------------------- ------------ ------------------- --- ----------------- --------------------- ------------------------ 
209    eltwise_209 (Eltwise, MUL)                            [b:1,h:14,w:14,c:512]                            100,352         eltwise_208   | +4,096(+100.0%)   +100,352(+100.0%)     ScaleBias_[183]          
                                                                                                                        arith_constant119   | 
------ ----------------------------------------------------- ----------------------- ------------------- ------------ ------------------- --- ----------------- --------------------- ------------------------ 
210    nl_210 (Nonlinearity, RELU)                           [b:1,h:14,w:14,c:512]                            100,352          conv2d_205   |                                         Nonlinearity_[180]       
------ ----------------------------------------------------- ----------------------- ------------------- ------------ ------------------- --- ----------------- --------------------- ------------------------ 
211    eltwise_211 (Eltwise, ADD)                            [b:1,h:14,w:14,c:512]                            100,352              nl_210   |                                         Eltwise/add_[184]        
                                                                                                                              eltwise_209   | 
------ ----------------------------------------------------- ----------------------- ------------------- ------------ ------------------- --- ----------------- --------------------- ------------------------ 
212    conv2d_212 (Conv2D, DEPTHWISE_CONV_2D)                [b:1,h:7,w:7,c:512]     5,120/20,480             226,304         eltwise_211   |                                         Conv2D_[185]             
------ ----------------------------------------------------- ----------------------- ------------------- ------------ ------------------- --- ----------------- --------------------- ------------------------ 
213    nl_213 (Nonlinearity, ABS)                            [b:1,h:7,w:7,c:512]                               50,176          conv2d_212   |                                         Nonlinearity_[187]       
------ ----------------------------------------------------- ----------------------- ------------------- ------------ ------------------- --- ----------------- --------------------- ------------------------ 
214    eltwise_214 (Eltwise, SUB)                            [b:1,h:7,w:7,c:512]                               25,088          conv2d_212   |                                         Eltwise/sub_[188]        
                                                                                                                                   nl_213   | 
------ ----------------------------------------------------- ----------------------- ------------------- ------------ ------------------- --- ----------------- --------------------- ------------------------ 
215    arith_constant113 (Placeholder, )                     [b:512]                 512/2,048                                              | -2,048(-100.0%)                         
       eltwise_215 (Eltwise, MUL)                            [b:1,h:7,w:7,c:512]                               25,088         eltwise_214   |                   -25,088(-100.0%)      
                                                                                                                        arith_constant113   | 
------ ----------------------------------------------------- ----------------------- ------------------- ------------ ------------------- --- ----------------- --------------------- ------------------------ 
216    eltwise_216 (Eltwise, MUL)                            [b:1,h:7,w:7,c:512]                               25,088         eltwise_215   | +4,096(+100.0%)   +25,088(+100.0%)      ScaleBias_[189]          
                                                                                                                        arith_constant119   | 
------ ----------------------------------------------------- ----------------------- ------------------- ------------ ------------------- --- ----------------- --------------------- ------------------------ 
217    nl_217 (Nonlinearity, RELU)                           [b:1,h:7,w:7,c:512]                               25,088          conv2d_212   |                                         Nonlinearity_[186]       
------ ----------------------------------------------------- ----------------------- ------------------- ------------ ------------------- --- ----------------- --------------------- ------------------------ 
218    eltwise_218 (Eltwise, ADD)                            [b:1,h:7,w:7,c:512]                               25,088              nl_217   |                                         Eltwise/add_[190]        
                                                                                                                              eltwise_216   | 
------ ----------------------------------------------------- ----------------------- ------------------- ------------ ------------------- --- ----------------- --------------------- ------------------------ 
219    conv2d_219 (Conv2D, CONV_2D)                          [b:1,h:7,w:7,c:128]     65,664/262,656         3,211,392         eltwise_218   |                                         Conv2D_[191]             
------ ----------------------------------------------------- ----------------------- ------------------- ------------ ------------------- --- ----------------- --------------------- ------------------------ 
220    conv2d_220 (Conv2D, CONV_2D)                          [b:1,h:7,w:7,c:256]     33,024/132,096         1,605,888          conv2d_219   |                                         Conv2D_[192]             
------ ----------------------------------------------------- ----------------------- ------------------- ------------ ------------------- --- ----------------- --------------------- ------------------------ 
221    nl_221 (Nonlinearity, ABS)                            [b:1,h:7,w:7,c:256]                               25,088          conv2d_220   |                                         Nonlinearity_[194]       
------ ----------------------------------------------------- ----------------------- ------------------- ------------ ------------------- --- ----------------- --------------------- ------------------------ 
222    eltwise_222 (Eltwise, SUB)                            [b:1,h:7,w:7,c:256]                               12,544          conv2d_220   |                                         Eltwise/sub_[195]        
                                                                                                                                   nl_221   | 
------ ----------------------------------------------------- ----------------------- ------------------- ------------ ------------------- --- ----------------- --------------------- ------------------------ 
223    arith_constant125 (Placeholder, )                     [b:256]                 256/1,024                                              | -1,024(-100.0%)                         
       eltwise_223 (Eltwise, MUL)                            [b:1,h:7,w:7,c:256]                               12,544         eltwise_222   |                   -12,544(-100.0%)      
                                                                                                                        arith_constant125   | 
------ ----------------------------------------------------- ----------------------- ------------------- ------------ ------------------- --- ----------------- --------------------- ------------------------ 
224    eltwise_224 (Eltwise, MUL)                            [b:1,h:7,w:7,c:256]                               12,544         eltwise_223   | +2,048(+100.0%)   +12,544(+100.0%)      ScaleBias_[196]          
                                                                                                                        arith_constant119   | 
------ ----------------------------------------------------- ----------------------- ------------------- ------------ ------------------- --- ----------------- --------------------- ------------------------ 
225    nl_225 (Nonlinearity, RELU)                           [b:1,h:7,w:7,c:256]                               12,544          conv2d_220   |                                         Nonlinearity_[193]       
------ ----------------------------------------------------- ----------------------- ------------------- ------------ ------------------- --- ----------------- --------------------- ------------------------ 
226    eltwise_226 (Eltwise, ADD)                            [b:1,h:7,w:7,c:256]                               12,544              nl_225   |                                         Eltwise/add_[197]        
                                                                                                                              eltwise_224   | 
------ ----------------------------------------------------- ----------------------- ------------------- ------------ ------------------- --- ----------------- --------------------- ------------------------ 
227    conv2d_227 (Conv2D, DEPTHWISE_CONV_2D)                [b:1,h:7,w:7,c:256]     2,560/10,240             113,152         eltwise_226   |                                         Conv2D_[198]             
------ ----------------------------------------------------- ----------------------- ------------------- ------------ ------------------- --- ----------------- --------------------- ------------------------ 
228    nl_228 (Nonlinearity, ABS)                            [b:1,h:7,w:7,c:256]                               25,088          conv2d_227   |                                         Nonlinearity_[200]       
------ ----------------------------------------------------- ----------------------- ------------------- ------------ ------------------- --- ----------------- --------------------- ------------------------ 
229    eltwise_229 (Eltwise, SUB)                            [b:1,h:7,w:7,c:256]                               12,544          conv2d_227   |                                         Eltwise/sub_[201]        
                                                                                                                                   nl_228   | 
------ ----------------------------------------------------- ----------------------- ------------------- ------------ ------------------- --- ----------------- --------------------- ------------------------ 
230    arith_constant112 (Placeholder, )                     [b:256]                 256/1,024                                              | -1,024(-100.0%)                         
       eltwise_230 (Eltwise, MUL)                            [b:1,h:7,w:7,c:256]                               12,544         eltwise_229   |                   -12,544(-100.0%)      
                                                                                                                        arith_constant112   | 
------ ----------------------------------------------------- ----------------------- ------------------- ------------ ------------------- --- ----------------- --------------------- ------------------------ 
231    eltwise_231 (Eltwise, MUL)                            [b:1,h:7,w:7,c:256]                               12,544         eltwise_230   | +2,048(+100.0%)   +12,544(+100.0%)      ScaleBias_[202]          
                                                                                                                        arith_constant119   | 
------ ----------------------------------------------------- ----------------------- ------------------- ------------ ------------------- --- ----------------- --------------------- ------------------------ 
232    nl_232 (Nonlinearity, RELU)                           [b:1,h:7,w:7,c:256]                               12,544          conv2d_227   |                                         Nonlinearity_[199]       
------ ----------------------------------------------------- ----------------------- ------------------- ------------ ------------------- --- ----------------- --------------------- ------------------------ 
233    eltwise_233 (Eltwise, ADD)                            [b:1,h:7,w:7,c:256]                               12,544              nl_232   |                                         Eltwise/add_[203]        
                                                                                                                              eltwise_231   | 
------ ----------------------------------------------------- ----------------------- ------------------- ------------ ------------------- --- ----------------- --------------------- ------------------------ 
234    conv2d_234 (Conv2D, CONV_2D)                          [b:1,h:7,w:7,c:128]     32,896/131,584         1,605,760         eltwise_233   |                                         Conv2D_[204]             
------ ----------------------------------------------------- ----------------------- ------------------- ------------ ------------------- --- ----------------- --------------------- ------------------------ 
235    eltwise_235 (Eltwise, ADD)                            [b:1,h:7,w:7,c:128]                                6,272          conv2d_234   |                                         Eltwise/add_[205]        
                                                                                                                               conv2d_219   | 
------ ----------------------------------------------------- ----------------------- ------------------- ------------ ------------------- --- ----------------- --------------------- ------------------------ 
236    conv2d_236 (Conv2D, CONV_2D)                          [b:1,h:7,w:7,c:256]     33,024/132,096         1,605,888         eltwise_235   |                                         Conv2D_[206]             
------ ----------------------------------------------------- ----------------------- ------------------- ------------ ------------------- --- ----------------- --------------------- ------------------------ 
237    nl_237 (Nonlinearity, ABS)                            [b:1,h:7,w:7,c:256]                               25,088          conv2d_236   |                                         Nonlinearity_[208]       
------ ----------------------------------------------------- ----------------------- ------------------- ------------ ------------------- --- ----------------- --------------------- ------------------------ 
238    eltwise_238 (Eltwise, SUB)                            [b:1,h:7,w:7,c:256]                               12,544          conv2d_236   |                                         Eltwise/sub_[209]        
                                                                                                                                   nl_237   | 
------ ----------------------------------------------------- ----------------------- ------------------- ------------ ------------------- --- ----------------- --------------------- ------------------------ 
239    arith_constant124 (Placeholder, )                     [b:256]                 256/1,024                                              | -1,024(-100.0%)                         
       eltwise_239 (Eltwise, MUL)                            [b:1,h:7,w:7,c:256]                               12,544         eltwise_238   |                   -12,544(-100.0%)      
                                                                                                                        arith_constant124   | 
------ ----------------------------------------------------- ----------------------- ------------------- ------------ ------------------- --- ----------------- --------------------- ------------------------ 
240    eltwise_240 (Eltwise, MUL)                            [b:1,h:7,w:7,c:256]                               12,544         eltwise_239   | +2,048(+100.0%)   +12,544(+100.0%)      ScaleBias_[210]          
                                                                                                                        arith_constant119   | 
------ ----------------------------------------------------- ----------------------- ------------------- ------------ ------------------- --- ----------------- --------------------- ------------------------ 
241    nl_241 (Nonlinearity, RELU)                           [b:1,h:7,w:7,c:256]                               12,544          conv2d_236   |                                         Nonlinearity_[207]       
------ ----------------------------------------------------- ----------------------- ------------------- ------------ ------------------- --- ----------------- --------------------- ------------------------ 
242    eltwise_242 (Eltwise, ADD)                            [b:1,h:7,w:7,c:256]                               12,544              nl_241   |                                         Eltwise/add_[211]        
                                                                                                                              eltwise_240   | 
------ ----------------------------------------------------- ----------------------- ------------------- ------------ ------------------- --- ----------------- --------------------- ------------------------ 
243    conv2d_243 (Conv2D, DEPTHWISE_CONV_2D)                [b:1,h:7,w:7,c:256]     2,560/10,240             113,152         eltwise_242   |                                         Conv2D_[212]             
------ ----------------------------------------------------- ----------------------- ------------------- ------------ ------------------- --- ----------------- --------------------- ------------------------ 
244    nl_244 (Nonlinearity, ABS)                            [b:1,h:7,w:7,c:256]                               25,088          conv2d_243   |                                         Nonlinearity_[214]       
------ ----------------------------------------------------- ----------------------- ------------------- ------------ ------------------- --- ----------------- --------------------- ------------------------ 
245    eltwise_245 (Eltwise, SUB)                            [b:1,h:7,w:7,c:256]                               12,544          conv2d_243   |                                         Eltwise/sub_[215]        
                                                                                                                                   nl_244   | 
------ ----------------------------------------------------- ----------------------- ------------------- ------------ ------------------- --- ----------------- --------------------- ------------------------ 
246    arith_constant111 (Placeholder, )                     [b:256]                 256/1,024                                              | -1,024(-100.0%)                         
       eltwise_246 (Eltwise, MUL)                            [b:1,h:7,w:7,c:256]                               12,544         eltwise_245   |                   -12,544(-100.0%)      
                                                                                                                        arith_constant111   | 
------ ----------------------------------------------------- ----------------------- ------------------- ------------ ------------------- --- ----------------- --------------------- ------------------------ 
247    eltwise_247 (Eltwise, MUL)                            [b:1,h:7,w:7,c:256]                               12,544         eltwise_246   | +2,048(+100.0%)   +12,544(+100.0%)      ScaleBias_[216]          
                                                                                                                        arith_constant119   | 
------ ----------------------------------------------------- ----------------------- ------------------- ------------ ------------------- --- ----------------- --------------------- ------------------------ 
248    nl_248 (Nonlinearity, RELU)                           [b:1,h:7,w:7,c:256]                               12,544          conv2d_243   |                                         Nonlinearity_[213]       
------ ----------------------------------------------------- ----------------------- ------------------- ------------ ------------------- --- ----------------- --------------------- ------------------------ 
249    eltwise_249 (Eltwise, ADD)                            [b:1,h:7,w:7,c:256]                               12,544              nl_248   |                                         Eltwise/add_[217]        
                                                                                                                              eltwise_247   | 
------ ----------------------------------------------------- ----------------------- ------------------- ------------ ------------------- --- ----------------- --------------------- ------------------------ 
250    conv2d_250 (Conv2D, CONV_2D)                          [b:1,h:7,w:7,c:128]     32,896/131,584         1,605,760         eltwise_249   |                                         Conv2D_[218]             
------ ----------------------------------------------------- ----------------------- ------------------- ------------ ------------------- --- ----------------- --------------------- ------------------------ 
251    eltwise_251 (Eltwise, ADD)                            [b:1,h:7,w:7,c:128]                                6,272          conv2d_250   |                                         Eltwise/add_[219]        
                                                                                                                              eltwise_235   | 
------ ----------------------------------------------------- ----------------------- ------------------- ------------ ------------------- --- ----------------- --------------------- ------------------------ 
252    conv2d_252 (Conv2D, CONV_2D)                          [b:1,h:7,w:7,c:512]     66,048/264,192         3,211,776         eltwise_251   |                                         Conv2D_[220]             
------ ----------------------------------------------------- ----------------------- ------------------- ------------ ------------------- --- ----------------- --------------------- ------------------------ 
253    nl_253 (Nonlinearity, ABS)                            [b:1,h:7,w:7,c:512]                               50,176          conv2d_252   |                                         Nonlinearity_[222]       
------ ----------------------------------------------------- ----------------------- ------------------- ------------ ------------------- --- ----------------- --------------------- ------------------------ 
254    eltwise_254 (Eltwise, SUB)                            [b:1,h:7,w:7,c:512]                               25,088          conv2d_252   |                                         Eltwise/sub_[223]        
                                                                                                                                   nl_253   | 
------ ----------------------------------------------------- ----------------------- ------------------- ------------ ------------------- --- ----------------- --------------------- ------------------------ 
255    arith_constant135 (Placeholder, )                     [b:512]                 512/2,048                                              | -2,048(-100.0%)                         
       eltwise_255 (Eltwise, MUL)                            [b:1,h:7,w:7,c:512]                               25,088         eltwise_254   |                   -25,088(-100.0%)      
                                                                                                                        arith_constant135   | 
------ ----------------------------------------------------- ----------------------- ------------------- ------------ ------------------- --- ----------------- --------------------- ------------------------ 
256    eltwise_256 (Eltwise, MUL)                            [b:1,h:7,w:7,c:512]                               25,088         eltwise_255   | +4,096(+100.0%)   +25,088(+100.0%)      ScaleBias_[224]          
                                                                                                                        arith_constant119   | 
------ ----------------------------------------------------- ----------------------- ------------------- ------------ ------------------- --- ----------------- --------------------- ------------------------ 
257    nl_257 (Nonlinearity, RELU)                           [b:1,h:7,w:7,c:512]                               25,088          conv2d_252   |                                         Nonlinearity_[221]       
------ ----------------------------------------------------- ----------------------- ------------------- ------------ ------------------- --- ----------------- --------------------- ------------------------ 
258    eltwise_258 (Eltwise, ADD)                            [b:1,h:7,w:7,c:512]                               25,088              nl_257   |                                         Eltwise/add_[225]        
                                                                                                                              eltwise_256   | 
------ ----------------------------------------------------- ----------------------- ------------------- ------------ ------------------- --- ----------------- --------------------- ------------------------ 
259    conv2d_259 (Conv2D, DEPTHWISE_CONV_2D)                [b:1,h:1,w:1,c:512]     25,600/102,400            25,600         eltwise_258   |                                         Conv2D_[226]             
------ ----------------------------------------------------- ----------------------- ------------------- ------------ ------------------- --- ----------------- --------------------- ------------------------ 
260    conv2d_260 (Conv2D, CONV_2D)                          [b:1,h:1,w:1,c:512]     262,656/1,050,624        262,656          conv2d_259   |                                         Conv2D_[227]             
------ ----------------------------------------------------- ----------------------- ------------------- ------------ ------------------- --- ----------------- --------------------- ------------------------ 
261    conv2d_261 (Conv2D, CONV_2D)                          [b:1,h:1,w:1,c:128]     65,664/262,656            65,664          conv2d_260   |                                         Conv2D_[228]             
------ ----------------------------------------------------- ----------------------- ------------------- ------------ ------------------- --- ----------------- --------------------- ------------------------ 
262    reshape_262 (Reshape, RESHAPE)                        [b:1,c:128]                                                       conv2d_261   |                                         
------ ----------------------------------------------------- ----------------------- ------------------- ------------ ------------------- --- ----------------- --------------------- ------------------------ 
263    normalization_263 (Normalization, L2_NORMALIZATION)   [b:1,c:128]                                        1,536         reshape_262   |                                         Normalization_[o][229]   
------ ----------------------------------------------------- ----------------------- ------------------- ------------ ------------------- --- ----------------- --------------------- ------------------------ 
model/c-model: macc=253,766,016/253,766,016  weights=5,040,644/5,044,480 +3,836(+0.1%) activations=--/4,816,896 io=--/0



Generated C-graph summary
------------------------------------------------------------------------------------------------------------------------
model name            : mobilefacenet
c-name                : facerec
c-node #              : 230
c-array #             : 407
activations size      : 4816896 (1 segment)
weights size          : 5044480 (1 segment)
macc                  : 253766016
inputs                : ['input_output']
outputs               : ['normalization_263_output']

C-Arrays (407)
------ -------------------------- ---------------- ------------------------- ------------- --------- 
c_id   name (*_array)             item/size        domain/mem-pool           c-type        comment   
------ -------------------------- ---------------- ------------------------- ------------- --------- 
0      conv2d_0_bias              64/256           weights/weights           const float             
1      conv2d_0_output            200704/802816    activations/**default**   float                   
2      conv2d_0_scratch0          27/108           activations/**default**   float                   
3      conv2d_0_weights           1728/6912        weights/weights           const float             
4      conv2d_101_bias            256/1024         weights/weights           const float             
5      conv2d_101_output          50176/200704     activations/**default**   float                   
6      conv2d_101_weights         2304/9216        weights/weights           const float             
7      conv2d_108_bias            128/512          weights/weights           const float             
8      conv2d_108_output          25088/100352     activations/**default**   float                   
9      conv2d_108_scratch0        256/1024         activations/**default**   float                   
10     conv2d_108_weights         32768/131072     weights/weights           const float             
11     conv2d_109_bias            256/1024         weights/weights           const float             
12     conv2d_109_output          50176/200704     activations/**default**   float                   
13     conv2d_109_scratch0        128/512          activations/**default**   float                   
14     conv2d_109_weights         32768/131072     weights/weights           const float             
15     conv2d_116_bias            256/1024         weights/weights           const float             
16     conv2d_116_output          50176/200704     activations/**default**   float                   
17     conv2d_116_weights         2304/9216        weights/weights           const float             
18     conv2d_123_bias            128/512          weights/weights           const float             
19     conv2d_123_output          25088/100352     activations/**default**   float                   
20     conv2d_123_scratch0        256/1024         activations/**default**   float                   
21     conv2d_123_weights         32768/131072     weights/weights           const float             
22     conv2d_125_bias            256/1024         weights/weights           const float             
23     conv2d_125_output          50176/200704     activations/**default**   float                   
24     conv2d_125_scratch0        128/512          activations/**default**   float                   
25     conv2d_125_weights         32768/131072     weights/weights           const float             
26     conv2d_132_bias            256/1024         weights/weights           const float             
27     conv2d_132_output          50176/200704     activations/**default**   float                   
28     conv2d_132_weights         2304/9216        weights/weights           const float             
29     conv2d_139_bias            128/512          weights/weights           const float             
30     conv2d_139_output          25088/100352     activations/**default**   float                   
31     conv2d_139_scratch0        256/1024         activations/**default**   float                   
32     conv2d_139_weights         32768/131072     weights/weights           const float             
33     conv2d_141_bias            256/1024         weights/weights           const float             
34     conv2d_141_output          50176/200704     activations/**default**   float                   
35     conv2d_141_scratch0        128/512          activations/**default**   float                   
36     conv2d_141_weights         32768/131072     weights/weights           const float             
37     conv2d_148_bias            256/1024         weights/weights           const float             
38     conv2d_148_output          50176/200704     activations/**default**   float                   
39     conv2d_148_weights         2304/9216        weights/weights           const float             
40     conv2d_14_bias             64/256           weights/weights           const float             
41     conv2d_14_output           200704/802816    activations/**default**   float                   
42     conv2d_14_scratch0         64/256           activations/**default**   float                   
43     conv2d_14_weights          4096/16384       weights/weights           const float             
44     conv2d_155_bias            128/512          weights/weights           const float             
45     conv2d_155_output          25088/100352     activations/**default**   float                   
46     conv2d_155_scratch0        256/1024         activations/**default**   float                   
47     conv2d_155_weights         32768/131072     weights/weights           const float             
48     conv2d_157_bias            256/1024         weights/weights           const float             
49     conv2d_157_output          50176/200704     activations/**default**   float                   
50     conv2d_157_scratch0        128/512          activations/**default**   float                   
51     conv2d_157_weights         32768/131072     weights/weights           const float             
52     conv2d_15_bias             128/512          weights/weights           const float             
53     conv2d_15_output           401408/1605632   activations/**default**   float                   
54     conv2d_15_scratch0         64/256           activations/**default**   float                   
55     conv2d_15_weights          8192/32768       weights/weights           const float             
56     conv2d_164_bias            256/1024         weights/weights           const float             
57     conv2d_164_output          50176/200704     activations/**default**   float                   
58     conv2d_164_weights         2304/9216        weights/weights           const float             
59     conv2d_171_bias            128/512          weights/weights           const float             
60     conv2d_171_output          25088/100352     activations/**default**   float                   
61     conv2d_171_scratch0        256/1024         activations/**default**   float                   
62     conv2d_171_weights         32768/131072     weights/weights           const float             
63     conv2d_173_bias            256/1024         weights/weights           const float             
64     conv2d_173_output          50176/200704     activations/**default**   float                   
65     conv2d_173_scratch0        128/512          activations/**default**   float                   
66     conv2d_173_weights         32768/131072     weights/weights           const float             
67     conv2d_180_bias            256/1024         weights/weights           const float             
68     conv2d_180_output          50176/200704     activations/**default**   float                   
69     conv2d_180_weights         2304/9216        weights/weights           const float             
70     conv2d_187_bias            128/512          weights/weights           const float             
71     conv2d_187_output          25088/100352     activations/**default**   float                   
72     conv2d_187_scratch0        256/1024         activations/**default**   float                   
73     conv2d_187_weights         32768/131072     weights/weights           const float             
74     conv2d_189_bias            256/1024         weights/weights           const float             
75     conv2d_189_output          50176/200704     activations/**default**   float                   
76     conv2d_189_scratch0        128/512          activations/**default**   float                   
77     conv2d_189_weights         32768/131072     weights/weights           const float             
78     conv2d_196_bias            256/1024         weights/weights           const float             
79     conv2d_196_output          50176/200704     activations/**default**   float                   
80     conv2d_196_weights         2304/9216        weights/weights           const float             
81     conv2d_203_bias            128/512          weights/weights           const float             
82     conv2d_203_output          25088/100352     activations/**default**   float                   
83     conv2d_203_scratch0        256/1024         activations/**default**   float                   
84     conv2d_203_weights         32768/131072     weights/weights           const float             
85     conv2d_205_bias            512/2048         weights/weights           const float             
86     conv2d_205_output          100352/401408    activations/**default**   float                   
87     conv2d_205_scratch0        128/512          activations/**default**   float                   
88     conv2d_205_weights         65536/262144     weights/weights           const float             
89     conv2d_212_bias            512/2048         weights/weights           const float             
90     conv2d_212_output          25088/100352     activations/**default**   float                   
91     conv2d_212_weights         4608/18432       weights/weights           const float             
92     conv2d_219_bias            128/512          weights/weights           const float             
93     conv2d_219_output          6272/25088       activations/**default**   float                   
94     conv2d_219_scratch0        512/2048         activations/**default**   float                   
95     conv2d_219_weights         65536/262144     weights/weights           const float             
96     conv2d_220_bias            256/1024         weights/weights           const float             
97     conv2d_220_output          12544/50176      activations/**default**   float                   
98     conv2d_220_scratch0        128/512          activations/**default**   float                   
…
                                                                       W: eltwise_97_bias            f32(256) (335)           
                                                                       O: eltwise_246_output         f32(1x7x7x256) (281)     
------ ------------------- ----- ---------------- ---------- --------- ----------------------------- ------------------------ 
217    eltwise_249         249   Eltwise/add      12544      0         I: nl_248_output              f32(1x7x7x256) (382)     
                                                                       I: eltwise_246_output         f32(1x7x7x256) (382)     
                                                                       O: eltwise_249_output         f32(1x7x7x256) (283)     
------ ------------------- ----- ---------------- ---------- --------- ----------------------------- ------------------------ 
218    conv2d_250          250   Conv2D           1605760    131584    I: eltwise_249_output         f32(1x7x7x256) (283)     
                                                                       S: conv2d_250_scratch0                                 
                                                                       W: conv2d_250_weights         f32(128x1x1x256) (120)   
                                                                       W: conv2d_250_bias            f32(128) (117)           
                                                                       O: conv2d_250_output          f32(1x7x7x128) (118)     
------ ------------------- ----- ---------------- ---------- --------- ----------------------------- ------------------------ 
219    eltwise_251         251   Eltwise/add      6272       0         I: conv2d_250_output          f32(1x7x7x128) (118)     
                                                                       I: eltwise_235_output         f32(1x7x7x128) (118)     
                                                                       O: eltwise_251_output         f32(1x7x7x128) (285)     
------ ------------------- ----- ---------------- ---------- --------- ----------------------------- ------------------------ 
220    conv2d_252          252   Conv2D           3211776    264192    I: eltwise_251_output         f32(1x7x7x128) (285)     
                                                                       S: conv2d_252_scratch0                                 
                                                                       W: conv2d_252_weights         f32(512x1x1x128) (124)   
                                                                       W: conv2d_252_bias            f32(512) (121)           
                                                                       O: conv2d_252_output          f32(1x7x7x512) (122)     
------ ------------------- ----- ---------------- ---------- --------- ----------------------------- ------------------------ 
221    nl_257              257   Nonlinearity     25088      0         I: conv2d_252_output          f32(1x7x7x512) (122)     
                                                                       O: nl_257_output              f32(1x7x7x512) (384)     
------ ------------------- ----- ---------------- ---------- --------- ----------------------------- ------------------------ 
222    nl_253              253   Nonlinearity     50176      0         I: conv2d_252_output          f32(1x7x7x512) (122)     
                                                                       O: nl_253_output              f32(1x7x7x512) (383)     
------ ------------------- ----- ---------------- ---------- --------- ----------------------------- ------------------------ 
223    eltwise_254         254   Eltwise/sub      25088      0         I: conv2d_252_output          f32(1x7x7x512) (122)     
                                                                       I: nl_253_output              f32(1x7x7x512) (122)     
                                                                       O: eltwise_254_output         f32(1x7x7x512) (286)     
------ ------------------- ----- ---------------- ---------- --------- ----------------------------- ------------------------ 
224    eltwise_255         256   ScaleBias        50176      4096      I: eltwise_254_output         f32(1x7x7x512) (286)     
                                                                       W: eltwise_255_scale          f32(512) (288)           
                                                                       W: eltwise_208_bias           f32(512) (258)           
                                                                       O: eltwise_255_output         f32(1x7x7x512) (287)     
------ ------------------- ----- ---------------- ---------- --------- ----------------------------- ------------------------ 
225    eltwise_258         258   Eltwise/add      25088      0         I: nl_257_output              f32(1x7x7x512) (384)     
                                                                       I: eltwise_255_output         f32(1x7x7x512) (384)     
                                                                       O: eltwise_258_output         f32(1x7x7x512) (289)     
------ ------------------- ----- ---------------- ---------- --------- ----------------------------- ------------------------ 
226    conv2d_259          259   Conv2D           25600      102400    I: eltwise_258_output         f32(1x7x7x512) (289)     
                                                                       W: conv2d_259_weights         f32(512x7x7x1) (127)     
                                                                       W: conv2d_259_bias            f32(512) (125)           
                                                                       O: conv2d_259_output          f32(1x1x1x512) (126)     
------ ------------------- ----- ---------------- ---------- --------- ----------------------------- ------------------------ 
227    conv2d_260          260   Conv2D           262656     1050624   I: conv2d_259_output          f32(1x1x1x512) (126)     
                                                                       S: conv2d_260_scratch0                                 
                                                                       W: conv2d_260_weights         f32(512x1x1x512) (131)   
                                                                       W: conv2d_260_bias            f32(512) (128)           
                                                                       O: conv2d_260_output          f32(1x1x1x512) (129)     
------ ------------------- ----- ---------------- ---------- --------- ----------------------------- ------------------------ 
228    conv2d_261          261   Conv2D           65664      262656    I: conv2d_260_output          f32(1x1x1x512) (129)     
                                                                       S: conv2d_261_scratch0                                 
                                                                       W: conv2d_261_weights         f32(128x1x1x512) (135)   
                                                                       W: conv2d_261_bias            f32(128) (132)           
                                                                       O: conv2d_261_output          f32(1x1x1x128) (133)     
------ ------------------- ----- ---------------- ---------- --------- ----------------------------- ------------------------ 
229    normalization_263   263   Normalization    1536       0         I: conv2d_261_output          f32(1x1x1x128) (133)     
                                                                       O: normalization_263_output   f32(1x128) (406)         
------ ------------------- ----- ---------------- ---------- --------- ----------------------------- ------------------------ 



Number of operations per c-layer
------- ------ ----------------------------------- ------------- -------------- 
c_id    m_id   name (type)                                   #op           type 
------- ------ ----------------------------------- ------------- -------------- 
0       0      conv2d_0 (Conv2D)                       5,419,072   smul_f32_f32 
1       5      nl_5 (Nonlinearity)                       200,704     op_f32_f32 
2       1      nl_1 (Nonlinearity)                       401,408     op_f32_f32 
3       2      eltwise_2 (Eltwise/sub)                   200,704     op_f32_f32 
4       4      eltwise_3 (ScaleBias)                     401,408   smul_f32_f32 
5       6      eltwise_6 (Eltwise/add)                   200,704     op_f32_f32 
6       7      conv2d_7 (Conv2D)                       1,806,400   smul_f32_f32 
7       12     nl_12 (Nonlinearity)                      200,704     op_f32_f32 
8       8      nl_8 (Nonlinearity)                       401,408     op_f32_f32 
9       9      eltwise_9 (Eltwise/sub)                   200,704     op_f32_f32 
10      11     eltwise_10 (ScaleBias)                    401,408   smul_f32_f32 
11      13     eltwise_13 (Eltwise/add)                  200,704     op_f32_f32 
12      14     conv2d_14 (Conv2D)                     12,845,120   smul_f32_f32 
13      15     conv2d_15 (Conv2D)                     25,690,240   smul_f32_f32 
14      20     nl_20 (Nonlinearity)                      401,408     op_f32_f32 
15      16     nl_16 (Nonlinearity)                      802,816     op_f32_f32 
16      17     eltwise_17 (Eltwise/sub)                  401,408     op_f32_f32 
17      19     eltwise_18 (ScaleBias)                    802,816   smul_f32_f32 
18      21     eltwise_21 (Eltwise/add)                  401,408     op_f32_f32 
19      22     conv2d_22 (Conv2D)                        903,296   smul_f32_f32 
20      27     nl_27 (Nonlinearity)                      100,352     op_f32_f32 
21      23     nl_23 (Nonlinearity)                      200,704     op_f32_f32 
22      24     eltwise_24 (Eltwise/sub)                  100,352     op_f32_f32 
23      26     eltwise_25 (ScaleBias)                    200,704   smul_f32_f32 
24      28     eltwise_28 (Eltwise/add)                  100,352     op_f32_f32 
25      29     conv2d_29 (Conv2D)                      6,422,592   smul_f32_f32 
26      30     conv2d_30 (Conv2D)                      6,422,656   smul_f32_f32 
27      35     nl_35 (Nonlinearity)                      100,352     op_f32_f32 
28      31     nl_31 (Nonlinearity)                      200,704     op_f32_f32 
29      32     eltwise_32 (Eltwise/sub)                  100,352     op_f32_f32 
30      34     eltwise_33 (ScaleBias)                    200,704   smul_f32_f32 
31      36     eltwise_36 (Eltwise/add)                  100,352     op_f32_f32 
32      37     conv2d_37 (Conv2D)                        903,296   smul_f32_f32 
33      42     nl_42 (Nonlinearity)                      100,352     op_f32_f32 
34      38     nl_38 (Nonlinearity)                      200,704     op_f32_f32 
35      39     eltwise_39 (Eltwise/sub)                  100,352     op_f32_f32 
36      41     eltwise_40 (ScaleBias)                    200,704   smul_f32_f32 
37      43     eltwise_43 (Eltwise/add)                  100,352     op_f32_f32 
38      44     conv2d_44 (Conv2D)                      6,422,592   smul_f32_f32 
39      45     eltwise_45 (Eltwise/add)                   50,176     op_f32_f32 
40      46     conv2d_46 (Conv2D)                      6,422,656   smul_f32_f32 
41      51     nl_51 (Nonlinearity)                      100,352     op_f32_f32 
42      47     nl_47 (Nonlinearity)                      200,704     op_f32_f32 
43      48     eltwise_48 (Eltwise/sub)                  100,352     op_f32_f32 
44      50     eltwise_49 (ScaleBias)                    200,704   smul_f32_f32 
45      52     eltwise_52 (Eltwise/add)                  100,352     op_f32_f32 
46      53     conv2d_53 (Conv2D)                        903,296   smul_f32_f32 
47      58     nl_58 (Nonlinearity)                      100,352     op_f32_f32 
48      54     nl_54 (Nonlinearity)                      200,704     op_f32_f32 
49      55     eltwise_55 (Eltwise/sub)                  100,352     op_f32_f32 
50      57     eltwise_56 (ScaleBias)                    200,704   smul_f32_f32 
51      59     eltwise_59 (Eltwise/add)                  100,352     op_f32_f32 
52      60     conv2d_60 (Conv2D)                      6,422,592   smul_f32_f32 
53      61     eltwise_61 (Eltwise/add)                   50,176     op_f32_f32 
54      62     conv2d_62 (Conv2D)                      6,422,656   smul_f32_f32 
55      67     nl_67 (Nonlinearity)                      100,352     op_f32_f32 
56      63     nl_63 (Nonlinearity)                      200,704     op_f32_f32 
57      64     eltwise_64 (Eltwise/sub)                  100,352     op_f32_f32 
58      66     eltwise_65 (ScaleBias)                    200,704   smul_f32_f32 
59      68     eltwise_68 (Eltwise/add)                  100,352     op_f32_f32 
60      69     conv2d_69 (Conv2D)                        903,296   smul_f32_f32 
61      74     nl_74 (Nonlinearity)                      100,352     op_f32_f32 
62      70     nl_70 (Nonlinearity)                      200,704     op_f32_f32 
63      71     eltwise_71 (Eltwise/sub)                  100,352     op_f32_f32 
64      73     eltwise_72 (ScaleBias)                    200,704   smul_f32_f32 
65      75     eltwise_75 (Eltwise/add)                  100,352     op_f32_f32 
66      76     conv2d_76 (Conv2D)                      6,422,592   smul_f32_f32 
67      77     eltwise_77 (Eltwise/add)                   50,176     op_f32_f32 
68      78     conv2d_78 (Conv2D)                      6,422,656   smul_f32_f32 
69      83     nl_83 (Nonlinearity)                      100,352     op_f32_f32 
70      79     nl_79 (Nonlinearity)                      200,704     op_f32_f32 
71      80     eltwise_80 (Eltwise/sub)                  100,352     op_f32_f32 
72      82     eltwise_81 (ScaleBias)                    200,704   smul_f32_f32 
73      84     eltwise_84 (Eltwise/add)                  100,352     op_f32_f32 
74      85     conv2d_85 (Conv2D)                        903,296   smul_f32_f32 
75      90     nl_90 (Nonlinearity)                      100,352     op_f32_f32 
76      86     nl_86 (Nonlinearity)                      200,704     op_f32_f32 
77      87     eltwise_87 (Eltwise/sub)                  100,352     op_f32_f32 
78      89     eltwise_88 (ScaleBias)                    200,704   smul_f32_f32 
79      91     eltwise_91 (Eltwise/add)                  100,352     op_f32_f32 
80      92     conv2d_92 (Conv2D)                      6,422,592   smul_f32_f32 
81      93     eltwise_93 (Eltwise/add)                   50,176     op_f32_f32 
82      94     conv2d_94 (Conv2D)                     12,845,312   smul_f32_f32 
83      99     nl_99 (Nonlinearity)                      200,704     op_f32_f32 
84      95     nl_95 (Nonlinearity)                      401,408     op_f32_f32 
85      96     eltwise_96 (Eltwise/sub)                  200,704     op_f32_f32 
86      98     eltwise_97 (ScaleBias)                    401,408   smul_f32_f32 
87      100    eltwise_100 (Eltwise/add)                 200,704     op_f32_f32 
88      101    conv2d_101 (Conv2D)                       451,840   smul_f32_f32 
89      106    nl_106 (Nonlinearity)                      50,176     op_f32_f32 
90      102    nl_102 (Nonlinearity)                     100,352     op_f32_f32 
91      103    eltwise_103 (Eltwise/sub)                  50,176     op_f32_f32 
92      105    eltwise_104 (ScaleBias)                   100,352   smul_f32_f32 
93      107    eltwise_107 (Eltwise/add)                  50,176     op_f32_f32 
94      108    conv2d_108 (Conv2D)                     6,422,656   smul_f32_f32 
95      109    conv2d_109 (Conv2D)                     6,422,784   smul_f32_f32 
96      114    nl_114 (Nonlinearity)                      50,176     op_f32_f32 
97      110    nl_110 (Nonlinearity)                     100,352     op_f32_f32 
98      111    eltwise_111 (Eltwise/sub)                  50,176     op_f32_f32 
99      113    eltwise_112 (ScaleBias)                   100,352   smul_f32_f32 
100     115    eltwise_115 (Eltwise/add)                  50,176     op_f32_f32 
101     116    conv2d_116 (Conv2D)                       451,840   smul_f32_f32 
102     121    nl_121 (Nonlinearity)                      50,176     op_f32_f32 
103     117    nl_117 (Nonlinearity)                     100,352     op_f32_f32 
104     118    eltwise_118 (Eltwise/sub)                  50,176     op_f32_f32 
105     120    eltwise_119 (ScaleBias)                   100,352   smul_f32_f32 
106     122    eltwise_122 (Eltwise/add)                  50,176     op_f32_f32 
107     123    conv2d_123 (Conv2D)                     6,422,656   smul_f32_f32 
108     124    eltwise_124 (Eltwise/add)                  25,088     op_f32_f32 
109     125    conv2d_125 (Conv2D)                     6,422,784   smul_f32_f32 
110     130    nl_130 (Nonlinearity)                      50,176     op_f32_f32 
111     126    nl_126 (Nonlinearity)                     100,352     op_f32_f32 
112     127    eltwise_127 (Eltwise/sub)                  50,176     op_f32_f32 
113     129    eltwise_128 (ScaleBias)                   100,352   smul_f32_f32 
114     131    eltwise_131 (Eltwise/add)                  50,176     op_f32_f32 
115     132    conv2d_132 (Conv2D)                       451,840   smul_f32_f32 
116     137    nl_137 (Nonlinearity)                      50,176     op_f32_f32 
117     133    nl_133 (Nonlinearity)                     100,352     op_f32_f32 
118     134    eltwise_134 (Eltwise/sub)                  50,176     op_f32_f32 
119     136    eltwise_135 (ScaleBias)                   100,352   smul_f32_f32 
120     138    eltwise_138 (Eltwise/add)                  50,176     op_f32_f32 
121     139    conv2d_139 (Conv2D)                     6,422,656   smul_f32_f32 
122     140    eltwise_140 (Eltwise/add)                  25,088     op_f32_f32 
123     141    conv2d_141 (Conv2D)                     6,422,784   smul_f32_f32 
124     146    nl_146 (Nonlinearity)                      50,176     op_f32_f32 
125     142    nl_142 (Nonlinearity)                     100,352     op_f32_f32 
126     143    eltwise_143 (Eltwise/sub)                  50,176     op_f32_f32 
127     145    eltwise_144 (ScaleBias)                   100,352   smul_f32_f32 
128     147    eltwise_147 (Eltwise/add)                  50,176     op_f32_f32 
129     148    conv2d_148 (Conv2D)                       451,840   smul_f32_f32 
130     153    nl_153 (Nonlinearity)                      50,176     op_f32_f32 
131     149    nl_149 (Nonlinearity)                     100,352     op_f32_f32 
132     150    eltwise_150 (Eltwise/sub)                  50,176     op_f32_f32 
133     152    eltwise_151 (ScaleBias)                   100,352   smul_f32_f32 
134     154    eltwise_154 (Eltwise/add)                  50,176     op_f32_f32 
135     155    conv2d_155 (Conv2D)                     6,422,656   smul_f32_f32 
136     156    eltwise_156 (Eltwise/add)                  25,088     op_f32_f32 
137     157    conv2d_157 (Conv2D)                     6,422,784   smul_f32_f32 
138     162    nl_162 (Nonlinearity)                      50,176     op_f32_f32 
139     158    nl_158 (Nonlinearity)                     100,352     op_f32_f32 
140     159    eltwise_159 (Eltwise/sub)                  50,176     op_f32_f32 
141     161    eltwise_160 (ScaleBias)                   100,352   smul_f32_f32 
142     163    eltwise_163 (Eltwise/add)                  50,176     op_f32_f32 
143     164    conv2d_164 (Conv2D)                       451,840   smul_f32_f32 
144     169    nl_169 (Nonlinearity)                      50,176     op_f32_f32 
145     165    nl_165 (Nonlinearity)                     100,352     op_f32_f32 
146     166    eltwise_166 (Eltwise/sub)                  50,176     op_f32_f32 
147     168    eltwise_167 (ScaleBias)                   100,352   smul_f32_f32 
148     170    eltwise_170 (Eltwise/add)                  50,176     op_f32_f32 
149     171    conv2d_171 (Conv2D)                     6,422,656   smul_f32_f32 
150     172    eltwise_172 (Eltwise/add)                  25,088     op_f32_f32 
151     173    conv2d_173 (Conv2D)                     6,422,784   smul_f32_f32 
152     178    nl_178 (Nonlinearity)                      50,176     op_f32_f32 
153     174    nl_174 (Nonlinearity)                     100,352     op_f32_f32 
154     175    eltwise_175 (Eltwise/sub)                  50,176     op_f32_f32 
155     177    eltwise_176 (ScaleBias)                   100,352   smul_f32_f32 
156     179    eltwise_179 (Eltwise/add)                  50,176     op_f32_f32 
157     180    conv2d_180 (Conv2D)                       451,840   smul_f32_f32 
158     185    nl_185 (Nonlinearity)                      50,176     op_f32_f32 
159     181    nl_181 (Nonlinearity)                     100,352     op_f32_f32 
160     182    eltwise_182 (Eltwise/sub)                  50,176     op_f32_f32 
161     184    eltwise_183 (ScaleBias)                   100,352   smul_f32_f32 
162     186    eltwise_186 (Eltwise/add)                  50,176     op_f32_f32 
163     187    conv2d_187 (Conv2D)                     6,422,656   smul_f32_f32 
164     188    eltwise_188 (Eltwise/add)                  25,088     op_f32_f32 
165     189    conv2d_189 (Conv2D)                     6,422,784   smul_f32_f32 
166     194    nl_194 (Nonlinearity)                      50,176     op_f32_f32 
167     190    nl_190 (Nonlinearity)                     100,352     op_f32_f32 
168     191    eltwise_191 (Eltwise/sub)                  50,176     op_f32_f32 
169     193    eltwise_192 (ScaleBias)                   100,352   smul_f32_f32 
170     195    eltwise_195 (Eltwise/add)                  50,176     op_f32_f32 
171     196    conv2d_196 (Conv2D)                       451,840   smul_f32_f32 
172     201    nl_201 (Nonlinearity)                      50,176     op_f32_f32 
173     197    nl_197 (Nonlinearity)                     100,352     op_f32_f32 
174     198    eltwise_198 (Eltwise/sub)                  50,176     op_f32_f32 
175     200    eltwise_199 (ScaleBias)                   100,352   smul_f32_f32 
176     202    eltwise_202 (Eltwise/add)                  50,176     op_f32_f32 
177     203    conv2d_203 (Conv2D)                     6,422,656   smul_f32_f32 
178     204    eltwise_204 (Eltwise/add)                  25,088     op_f32_f32 
179     205    conv2d_205 (Conv2D)                    12,845,568   smul_f32_f32 
180     210    nl_210 (Nonlinearity)                     100,352     op_f32_f32 
181     206    nl_206 (Nonlinearity)                     200,704     op_f32_f32 
182     207    eltwise_207 (Eltwise/sub)                 100,352     op_f32_f32 
183     209    eltwise_208 (ScaleBias)                   200,704   smul_f32_f32 
184     211    eltwise_211 (Eltwise/add)                 100,352     op_f32_f32 
185     212    conv2d_212 (Conv2D)                       226,304   smul_f32_f32 
186     217    nl_217 (Nonlinearity)                      25,088     op_f32_f32 
187     213    nl_213 (Nonlinearity)                      50,176     op_f32_f32 
188     214    eltwise_214 (Eltwise/sub)                  25,088     op_f32_f32 
189     216    eltwise_215 (ScaleBias)                    50,176   smul_f32_f32 
190     218    eltwise_218 (Eltwise/add)                  25,088     op_f32_f32 
191     219    conv2d_219 (Conv2D)                     3,211,392   smul_f32_f32 
192     220    conv2d_220 (Conv2D)                     1,605,888   smul_f32_f32 
193     225    nl_225 (Nonlinearity)                      12,544     op_f32_f32 
194     221    nl_221 (Nonlinearity)                      25,088     op_f32_f32 
195     222    eltwise_222 (Eltwise/sub)                  12,544     op_f32_f32 
196     224    eltwise_223 (ScaleBias)                    25,088   smul_f32_f32 
197     226    eltwise_226 (Eltwise/add)                  12,544     op_f32_f32 
198     227    conv2d_227 (Conv2D)                       113,152   smul_f32_f32 
199     232    nl_232 (Nonlinearity)                      12,544     op_f32_f32 
200     228    nl_228 (Nonlinearity)                      25,088     op_f32_f32 
201     229    eltwise_229 (Eltwise/sub)                  12,544     op_f32_f32 
202     231    eltwise_230 (ScaleBias)                    25,088   smul_f32_f32 
203     233    eltwise_233 (Eltwise/add)                  12,544     op_f32_f32 
204     234    conv2d_234 (Conv2D)                     1,605,760   smul_f32_f32 
205     235    eltwise_235 (Eltwise/add)                   6,272     op_f32_f32 
206     236    conv2d_236 (Conv2D)                     1,605,888   smul_f32_f32 
207     241    nl_241 (Nonlinearity)                      12,544     op_f32_f32 
208     237    nl_237 (Nonlinearity)                      25,088     op_f32_f32 
209     238    eltwise_238 (Eltwise/sub)                  12,544     op_f32_f32 
210     240    eltwise_239 (ScaleBias)                    25,088   smul_f32_f32 
211     242    eltwise_242 (Eltwise/add)                  12,544     op_f32_f32 
212     243    conv2d_243 (Conv2D)                       113,152   smul_f32_f32 
213     248    nl_248 (Nonlinearity)                      12,544     op_f32_f32 
214     244    nl_244 (Nonlinearity)                      25,088     op_f32_f32 
215     245    eltwise_245 (Eltwise/sub)                  12,544     op_f32_f32 
216     247    eltwise_246 (ScaleBias)                    25,088   smul_f32_f32 
217     249    eltwise_249 (Eltwise/add)                  12,544     op_f32_f32 
218     250    conv2d_250 (Conv2D)                     1,605,760   smul_f32_f32 
219     251    eltwise_251 (Eltwise/add)                   6,272     op_f32_f32 
220     252    conv2d_252 (Conv2D)                     3,211,776   smul_f32_f32 
221     257    nl_257 (Nonlinearity)                      25,088     op_f32_f32 
222     253    nl_253 (Nonlinearity)                      50,176     op_f32_f32 
223     254    eltwise_254 (Eltwise/sub)                  25,088     op_f32_f32 
224     256    eltwise_255 (ScaleBias)                    50,176   smul_f32_f32 
225     258    eltwise_258 (Eltwise/add)                  25,088     op_f32_f32 
226     259    conv2d_259 (Conv2D)                        25,600   smul_f32_f32 
227     260    conv2d_260 (Conv2D)                       262,656   smul_f32_f32 
228     261    conv2d_261 (Conv2D)                        65,664   smul_f32_f32 
229     263    normalization_263 (Normalization)           1,536   smul_f32_f32 
------- ------ ----------------------------------- ------------- -------------- 
total                                                253,766,016 

Number of operation types
---------------- ------------- ----------- 
operation type               #           % 
---------------- ------------- ----------- 
smul_f32_f32       239,603,840       94.4% 
op_f32_f32          14,162,176        5.6% 

Complexity report (model)
------ ------------------- ------------------------- ------------------------- ------- 
m_id   name                c_macc                    c_rom                     c_id    
------ ------------------- ------------------------- ------------------------- ------- 
0      input               ||||               2.1%   |                  0.1%   [0]     
1      nl_1                |                  0.2%   |                  0.0%   [2]     
2      eltwise_2           |                  0.1%   |                  0.0%   [3]     
4      arith_constant119   |                  0.2%   |                  0.0%   [4]     
5      nl_5                |                  0.1%   |                  0.0%   [1]     
6      eltwise_6           |                  0.1%   |                  0.0%   [5]     
7      conv2d_7            ||                 0.7%   |                  0.1%   [6]     
8      nl_8                |                  0.2%   |                  0.0%   [8]     
9      eltwise_9           |                  0.1%   |                  0.0%   [9]     
11     eltwise_11          |                  0.2%   |                  0.0%   [10]    
12     nl_12               |                  0.1%   |                  0.0%   [7]     
13     eltwise_13          |                  0.1%   |                  0.0%   [11]    
14     conv2d_14           ||||||||           5.1%   |                  0.3%   [12]    
15     conv2d_15           ||||||||||||||||  10.1%   |                  0.7%   [13]    
16     nl_16               |                  0.3%   |                  0.0%   [15]    
17     eltwise_17          |                  0.2%   |                  0.0%   [16]    
19     eltwise_19          |                  0.3%   |                  0.0%   [17]    
20     nl_20               |                  0.2%   |                  0.0%   [14]    
21     eltwise_21          |                  0.2%   |                  0.0%   [18]    
22     conv2d_22           |                  0.4%   |                  0.1%   [19]    
23     nl_23               |                  0.1%   |                  0.0%   [21]    
24     eltwise_24          |                  0.0%   |                  0.0%   [22]    
26     eltwise_26          |                  0.1%   |                  0.0%   [23]    
27     nl_27               |                  0.0%   |                  0.0%   [20]    
28     eltwise_28          |                  0.0%   |                  0.0%   [24]    
29     conv2d_29           ||||               2.5%   |                  0.7%   [25]    
30     conv2d_30           ||||               2.5%   |                  0.7%   [26]    
31     nl_31               |                  0.1%   |                  0.0%   [28]    
32     eltwise_32          |                  0.0%   |                  0.0%   [29]    
34     eltwise_34          |                  0.1%   |                  0.0%   [30]    
35     nl_35               |                  0.0%   |                  0.0%   [27]    
36     eltwise_36          |                  0.0%   |                  0.0%   [31]    
37     conv2d_37           |                  0.4%   |                  0.1%   [32]    
38     nl_38               |                  0.1%   |                  0.0%   [34]    
39     eltwise_39          |                  0.0%   |                  0.0%   [35]    
41     eltwise_41          |                  0.1%   |                  0.0%   [36]    
42     nl_42               |                  0.0%   |                  0.0%   [33]    
43     eltwise_43          |                  0.0%   |                  0.0%   [37]    
44     conv2d_44           ||||               2.5%   |                  0.7%   [38]    
45     eltwise_45          |                  0.0%   |                  0.0%   [39]    
46     conv2d_46           ||||               2.5%   |                  0.7%   [40]    
47     nl_47               |                  0.1%   |                  0.0%   [42]    
48     eltwise_48          |                  0.0%   |                  0.0%   [43]    
50     eltwise_50          |                  0.1%   |                  0.0%   [44]    
51     nl_51               |                  0.0%   |                  0.0%   [41]    
52     eltwise_52          |                  0.0%   |                  0.0%   [45]    
53     conv2d_53           |                  0.4%   |                  0.1%   [46]    
54     nl_54               |                  0.1%   |                  0.0%   [48]    
55     eltwise_55          |                  0.0%   |                  0.0%   [49]    
57     eltwise_57          |                  0.1%   |                  0.0%   [50]    
58     nl_58               |                  0.0%   |                  0.0%   [47]    
59     eltwise_59          |                  0.0%   |                  0.0%   [51]    
60     conv2d_60           ||||               2.5%   |                  0.7%   [52]    
61     eltwise_61          |                  0.0%   |                  0.0%   [53]    
62     conv2d_62           ||||               2.5%   |                  0.7%   [54]    
63     nl_63               |                  0.1%   |                  0.0%   [56]    
64     eltwise_64          |                  0.0%   |                  0.0%   [57]    
66     eltwise_66          |                  0.1%   |                  0.0%   [58]    
67     nl_67               |                  0.0%   |                  0.0%   [55]    
68     eltwise_68          |                  0.0%   |                  0.0%   [59]    
69     conv2d_69           |                  0.4%   |                  0.1%   [60]    
70     nl_70               |                  0.1%   |                  0.0%   [62]    
71     eltwise_71          |                  0.0%   |                  0.0%   [63]    
73     eltwise_73          |                  0.1%   |                  0.0%   [64]    
74     nl_74               |                  0.0%   |                  0.0%   [61]    
75     eltwise_75          |                  0.0%   |                  0.0%   [65]    
76     conv2d_76           ||||               2.5%   |                  0.7%   [66]    
77     eltwise_77          |                  0.0%   |                  0.0%   [67]    
78     conv2d_78           ||||               2.5%   |                  0.7%   [68]    
79     nl_79               |                  0.1%   |                  0.0%   [70]    
80     eltwise_80          |                  0.0%   |                  0.0%   [71]    
82     eltwise_82          |                  0.1%   |                  0.0%   [72]    
83     nl_83               |                  0.0%   |                  0.0%   [69]    
84     eltwise_84          |                  0.0%   |                  0.0%   [73]    
85     conv2d_85           |                  0.4%   |                  0.1%   [74]    
86     nl_86               |                  0.1%   |                  0.0%   [76]    
87     eltwise_87          |                  0.0%   |                  0.0%   [77]    
89     eltwise_89          |                  0.1%   |                  0.0%   [78]    
90     nl_90               |                  0.0%   |                  0.0%   [75]    
91     eltwise_91          |                  0.0%   |                  0.0%   [79]    
92     conv2d_92           ||||               2.5%   |                  0.7%   [80]    
93     eltwise_93          |                  0.0%   |                  0.0%   [81]    
94     conv2d_94           ||||||||           5.1%   |                  1.3%   [82]    
95     nl_95               |                  0.2%   |                  0.0%   [84]    
96     eltwise_96          |                  0.1%   |                  0.0%   [85]    
98     eltwise_98          |                  0.2%   |                  0.0%   [86]    
99     nl_99               |                  0.1%   |                  0.0%   [83]    
100    eltwise_100         |                  0.1%   |                  0.0%   [87]    
101    conv2d_101          |                  0.2%   |                  0.2%   [88]    
102    nl_102              |                  0.0%   |                  0.0%   [90]    
103    eltwise_103         |                  0.0%   |                  0.0%   [91]    
105    eltwise_105         |                  0.0%   |                  0.0%   [92]    
106    nl_106              |                  0.0%   |                  0.0%   [89]    
107    eltwise_107         |                  0.0%   |                  0.0%   [93]    
108    conv2d_108          ||||               2.5%   ||                 2.6%   [94]    
109    conv2d_109          ||||               2.5%   ||                 2.6%   [95]    
110    nl_110              |                  0.0%   |                  0.0%   [97]    
111    eltwise_111         |                  0.0%   |                  0.0%   [98]    
113    eltwise_113         |                  0.0%   |                  0.0%   [99]    
114    nl_114              |                  0.0%   |                  0.0%   [96]    
115    eltwise_115         |                  0.0%   |                  0.0%   [100]   
116    conv2d_116          |                  0.2%   |                  0.2%   [101]   
117    nl_117              |                  0.0%   |                  0.0%   [103]   
118    eltwise_118         |                  0.0%   |                  0.0%   [104]   
120    eltwise_120         |                  0.0%   |                  0.0%   [105]   
121    nl_121              |                  0.0%   |                  0.0%   [102]   
122    eltwise_122         |                  0.0%   |                  0.0%   [106]   
123    conv2d_123          ||||               2.5%   ||                 2.6%   [107]   
124    eltwise_124         |                  0.0%   |                  0.0%   [108]   
125    conv2d_125          ||||               2.5%   ||                 2.6%   [109]   
126    nl_126              |                  0.0%   |                  0.0%   [111]   
127    eltwise_127         |                  0.0%   |                  0.0%   [112]   
129    eltwise_129         |                  0.0%   |                  0.0%   [113]   
130    nl_130              |                  0.0%   |                  0.0%   [110]   
131    eltwise_131         |                  0.0%   |                  0.0%   [114]   
132    conv2d_132          |                  0.2%   |                  0.2%   [115]   
133    nl_133              |                  0.0%   |                  0.0%   [117]   
134    eltwise_134         |                  0.0%   |                  0.0%   [118]   
136    eltwise_136         |                  0.0%   |                  0.0%   [119]   
137    nl_137              |                  0.0%   |                  0.0%   [116]   
138    eltwise_138         |                  0.0%   |                  0.0%   [120]   
139    conv2d_139          ||||               2.5%   ||                 2.6%   [121]   
140    eltwise_140         |                  0.0%   |                  0.0%   [122]   
141    conv2d_141          ||||               2.5%   ||                 2.6%   [123]   
142    nl_142              |                  0.0%   |                  0.0%   [125]   
143    eltwise_143         |                  0.0%   |                  0.0%   [126]   
145    eltwise_145         |                  0.0%   |                  0.0%   [127]   
146    nl_146              |                  0.0%   |                  0.0%   [124]   
147    eltwise_147         |                  0.0%   |                  0.0%   [128]   
148    conv2d_148          |                  0.2%   |                  0.2%   [129]   
149    nl_149              |                  0.0%   |                  0.0%   [131]   
150    eltwise_150         |                  0.0%   |                  0.0%   [132]   
152    eltwise_152         |                  0.0%   |                  0.0%   [133]   
153    nl_153              |                  0.0%   |                  0.0%   [130]   
154    eltwise_154         |                  0.0%   |                  0.0%   [134]   
155    conv2d_155          ||||               2.5%   ||                 2.6%   [135]   
156    eltwise_156         |                  0.0%   |                  0.0%   [136]   
157    conv2d_157          ||||               2.5%   ||                 2.6%   [137]   
158    nl_158              |                  0.0%   |                  0.0%   [139]   
159    eltwise_159         |                  0.0%   |                  0.0%   [140]   
161    eltwise_161         |                  0.0%   |                  0.0%   [141]   
162    nl_162              |                  0.0%   |                  0.0%   [138]   
163    eltwise_163         |                  0.0%   |                  0.0%   [142]   
164    conv2d_164          |                  0.2%   |                  0.2%   [143]   
165    nl_165              |                  0.0%   |                  0.0%   [145]   
166    eltwise_166         |                  0.0%   |                  0.0%   [146]   
168    eltwise_168         |                  0.0%   |                  0.0%   [147]   
169    nl_169              |                  0.0%   |                  0.0%   [144]   
170    eltwise_170         |                  0.0%   |                  0.0%   [148]   
171    conv2d_171          ||||               2.5%   ||                 2.6%   [149]   
172    eltwise_172         |                  0.0%   |                  0.0%   [150]   
173    conv2d_173          ||||               2.5%   ||                 2.6%   [151]   
174    nl_174              |                  0.0%   |                  0.0%   [153]   
175    eltwise_175         |                  0.0%   |                  0.0%   [154]   
177    eltwise_177         |                  0.0%   |                  0.0%   [155]   
178    nl_178              |                  0.0%   |                  0.0%   [152]   
179    eltwise_179         |                  0.0%   |                  0.0%   [156]   
180    conv2d_180          |                  0.2%   |                  0.2%   [157]   
181    nl_181              |                  0.0%   |                  0.0%   [159]   
182    eltwise_182         |                  0.0%   |                  0.0%   [160]   
184    eltwise_184         |                  0.0%   |                  0.0%   [161]   
185    nl_185              |                  0.0%   |                  0.0%   [158]   
186    eltwise_186         |                  0.0%   |                  0.0%   [162]   
187    conv2d_187          ||||               2.5%   ||                 2.6%   [163]   
188    eltwise_188         |                  0.0%   |                  0.0%   [164]   
189    conv2d_189          ||||               2.5%   ||                 2.6%   [165]   
190    nl_190              |                  0.0%   |                  0.0%   [167]   
191    eltwise_191         |                  0.0%   |                  0.0%   [168]   
193    eltwise_193         |                  0.0%   |                  0.0%   [169]   
194    nl_194              |                  0.0%   |                  0.0%   [166]   
195    eltwise_195         |                  0.0%   |                  0.0%   [170]   
196    conv2d_196          |                  0.2%   |                  0.2%   [171]   
197    nl_197              |                  0.0%   |                  0.0%   [173]   
198    eltwise_198         |                  0.0%   |                  0.0%   [174]   
200    eltwise_200         |                  0.0%   |                  0.0%   [175]   
201    nl_201              |                  0.0%   |                  0.0%   [172]   
202    eltwise_202         |                  0.0%   |                  0.0%   [176]   
203    conv2d_203          ||||               2.5%   ||                 2.6%   [177]   
204    eltwise_204         |                  0.0%   |                  0.0%   [178]   
205    conv2d_205          ||||||||           5.1%   ||||               5.2%   [179]   
206    nl_206              |                  0.1%   |                  0.0%   [181]   
207    eltwise_207         |                  0.0%   |                  0.0%   [182]   
209    eltwise_209         |                  0.1%   |                  0.1%   [183]   
210    nl_210              |                  0.0%   |                  0.0%   [180]   
211    eltwise_211         |                  0.0%   |                  0.0%   [184]   
212    conv2d_212          |                  0.1%   |                  0.4%   [185]   
213    nl_213              |                  0.0%   |                  0.0%   [187]   
214    eltwise_214         |                  0.0%   |                  0.0%   [188]   
216    eltwise_216         |                  0.0%   |                  0.1%   [189]   
217    nl_217              |                  0.0%   |                  0.0%   [186]   
218    eltwise_218         |                  0.0%   |                  0.0%   [190]   
219    conv2d_219          ||                 1.3%   ||||               5.2%   [191]   
220    conv2d_220          |                  0.6%   ||                 2.6%   [192]   
221    nl_221              |                  0.0%   |                  0.0%   [194]   
222    eltwise_222         |                  0.0%   |                  0.0%   [195]   
224    eltwise_224         |                  0.0%   |                  0.0%   [196]   
225    nl_225              |                  0.0%   |                  0.0%   [193]   
226    eltwise_226         |                  0.0%   |                  0.0%   [197]   
227    conv2d_227          |                  0.0%   |                  0.2%   [198]   
228    nl_228              |                  0.0%   |                  0.0%   [200]   
229    eltwise_229         |                  0.0%   |                  0.0%   [201]   
231    eltwise_231         |                  0.0%   |                  0.0%   [202]   
232    nl_232              |                  0.0%   |                  0.0%   [199]   
233    eltwise_233         |                  0.0%   |                  0.0%   [203]   
234    conv2d_234          |                  0.6%   ||                 2.6%   [204]   
235    eltwise_235         |                  0.0%   |                  0.0%   [205]   
236    conv2d_236          |                  0.6%   ||                 2.6%   [206]   
237    nl_237              |                  0.0%   |                  0.0%   [208]   
238    eltwise_238         |                  0.0%   |                  0.0%   [209]   
240    eltwise_240         |                  0.0%   |                  0.0%   [210]   
241    nl_241              |                  0.0%   |                  0.0%   [207]   
242    eltwise_242         |                  0.0%   |                  0.0%   [211]   
243    conv2d_243          |                  0.0%   |                  0.2%   [212]   
244    nl_244              |                  0.0%   |                  0.0%   [214]   
245    eltwise_245         |                  0.0%   |                  0.0%   [215]   
247    eltwise_247         |                  0.0%   |                  0.0%   [216]   
248    nl_248              |                  0.0%   |                  0.0%   [213]   
249    eltwise_249         |                  0.0%   |                  0.0%   [217]   
250    conv2d_250          |                  0.6%   ||                 2.6%   [218]   
251    eltwise_251         |                  0.0%   |                  0.0%   [219]   
252    conv2d_252          ||                 1.3%   ||||               5.2%   [220]   
253    nl_253              |                  0.0%   |                  0.0%   [222]   
254    eltwise_254         |                  0.0%   |                  0.0%   [223]   
256    eltwise_256         |                  0.0%   |                  0.1%   [224]   
257    nl_257              |                  0.0%   |                  0.0%   [221]   
258    eltwise_258         |                  0.0%   |                  0.0%   [225]   
259    conv2d_259          |                  0.0%   ||                 2.0%   [226]   
260    conv2d_260          |                  0.1%   ||||||||||||||||  20.8%   [227]   
261    conv2d_261          |                  0.0%   ||||               5.2%   [228]   
263    normalization_263   |                  0.0%   |                  0.0%   [229]   
------ ------------------- ------------------------- ------------------------- ------- 
macc=253,766,016 weights=5,044,480 act=4,816,896 ram_io=0
 
 Requested memory size by section - "stm32h7" target
 ------------------------------ -------- ----------- -------- ----------- 
 module                             text      rodata     data         bss 
 ------------------------------ -------- ----------- -------- ----------- 
 NetworkRuntime1020_CM7_GCC.a     10,128           0        0           0 
 facerec.o                         6,764       1,840   55,204       2,032 
 facerec_data.o                       48          16       88           0 
 lib (toolchain)*                    902         624        0           0 
 ------------------------------ -------- ----------- -------- ----------- 
 RT total**                       17,842       2,480   55,292       2,032 
 ------------------------------ -------- ----------- -------- ----------- 
 weights                               0   5,044,480        0           0 
 activations                           0           0        0   4,816,896 
 io                                    0           0        0           0 
 ------------------------------ -------- ----------- -------- ----------- 
 TOTAL                            17,842   5,046,960   55,292   4,818,928 
 ------------------------------ -------- ----------- -------- ----------- 
 *  toolchain objects (libm/libgcc*)
 ** RT AI runtime objects (kernels+infrastructure)
  
  Summary - "stm32h7" target
  --------------------------------------------------
               FLASH (ro)     %*    RAM (rw)      % 
  --------------------------------------------------
  RT total         75,614   1.5%      57,324   1.2% 
  --------------------------------------------------
  TOTAL         5,120,094          4,874,220        
  --------------------------------------------------
  *  rt/total


Generated files (7)
-------------------------------------------- 
C:\Model\facerec_out\facerec_data_params.h   
C:\Model\facerec_out\facerec_data_params.c   
C:\Model\facerec_out\facerec_data.h          
C:\Model\facerec_out\facerec_data.c          
C:\Model\facerec_out\facerec_config.h        
C:\Model\facerec_out\facerec.h               
C:\Model\facerec_out\facerec.c               
